logs/vanilla_lstm/version_4/checkpoints/epoch=9-step=250.ckpt (torch, 17714 bytes, 12 tensors)

lstm.lstm.weight_ih_l0 f4 [40, 10]
0.2584669 -0.111428045 -0.056653086 -0.0471726 -0.4506381 -0.40382674 -0.40961742 -0.14982165
-0.12796691 0.024842309 -0.025613481 -0.011289589 -0.1946699 -0.016446603 -0.16592698 -0.45711035
0.11887835 0.17803289 0.1398534 -0.14011788 0.21849787 0.26276514 -0.028290069 0.31184092
0.14455211 0.2857894 -0.05972596 -0.1985727 0.1619682 -0.3151159 0.11957565 -0.12661369
-0.12656146 -0.4693707 -0.36619002 -0.48315102 -0.07135732 0.31542388 -0.047185786 -0.0073276637
0.21640491 0.19030306 -0.058953717 -0.35049444 -0.21771313 -0.047642093 -0.010087005 -0.34451264
0.037223488 -0.22210652 -0.26061893 -0.19268656 -0.13296208 0.47573727 0.3332455 0.19635573
0.22995846 0.15594657 -0.14590867 -0.044277057 0.09765316 0.050033256 -0.23113932 -0.13518912
-0.19429208 0.1855169 -0.0587465 0.014062701 0.06350179 -0.16553348 0.2863719 -0.2661849
0.048590366 -0.1836811 -0.014407918 -0.2115311 0.3364787 0.3539101 -0.09477985 0.14798066
0.21989465 -0.08887521 -0.22653876 -0.01042104 -0.05149019 -0.36842233 -0.37805957 -0.33081982
-0.19897331 -0.007024353 -0.26563337 -0.07762415 -0.03232924 0.048734367 -0.072655246 -0.06899397
0.069252566 -0.189854 -0.33776206 -0.22222646 0.07919016 0.08258245 -0.22353041 0.030212747
-0.17932822 -0.4604701 -0.16931324 0.13947983 0.12600793 0.085526414 0.21550162 0.23735078
-0.28012267 -0.15979484 -0.19549227 0.121824525 0.1317096 -0.028640984 0.093160085 -0.06869149
-0.20061158 0.29029703 -0.12486849 -0.06344306 0.25773406 0.4534259 0.24627139 0.2131718
-0.18311237 0.30030394 0.28772673 0.113624066 -0.051891387 0.04686183 -0.4128081 0.13197953
-0.19477788 0.28103405 0.08426749 -0.3283122 0.111912645 0.2965618 -0.0141549045 -0.12814316
-0.05835276 -0.28731266 -0.29684865 -0.09609358 0.13619086 0.055301555 0.16664448 -0.23282827
0.21173897 0.47100452 0.22809535 0.530719 0.255985 0.00789048 0.2766914 -0.03341117
0.24422652 -0.2546673 0.045730162 0.006783997 -0.019961925 -0.10071841 -0.051365186 -0.20971136
-0.13525133 -0.27685407 0.35102987 -0.05969396 -0.049998723 -0.16889285 -0.23838747 0.3664137
0.042125966 0.22857492 -0.16985296 0.24972965 -0.14793083 0.037851814 -0.34562027 -0.44242817
-0.5591415 -0.10946276 -0.10714087 0.20366976 -0.07499952 0.2147531 -0.24826227 -0.025060289
-0.28217623 -0.17233709 -0.12893623 0.27238825 -0.100302346 -0.42608944 -0.41478884 -0.28205296
0.20609424 -0.041880496 0.0010757423 0.3522493 0.3713774 0.48878103 -0.14606601 0.2551224
-0.32680985 0.17767735 0.04203512 -0.13833193 0.37304598 -0.04201642 0.16505347 0.5615865
0.41737303 0.17692675 0.14405695 -0.2373875 -0.04179226 0.2780532 0.19710378 0.11032841
-0.07751783 -0.10335465 -0.39648947 -0.009725054 0.09841192 0.117242 -0.040452693 -0.0020323412
0.2741965 -0.05858402 0.3902954 0.015754826 0.008189203 0.27465814 0.16731094 0.015622411
-0.29294047 -0.14100221 0.23642956 -0.034558285 0.5993325 0.28596187 0.31214723 -0.11027405
0.0068580797 -0.054440323 0.07898812 -0.018069502 0.17917168 -0.027024088 0.34969 0.5536507
00000000: c655 843e 6334 e4bd 110d 68bd 0e38 41bd
00000010: 09ba e6be 61c2 cebe 60b9 d1be d96a 19be
00000020: c209 03be 1982 cb3c 5dd3 d1bc f8f7 38bc
00000030: 8c57 47be 07bb 86bc c3e8 29be 5e0a eabe
00000040: 7e76 f33d 414e 363e bb35 0f3e 107b 0fbe
00000050: e8bd 5f3e 2789 863e 93c0 e7bc 9da9 9f3e
00000060: 7805 143e fd52 923e 35a3 74bd a456 4bbe
00000070: feda 253e df56 a1be 14e4 f43d 05a7 01be
00000080: 5499 01be 5b51 f0be 427d bbbe 925f f7be
00000090: c923 92bd 3d7f a13e e245 41bd e61c f0bb
000000a0: 4099 5d3e cede 423e 7479 71bd 0274 b3be
000000b0: 31f0 5ebe 5b24 43bd f743 25bc f663 b0be
000000c0: a877 183d e46f 63be d86f 85be a04f 45be
000000d0: 3627 08be d693 f33e 279f aa3e 7a11 493e
000000e0: 3b7a 6b3e 75b0 1f3e 1569 15be dc5b 35bd
000000f0: 61fe c73d acef 4c3d c9af 6cbe 046f 0abe
00000100: 81f4 46be 24f8 3d3e 2ca0 70bd 3e67 663c
00000110: 3a0d 823d 9c81 29be 569f 923e 6349 88be
00000120: b106 473d e616 3cbe 300f 6cbc 9c9b 58be
00000130: f046 ac3e b433 b53e f01b c2bd 3e88 173e
00000140: 102c 613e 3504 b6bd c7f9 67be 02bd 2abc
00000150: 61e7 52bd daa1 bcbe 0691 c1be 3761 a9be
00000160: a9bf 4bbe 8b2c e6bb 1901 88be 69f9 9ebd
00000170: aa6b 04bd b09d 473d 46cc 94bd b64c 8dbd
00000180: 4ad4 8d3d 1669 42be 26ef acbe 558f 63be
00000190: 732e a23d fd20 a93d 28e5 64be b980 f73c
000001a0: d1a1 37be bdc2 ebbe 7360 2dbe cdd3 0e3e
000001b0: 3908 013e 7928 af3d 75ac 5c3e 150c 733e
000001c0: 3d6c 8fbe 42a1 23be 202f 48be 237f f93d
000001d0: e2de 063e 7fa0 eabc b7ca be3d 20ae 8cbd
000001e0: 1f6d 4dbe d0a1 943e 0dbb ffbd 6fee 81bd
000001f0: b8f5 833e 7127 e83e 912e 7c3e b549 5a3e
00000200: cf81 3bbe 70c1 993e eb50 933e bcb3 e83d
00000210: 108c 54bd 31f2 3f3d 955b d3be a425 073e
00000220: da73 47be b2e3 8f3e 6f94 ac3d 8918 a8be
00000230: 7532 e53d f3d6 973e f9e9 67bc f637 03be
00000240: 4e03 6fbd a51a 93be 8cfc 97be b6cc c4bd
00000250: 9e75 0b3e e283 623d daa4 2a3e 896a 6ebe
00000260: 1ad2 583e 8127 f13e d491 693e 33dd 073f
00000270: 7710 833e 1247 013c 7faa 8d3e 27da 08bd
00000280: 8416 7a3e c163 82be 8d4f 3b3d 4b4c de3b
00000290: 3187 a3bc 7445 cebd 4d64 52bd 93be 56be
000002a0: 537f 0abe d1bf 8dbe 30ba b33e a781 74bd
000002b0: 76cb 4cbd 3ff2 2cbe d81b 74be 949a bb3e
000002c0: 478c 2c3d 8b0f 6a3e efed 2dbe 21b9 7f3e
000002d0: 2e7b 17be 810a 1b3d 24f5 b0be f285 e2be
000002e0: e623 0fbf 032e e0bd ac6c dbbd ce8e 503e
000002f0: 5999 99bd 3de8 5b3e 7738 7ebe 3c4b cdbc
00000300: 6779 90be 2279 30be dc07 04be 7976 8b3e
00000310: 516b cdbd 6528 dabe 345f d4be 3f69 90be
00000320: 5e0a 533e e28a 2bbd ecff 8c3a 055a b43e
00000330: 2e25 be3e 8241 fa3e 5492 15be 679f 823e
00000340: 9f53 a7be 0df1 353e 052d 2c3d e3a6 0dbe
00000350: e2ff be3e 6919 2cbd c703 293e 22c4 0f3f
00000360: ebb1 d53e 492c 353e aa83 133e b515 73be
00000370: 5c2e 2bbd fd5c 8e3e 93d5 493e ddf3 e13d
00000380: abc1 9ebd 9aab d3bd ab00 cbbe d555 1fbc
00000390: 308c c93d 931c f03d b9b1 25bd 0731 05bb
000003a0: 7c63 8c3e ccf5 6fbd ccd4 c73e 4410 813c
000003b0: 022c 063c fe9f 8c3e 8f53 2b3e 24f5 7f3c
000003c0: 4bfc 95be e262 10be 971a 723e fd8c 0dbd
000003d0: db6d 193f 9869 923e c3d1 9f3e 5cd7 e1bd
000003e0: beb9 e03b d1fc 5ebd 86c4 a13d 7e06 94bc
000003f0: c878 373e 9f61 ddbc 910a b33e 0dbc 0d3f

lstm.lstm.weight_hh_l0 f4 [40, 10]
0.100364245 0.2056108 -0.19155096 -0.16183235 0.10229409 -0.05571095 -0.045821317 0.09320701
-0.121960945 0.040688578 0.19017677 0.009500761 0.1546705 0.023728067 0.115145884 -0.18989943
0.084564045 -0.024816686 0.14587587 0.093847 -0.27221265 -0.019973127 0.19077057 0.08883659
-0.20465225 -0.26752272 0.23079117 0.34748286 -0.08549307 -0.3177852 0.3644694 0.190802
0.07983188 0.37237805 0.017152173 0.10509171 0.012516923 -0.018841172 0.17253464 0.43181765
0.07893472 0.23808472 0.043653727 0.16441934 0.2957848 0.019634087 0.21466301 -0.0586681
-0.18588845 -0.16975111 0.19439447 0.30236924 -0.04058719 -0.31843182 -0.27567253 -0.23284017
-0.04207994 0.20828746 -0.043190926 -0.037146386 -0.18219936 -0.23973563 0.05896354 0.31894752
0.36641493 0.013471635 -0.24858691 0.17122291 -0.13621536 -0.38578385 0.006681233 -0.1094416
0.29049838 0.20289572 0.08543566 -0.29210913 -0.1470639 0.03530239 -0.22504151 -0.40939352
-0.2315137 -0.22306147 -0.09219945 -0.22673373 0.13291414 0.26196173 -0.17954805 -0.16575956
0.1628993 0.19167076 0.35203165 0.08502031 0.24150147 0.1868584 0.005978317 -0.5343267
0.47346032 0.21757942 -0.04437929 -0.0017515027 -0.13972147 -0.15097746 0.15504704 0.34304368
-0.15072125 -0.18985748 -0.08079308 -0.16349564 -0.20055903 0.24591126 0.17279677 0.011749176
0.13645348 -0.11799067 0.21497492 0.2380635 0.31041956 0.1836854 -0.08699161 0.108624436
-0.24193525 0.29115486 -0.014777839 -0.18836227 -0.2854303 -0.33855358 -0.045527495 0.24304408
-0.13054828 -0.4530276 -0.06274258 0.03544575 0.2224876 -0.097901225 0.011859546 -0.27414095
-0.11973821 0.035374295 0.08785869 0.05955355 -0.13731217 0.292601 -0.16650726 -0.090916015
-0.038408685 -0.08318069 -0.07094244 0.11494404 0.22270457 0.17691804 -0.008790978 0.29026023
-0.09751527 -0.32960984 -0.1302535 -0.23307618 0.23191163 -0.06263934 0.32981348 -0.38696572
0.14944887 -0.06513348 0.068458185 0.02820102 0.25802115 -0.17542107 0.3330921 -0.036690965
-0.15860191 -0.4262276 0.059110988 -0.194271 -0.058684275 -0.24211396 0.1641698 -0.25605643
0.0332272 0.2785783 -0.3498712 -0.092438616 0.24059552 -0.24574162 0.21868627 0.31385106
0.12363948 0.15904443 0.09280736 0.1279962 -0.039246082 0.3217899 0.28204414 0.018422589
-0.07552854 0.1833116 0.051405106 -0.21651578 -0.16256215 -0.10976338 -0.34658298 0.042320263
-0.2665081 0.25707167 -0.061337102 -0.31262928 0.2226064 -0.16275075 -0.020698888 -0.26058206
-0.09732795 0.067905426 0.15477166 -0.16156586 0.07743016 0.20175417 0.038207717 -0.056725662
0.16671294 0.046348643 -0.11939089 -0.33806354 0.20223852 0.23930056 -0.3184838 0.28919426
-0.014808778 0.26945496 -0.2702726 0.02833065 0.10161651 0.009161325 0.20339623 0.088953935
-0.17903493 -0.28336304 0.25332472 -0.2361411 -0.021137435 -0.26273444 -0.09434364 -0.33361304
0.046779722 0.16270724 0.005281638 0.08889134 0.16612871 0.029593669 0.2171355 0.096599
0.3076966 -0.36418632 0.24861233 0.17010981 -0.029624814 -0.23136224 0.0010294546 -0.05373068
00000000: c58b cd3d a38b 523e ef25 44be 61b7 25be
00000010: 907f d13d 2a31 64bd 22af 3bbd 51e3 be3d
00000020: a9c6 f9bd 11a9 263d b3bd 423e 14a9 1b3c
00000030: f261 1e3e 5d61 c23c 9bd1 eb3d ff74 42be
00000040: ea2f ad3d 5d4c cbbc 7c60 153e db32 c03d
00000050: 755f 8bbe af9e a3bc 5c59 433e f5ef b53d
00000060: 5c90 51be bdf8 88be 8554 6c3e 46e9 b13e
00000070: fe16 afbd beb4 a2be bc9b ba3e 9961 433e
00000080: e67e a33d 56a8 be3e b782 8c3c 533a d73d
00000090: c813 4d3c cd58 9abc ecac 303e 3417 dd3e
000000a0: 87a8 a13d 7bcc 733e 40ce 323d 8b5d 283e
000000b0: 1b71 973e aad7 a03c 9fd0 5b3e f64d 70bd
000000c0: 8b59 3ebe 3cd3 2dbe 580f 473e 24d0 9a3e
000000d0: c13e 26bd 7f09 a3be f324 8dbe a76d 6ebe
000000e0: 045c 2cbd 4f49 553e f8e8 30bd cf26 18bd
000000f0: 7892 3abe 427d 75be c183 713d 174d a33e
00000100: bd9a bb3e 22b8 5c3c 918d 7ebe 0f55 2f3e
00000110: 0a7c 0bbe 7685 c5be 3fee da3b eb22 e0bd
00000120: 34bc 943e e5c3 4f3e e4f8 ae3d 548f 95be
00000130: eb97 16be 3d99 103d 4871 66be 079c d1be
00000140: ed11 6dbe 3a6a 64be 11d3 bcbd e32c 68be
00000150: a51a 083e d91f 863e 72db 37be e0bc 29be
00000160: 13cf 263e 5745 443e 7e3d b43e 211f ae3d
00000170: 294c 773e cf57 3f3e c2e5 c33b a2c9 08bf
00000180: 6469 f23e 24cd 5e3e 0fc7 35bd ae92 e5ba
00000190: 2513 0fbe d699 1abe a7c4 1e3e 6ca3 af3e
000001a0: ac56 1abe 006a 42be d876 a5bd 676b 27be
000001b0: 595f 4dbe 29d0 7b3e a3f1 303e 9e7f 403c
000001c0: 76ba 0b3e 18a5 f1bd 6322 5c3e ebc6 733e
000001d0: 50ef 9e3e 0718 3c3e a828 b2bd 7d76 de3d
000001e0: e0bd 77be 4012 953e c01e 72bc 0ae2 40be
000001f0: ec23 92be e556 adbe 0a7b 3abd 8ce0 783e
00000200: 73ae 05be 3cf3 e7be 2f7f 80bd 902f 113d
00000210: cad3 633e 7080 c8bd 8b4e 423c 345c 8cbe
00000220: 4f39 f5bd a3e4 103d 42ef b33d 6cee 733d
00000230: 909b 0cbe cccf 953e e180 2abe 2d32 babd
00000240: 6d52 1dbd a35a aabd 454a 91bd c867 eb3d
00000250: ab0c 643e 012a 353e 0908 10bc fd9c 943e
00000260: 16b6 c7bd 9fc2 a8be 2c61 05be 86ab 6ebe
00000270: 3e7a 6d3e 0e49 80bd 50dd a83e 5f20 c6be
00000280: 2009 193e b464 85bd ce33 8c3d d305 e73c
00000290: 591b 843e 95a1 33be 0c8b aa3e 4449 16bd
000002a0: 8a68 22be 813a dabe 5d1e 723d faee 46be
000002b0: ec5e 70bd b9ec 77be 211c 283e d419 83be
000002c0: 3f19 083d d1a1 8e3e 5122 b3be 7550 bdbd
000002d0: ac5e 763e b1a3 7bbe 4bef 5f3e 16b1 a03e
000002e0: b236 fd3d 8bdc 223e c911 be3d 7011 033e
000002f0: 80c0 20bd a5c1 a43e 1768 903e f8ea 963c
00000300: b5ae 9abd 09b6 3b3e 298e 523d 50b6 5dbe
00000310: b176 26be 9fcb e0bd 5373 b1be 0358 2d3d
00000320: c073 88be e69e 833e 9d3c 7bbd f210 a0be
00000330: eff2 633e 22a8 26be b790 a9bc 036b 85be
00000340: e053 c7bd 0012 8b3d 767c 1e3e 8571 25be
00000350: b493 9e3d a598 4e3e b27f 1c3d 2b59 68bd
00000360: ccb6 2a3e 13d8 3d3d 3683 f4bd aa16 adbe
00000370: 9d17 4f3e 350b 753e 4f10 a3be 4511 943e
00000380: 84a0 72bc 00f6 893e 2c61 8abe ae15 e83c
00000390: 511c d03d 6219 163c 1a47 503e 7b2d b63d
000003a0: ef54 37be f614 91be c7b3 813e f9ce 71be
000003b0: 6a28 adbc 2185 86be 3d37 c1bd 54cf aabe
000003c0: 189c 3f3d ba9c 263e 9711 ad3b aa0c b63d
000003d0: a51d 2a3e 6c6e f23c c558 5e3e b2d5 c53d
000003e0: 698a 9d3e a176 babe 3b94 7e3e 4431 2e3e
000003f0: bdaf f2bc 39ea 6cbe c4ee 863a b414 5cbd

lstm.lstm.bias_ih_l0 f4 [40]
-0.11424153 0.01784153 -0.051160596 -0.011186159 0.038857017 0.08329489 -0.19794375 -0.0975277
0.24624285 -0.17092113 0.06488891 -0.17164095 0.22638406 -0.12882918 0.12777859 -0.18452139
-0.0011382705 0.15964858 0.08921065 -0.17774267 0.059073117 -0.19710237 0.2436471 -0.23064083
-0.20772395 0.2289799 -0.0763662 0.15605469 0.14022347 -0.046356224 0.2813408 -0.1486114
0.13768934 -0.21476313 0.18124329 -0.28739095 -0.050293133 0.10548118 -0.04462058 -0.43357405
00000000: 77f7 e9bd 6628 923c c68d 51bd 2746 37bc
00000010: 8928 1f3d 8396 aa3d c4b1 4abe 9abc c7bd
00000020: 1627 7c3e f305 2fbe 7ae4 843d a5c2 2fbe
00000030: 39d1 673e cceb 03be 64d8 023e 2df3 3cbe
00000040: 0532 95ba eb7a 233e 13b4 b63d 2d02 36be
00000050: a7f6 713d 34d5 49be a07e 793e 1c2d 6cbe
00000060: 96b5 54be b579 6a3e e265 9cbd cdcc 1f3e
00000070: be96 0f3e 06e0 3dbd e70b 903e 962d 18be
00000080: 6ffe 0c3e deea 5bbe d797 393e e824 93be
00000090: 2c00 4ebd 8406 d83d 12c4 36bd 6bfd ddbe

lstm.lstm.bias_hh_l0 f4 [40]
0.21119572 0.16257697 0.0748666 -0.030094136 -0.3013326 0.043864552 -0.041643336 0.0077009136
-0.17237587 -0.3288461 0.0015997898 0.043085985 -0.09539344 -0.009634974 -0.2780368 0.19021863
-0.06294528 -0.31649026 0.11276271 0.030702528 -0.19600326 -0.103070796 -0.2816601 0.18293092
0.010183422 0.164662 -0.08928191 -0.10819875 0.037573032 0.039380383 -0.14663206 -0.34764746
0.12446876 -0.0946827 -0.11285488 0.25915608 -0.30580565 -0.066067174 -0.2633574 -0.4597437
00000000: b143 583e 947a 263e a953 993d fa87 f6bc
00000010: 4448 9abe 51ab 333d 3492 2abd f257 fc3b
00000020: 4d83 30be 845e a8be 0ab0 d13a ee7a 303d
00000030: a35d c3bd 03dc 1dbc d75a 8ebe acc8 423e
00000040: 74e9 80bd 030b a2be 23f0 e63d de83 fb3c
00000050: 14b5 48be c816 d3bd c135 90be 3e52 3b3e
00000060: 5ed8 263c 289d 283e 6fd9 b6bd 4e97 ddbd
00000070: 2ee6 193d 534d 213d b726 16be d9fe b1be
00000080: 7ae9 fe3d 01e9 c1bd 7620 e7bd 1bb0 843e
00000090: 8f92 9cbe 3a4e 87bd c8d6 86be 8763 ebbe

exp_avg f4 [40, 10]
-6.206661e-10 2.887052e-09 6.1720544e-09 7.779111e-09 9.461755e-09 1.0119032e-08 4.899699e-09 9.299099e-10
2.0689546e-09 5.2516587e-09 -1.9612911e-10 3.5256864e-09 7.203561e-09 8.710126e-09 1.0545366e-08 1.1310725e-08
5.9393086e-09 2.2561069e-09 3.511721e-09 6.5309647e-09 -1.0133439e-09 -1.7746851e-09 -2.0417015e-09 -2.3171651e-09
-2.950947e-09 -2.881891e-09 -4.646647e-10 4.551667e-10 -3.9889914e-10 -1.4607673e-09 1.8175355e-09 4.6465978e-09
7.094556e-09 7.502219e-09 9.008114e-09 8.915604e-09 1.5179873e-09 -8.58442e-10 2.5263425e-09 6.0296994e-09
-2.0564785e-09 2.2101598e-09 6.3945627e-09 8.503086e-09 1.050861e-08 1.154075e-08 7.237893e-09 2.916929e-09
2.858277e-09 5.3822307e-09 -3.9585384e-09 -1.6602458e-08 -2.747634e-08 -3.113924e-08 -3.7826474e-08 -3.9345416e-08
-1.391389e-08 -1.1694926e-09 -1.1049021e-08 -2.4657183e-08 -6.5369943e-10 -7.629568e-10 -8.4696816e-10 -6.6526934e-10
-6.8233286e-10 -3.5807213e-10 7.4595646e-10 5.6287375e-10 -2.7330513e-10 -6.079766e-10 9.1922564e-10 2.6415797e-10
-6.443261e-10 -6.020638e-10 -4.0178802e-10 -5.1302684e-10 -3.624397e-10 3.2187178e-10 7.837626e-10 5.6013527e-10
-1.1400665e-09 3.2506189e-09 7.2293576e-09 9.0959995e-09 1.1010441e-08 1.1812015e-08 6.15902e-09 1.6401738e-09
2.7110305e-09 6.0118976e-09 3.9791413e-08 4.474048e-08 5.017664e-08 4.716426e-08 3.205204e-08 1.7612887e-08
2.6000457e-08 3.8010032e-08 3.895362e-08 3.3001793e-08 -3.822471e-10 3.1027683e-09 6.4030616e-09 7.853859e-09
9.693121e-09 1.05926965e-08 5.069903e-09 6.703325e-10 1.8279956e-09 5.22071e-09 1.9014412e-10 3.9669343e-09
7.2372015e-09 8.784399e-09 1.0664303e-08 1.12182095e-08 5.5180305e-09 1.7746344e-09 3.224893e-09 6.43704e-09
-9.772669e-10 -1.1076007e-09 -1.4124738e-09 -1.4634473e-09 -1.904863e-09 -2.1413977e-09 -6.2206457e-10 -1.02055926e-10
-7.761531e-10 -1.5249737e-09 1.7020382e-09 4.25719e-09 6.321956e-09 6.6170696e-09 8.005887e-09 8.003139e-09
1.4053997e-09 -1.0133647e-09 2.1016016e-09 5.4425033e-09 -6.177335e-10 2.5965319e-09 5.3364593e-09 6.8971167e-09
8.527611e-09 9.27017e-09 5.268607e-09 1.6403534e-09 2.0262274e-09 4.455746e-09 -4.101304e-09 -1.6122884e-08
-2.7637569e-08 -3.125576e-08 -3.8072624e-08 -3.9907505e-08 -1.42276315e-08 -2.3481732e-09 -1.2569173e-08 -2.5807935e-08
-5.4035615e-10 -7.325812e-10 -7.5018164e-10 -5.5554467e-10 -5.090808e-10 -2.4201566e-10 5.8821686e-10 4.481635e-10
-1.9976555e-10 -5.3139887e-10 -2.5809585e-10 -6.46958e-10 -3.6375922e-10 -6.937014e-11 -1.6474079e-10 -3.010485e-10
1.6739032e-10 5.722701e-10 2.7915878e-10 -3.1193034e-10 4.4465744e-11 5.1152313e-09 9.487996e-09 1.1383327e-08
1.3943796e-08 1.4762808e-08 6.685658e-09 1.3628103e-09 3.4200776e-09 7.903533e-09 2.2266752e-08 2.6111357e-08
3.2774512e-08 3.8609105e-08 3.093449e-08 1.3886007e-08 1.3236016e-08 1.873178e-08 2.1759115e-08 2.4140935e-08
8.831337e-09 -2.5186027e-08 -6.0068686e-08 -7.39017e-08 -9.358178e-08 -1.0747977e-07 -5.3332506e-08 -7.988468e-09
-1.8368096e-08 -5.3326254e-08 -6.6550737e-10 -2.0097366e-08 -3.857583e-08 -4.725754e-08 -5.8654724e-08 -6.317184e-08
-3.0182235e-08 -8.572015e-09 -1.7116554e-08 -3.555915e-08 1.3351273e-08 5.474299e-08 9.006105e-08 9.966826e-08
1.17372636e-07 1.2119695e-07 4.1629075e-08 -3.804973e-10 2.9481113e-08 7.428387e-08 -2.1777007e-08 -6.2870285e-08
-9.8189396e-08 -9.958164e-08 -1.2017759e-07 -1.2326625e-07 -1.4899143e-08 2.4531486e-08 -2.8953375e-08 -8.495823e-08
5.9062826e-09 -1.6688917e-08 -4.1727187e-08 -5.6007636e-08 -7.1775894e-08 -8.159915e-08 -4.8071858e-08 -1.8100822e-08
-2.0998439e-08 -4.081814e-08 -3.0164284e-08 -1.0548944e-07 -1.7219693e-07 -1.9468436e-07 -2.3231632e-07 -2.3767336e-07
00000000: 7e9b 2ab0 8e65 4631 f711 d431 e4a4 0532
00000010: 3d8d 2232 f9d7 2d32 355a a831 989c 7f30
00000020: 6f2d 0e31 1472 b431 70a5 57af 8848 7231
00000030: 3183 f731 8aa3 1532 032b 3532 1851 4232
00000040: b612 cc31 da09 1b31 d952 7131 f966 e031
00000050: de45 8bb0 2ee9 f3b0 fe4d 0cb1 003c 1fb1
00000060: 9cc9 4ab1 c30a 46b1 be73 ffaf 053b fa2f
00000070: 104c dbaf 2ec4 c8b0 d8cc f930 e8a7 9f31
00000080: 60c4 f331 1ce3 0032 1bc2 1a32 3e2b 1932
00000090: 6ea1 d030 7cf7 6bb0 e39b 2d31 cc2d cf31
000000a0: f451 0db1 8be1 1731 2bb7 db31 f814 1232
000000b0: 5b89 3432 c144 4632 2eb1 f831 2873 4831
000000c0: 576b 4431 9aee b831 ac03 88b1 319d 8eb2
000000d0: 1c05 ecb2 f5bd 05b3 a676 22b3 befc 28b3
000000e0: ef09 6fb2 ddbb a0b0 1cd2 3db2 b8cd d3b2
000000f0: 02b0 33b0 50b8 51b0 16d0 68b0 2bde 36b0
00000100: e88e 3bb0 2cda c4af 050c 4d30 b8b8 1a30
00000110: 4740 96af 8d1e 27b0 c1ac 7c30 ee38 912f
00000120: 6b1c 31b0 797e 25b0 a3e2 dcaf 0e05 0db0
00000130: da40 c7af 6df3 b02f 6470 5730 04f8 1930
00000140: 86b0 9cb0 7e61 5f31 1a66 f831 a144 1c32
00000150: 6e28 3d32 cbed 4a32 509f d331 7c6c e130
00000160: f44c 3a31 3691 ce31 1fe7 2a33 ae28 4033
00000170: cd81 5733 a791 4a33 97a9 0933 264b 9732
00000180: 9c57 df32 7940 2333 f54d 2733 dbbd 0d33
00000190: 7f24 d2af 7a38 5531 ed01 dc31 a3ed 0632
000001a0: cc86 2632 2cfb 3532 5733 ae31 7542 3830
000001b0: e13c fb30 da61 b331 d010 512f 864d 8831
000001c0: 19ab f831 32ea 1632 1a36 3732 35ba 4032
000001d0: 1c99 bd31 66e7 f330 eb9c 5d31 cd2c dd31
000001e0: 8650 86b0 3c3a 98b0 0121 c2b0 7922 c9b0
000001f0: b4e6 02b1 de27 13b1 e7fd 2ab0 616c e0ae
00000200: eb58 55b0 3e97 d1b0 25ed e930 a446 9231
00000210: 8338 d931 5c5c e331 438a 0932 2d7e 0932
00000220: 1b28 c130 9a46 8bb0 c46b 1031 c400 bb31
00000230: 21cd 29b0 ac6e 3231 fe5b b731 aefb ec31
00000240: d480 1232 a442 1f32 2807 b531 ce72 e130
00000250: c53d 0b31 2819 9931 74eb 8cb1 997e 8ab2
00000260: a867 edb2 123e 06b3 4b85 23b3 c466 2bb3
00000270: c96d 74b2 805d 21b1 cfef 57b2 40b0 ddb2
00000280: 2f88 14b0 d25e 49b0 5735 4eb0 fbb4 18b0
00000290: 60ef 0bb0 ad0c 85af 15b0 2130 6861 f62f
000002a0: 01a5 5baf df11 12b0 c3e3 8daf 9fd5 31b0
000002b0: 8ffa c7af eb8b 98ae 6922 35af cf80 a5af
000002c0: 300c 382f ee4d 1d30 1b78 992f 4b7c abaf
000002d0: fa8f 432e 0dc2 af31 a600 2332 6790 4332
000002e0: 778d 6f32 849f 7d32 abb7 e531 a04d bb30
000002f0: a406 6b31 1bc8 0732 1b45 bf32 7b4b e032
00000300: f5c3 0c33 29d3 2533 d5dc 0433 4e8f 6e32
00000310: 9d64 6332 9fe7 a032 cde8 ba32 7a5e cf32
00000320: a2b8 1732 a958 d8b2 1cff 80b3 e4b3 9eb3
00000330: 21f7 c8b3 a1cf e6b3 b60f 65b3 a73d 09b2
00000340: dfc7 9db2 d608 65b3 ebee 36b0 93a2 acb2
00000350: 93ae 25b3 37f8 4ab3 8deb 7bb3 16a9 87b3
00000360: b8a1 01b3 1f44 13b2 b307 93b2 b3b9 18b3
00000370: 855f 6532 8e1e 6b33 9667 c133 3509 d633
00000380: 4a0e fc33 5d22 0234 a7cb 3233 3c2e d1af
00000390: a73d fd32 fd85 9f33 2510 bbb2 4e03 87b3
000003a0: 31dc d2b3 96d9 d5b3 2a0a 01b4 2b5b 04b4
000003b0: 20f7 7fb2 4fb9 d232 25b5 f8b2 4872 b6b3
000003c0: 36f0 ca31 515b 8fb2 8737 33b3 0c8d 70b3
000003d0: 3723 9ab3 9b3b afb3 9177 4eb3 217c 9bb2
000003e0: 0e60 b4b2 0550 2fb3 fb8d 01b3 6f89 e2b3
000003f0: 22e5 38b4 6e0a 51b4 a072 79b4 2833 7fb4

exp_avg_sq f4 [40, 10]
2.0228256e-15 5.9590957e-15 5.337448e-15 2.7178481e-15 2.8165798e-15 4.4983167e-15 4.5880967e-15 2.884219e-15
4.663987e-15 7.147282e-15 2.4913011e-15 7.825757e-15 7.420356e-15 3.677868e-15 3.6134442e-15 6.17325e-15
5.8772757e-15 3.63556e-15 6.2155303e-15 9.0037485e-15 1.6895554e-15 2.599849e-15 1.3808415e-15 7.9778126e-16
1.0710937e-15 1.4799662e-15 1.6590335e-15 1.1693704e-15 2.3073269e-15 2.698723e-15 3.8092694e-15 7.890051e-15
5.0985153e-15 2.7495168e-15 4.0993934e-15 5.512286e-15 4.4246528e-15 3.2330333e-15 6.7883097e-15 7.119376e-15
2.6785945e-15 8.6962425e-15 9.1886515e-15 4.7403945e-15 3.581815e-15 6.685574e-15 7.57024e-15 4.4619472e-15
6.4578444e-15 1.1355454e-14 4.0483425e-14 7.7698644e-14 5.2862415e-14 3.2824163e-14 4.2964133e-14 5.6061743e-14
5.3802706e-14 4.3673032e-14 6.639037e-14 8.269613e-14 3.6095774e-16 4.456983e-16 2.0575979e-16 1.8411035e-16
2.0529667e-16 1.9406335e-16 2.273467e-16 2.506857e-16 3.8679683e-16 3.930915e-16 2.0208582e-15 5.3844025e-15
2.5035687e-15 7.7572675e-16 9.018432e-16 1.8652271e-15 3.016122e-15 1.5880788e-15 2.1936934e-15 6.384833e-15
3.136951e-15 7.840552e-15 6.4691256e-15 3.4171202e-15 3.841476e-15 6.1323737e-15 6.0097195e-15 3.909906e-15
6.5610287e-15 8.865193e-15 3.6142953e-13 8.5524124e-14 8.2039654e-14 1.5391189e-13 1.611166e-13 1.2676088e-13
6.886148e-14 5.650733e-13 3.2023508e-13 4.437609e-14 2.2792367e-15 6.452865e-15 5.959542e-15 3.289526e-15
3.081186e-15 4.9158167e-15 5.2958838e-15 3.3623934e-15 5.033257e-15 7.8439766e-15 3.1619359e-15 9.64839e-15
8.563791e-15 3.7611456e-15 4.0047828e-15 7.223378e-15 6.5373194e-15 3.9767045e-15 7.902781e-15 1.0487419e-14
1.3631207e-15 3.0385742e-15 2.3829773e-15 1.476463e-15 1.3025943e-15 1.7473176e-15 2.4095601e-15 1.8110613e-15
1.7962064e-15 3.34668e-15 4.5159337e-15 9.314151e-15 5.5064845e-15 2.4669733e-15 4.0129897e-15 5.9220728e-15
4.6794966e-15 3.1129943e-15 8.081556e-15 8.459731e-15 1.533356e-15 5.2150404e-15 6.0098775e-15 3.3325666e-15
2.3639372e-15 4.1395703e-15 4.8784117e-15 3.0678644e-15 3.949068e-15 6.9331104e-15 3.6619105e-14 8.052756e-14
6.225004e-14 3.908169e-14 4.5488536e-14 5.934922e-14 6.069807e-14 4.8715918e-14 6.141984e-14 8.8972e-14
3.101228e-16 4.705585e-16 2.7252213e-16 2.366921e-16 2.0123479e-16 1.9697828e-16 2.7242065e-16 2.810889e-16
3.2989183e-16 4.404939e-16 7.6579317e-16 1.6429542e-15 1.6151872e-15 1.0380707e-15 6.2220457e-16 9.0004e-16
1.5196779e-15 1.2450666e-15 8.4417384e-16 1.912815e-15 4.4733788e-15 1.275786e-14 1.2020432e-14 6.6139238e-15
6.19145e-15 1.0162207e-14 1.06306175e-14 6.7714126e-15 9.751522e-15 1.5188314e-14 2.3541965e-13 6.298905e-14
4.174835e-14 8.9394434e-14 1.1166444e-13 7.595845e-14 9.5601844e-14 2.7057604e-13 1.4713674e-13 4.559305e-14
3.1058264e-13 8.197816e-13 7.558116e-13 4.297333e-13 3.8545613e-13 6.0529966e-13 7.118185e-13 4.723317e-13
5.610137e-13 1.0337831e-12 5.640831e-14 1.476974e-13 1.4017392e-13 8.009066e-14 8.8778363e-14 1.3097233e-13
1.1737535e-13 8.927315e-14 1.3108766e-13 1.7113767e-13 7.7891524e-13 1.8194697e-12 1.3438096e-12 7.068916e-13
7.9467314e-13 1.1758692e-12 1.2924804e-12 8.872971e-13 1.1980282e-12 2.0291468e-12 1.1361768e-12 2.0233281e-12
1.118899e-12 6.3522126e-13 9.384167e-13 1.2430155e-12 1.1385182e-12 7.824661e-13 1.7642215e-12 1.9818262e-12
7.773099e-14 2.2048998e-13 2.759858e-13 1.849004e-13 1.528291e-13 2.2250714e-13 2.5063003e-13 1.8737586e-13
1.8371022e-13 3.2393784e-13 1.2036744e-12 2.6895086e-12 2.0549335e-12 1.2197657e-12 1.4896519e-12 2.0052879e-12
00000000: 8cc2 1127 f5b2 d627 454d c027 73d7 4327
00000010: baf4 4a27 a611 a227 b94d a527 73d4 4f27
00000020: b009 a827 05c1 0028 6584 3327 eff9 0c28
00000030: 5aac 0528 5882 8427 2430 8227 2e6a de27
00000040: 4dc0 d327 1ffc 8227 26f0 df27 7632 2228
00000050: 987d f326 c056 3b27 0f00 c726 def1 6526
00000060: 625c 9a26 1e49 d526 8817 ef26 2786 a826
00000070: ab42 2627 a776 4227 4f3e 8927 7022 0e28
00000080: 81b1 b727 a21f 4627 3bb2 9327 dd99 c627
00000090: 386a 9f27 f0f6 6827 1b93 f427 5440 0028
000000a0: 5903 4127 57a8 1c28 2d87 2528 6cca aa27
000000b0: 6a0c 8127 89df f027 925f 0828 33c2 a027
000000c0: 1aab e827 ca8f 4c28 3652 3629 38f6 ae29
000000d0: 3712 6e29 afd3 1329 467e 4129 ca7a 7c29
000000e0: 4c4e 7229 94af 4429 717f 9529 1337 ba29
000000f0: f613 d025 bb76 0026 9239 6d25 c943 5425
00000100: e2b0 6c25 64bd 5f25 730e 8325 ae82 9025
00000110: 23f9 de25 119a e225 419e 1127 59fe c127
00000120: b166 3427 8896 5f26 24f8 8126 5e67 0627
00000130: a155 5927 c4dd e426 8012 1e27 b109 e627
00000140: 880a 6227 2a3e 0d28 2713 e927 be3a 7627
00000150: 5d67 8a27 2af1 dc27 e185 d827 85de 8c27
00000160: cf62 ec27 7db3 1f28 7c77 cb2a 4d95 c029
00000170: a4bc b829 154a 2d2a b366 352a 56b8 0e2a
00000180: f10f 9b29 d30d 1f2b bd46 b42a 26da 4729
00000190: 7f3c 2427 2d7d e827 13b7 d627 0b09 6d27
000001a0: d905 5e27 681c b127 e8cd be27 3649 7227
000001b0: 9a57 b527 f54d 0d28 6cd7 6327 58cf 2d28
000001c0: 8445 1a28 7282 8727 9a49 9027 f41f 0228
000001d0: 2188 eb27 a046 8f27 255d 0e28 afec 3c28
000001e0: 4772 c426 cdf3 5a27 2cb6 2b27 dfc7 d426
000001f0: 3fb9 bb26 a4d0 fb26 8aa0 2d27 2f80 0227
00000200: 296e 0127 5927 7127 23b4 a227 f1c9 2728
00000210: 5b64 c627 a0c3 3127 4c95 9027 7b5d d527
00000220: bd98 a827 9c50 6027 9995 1128 a065 1828
00000230: dafa dc26 42e4 bb27 5687 d827 0123 7027
00000240: f256 2a27 cc24 9527 68c3 af27 1c10 5d27
00000250: b947 8e27 a8ca f927 f4ea 2429 fa54 b529
00000260: b42c 8c29 1f02 3029 b6dc 4c29 7fa4 8529
00000270: 0eae 8829 a165 5b29 214e 8a29 de58 c829
00000280: 0cc6 b225 17a1 0726 2b19 9d25 9771 8825
00000290: 0702 6825 ba19 6325 310a 9d25 6609 a225
000002a0: 712b be25 6ded fd25 90b9 5c26 50c6 ec26
000002b0: e4c5 e826 0d9a 9526 9856 3326 9db5 8126
000002c0: 3802 db26 da6e b326 0951 7326 35d5 0927
000002d0: a32b a127 3fd3 6528 758a 5828 ae4a ee27
000002e0: 0c12 df27 e810 3728 1281 3f28 42f7 f327
000002f0: f5aa 2f28 decd 8828 8c87 842a b7d6 8d29
00000300: 9204 3c29 624c c929 2b72 fb29 110b ab29
00000310: b646 d729 1e52 982a 47a9 252a 3555 4d29
00000320: add7 ae2a 7dbf 662b f7bd 542b 18eb f12a
00000330: 15fe d82a 7060 2a2b ee5b 482b 16f3 042b
00000340: 4ce9 1d2b f67d 912b 5b0a 7e29 e14a 262a
00000350: 62d2 1d2a 1f59 b429 3ee9 c729 3476 132a
00000360: 2427 042a 7806 c929 7297 132a 13af 402a
00000370: c23e 5b2b a708 002c d81f bd2b e8f8 462b
00000380: 3cae 5f2b 277d a52b 84e6 b52b 7fc0 792b
00000390: 849b a82b dcc9 0e2c 15e7 9f2b 0a61 0e2c
000003a0: 9678 9d2b 84cc 322b 0612 842b 5af0 ae2b
000003b0: 713b a02b a03e 5c2b c74a f82b 6875 0b2c
000003c0: dd08 af29 e93f 782a bf5d 9b2a e92d 502a
000003d0: fd11 2c2a 5185 7a2a 9817 8d2a 6af7 522a
000003e0: ded6 4e2a 5d5c b62a f166 a92b e141 3d2c
000003f0: 649a 102c b1aa ab2b 5ea6 d12b 0e1c 0d2c

exp_avg f4 [40, 10]
-7.818152e-08 -9.338763e-08 -1.5003804e-08 -3.8709686e-08 -6.50221e-08 1.286293e-07 -2.5512271e-08 -2.5768365e-09
6.772758e-08 -2.2937918e-09 -8.685763e-08 -1.0411474e-07 -1.655863e-08 -4.292477e-08 -7.253214e-08 1.4413764e-07
-2.8369511e-08 -3.0729659e-09 7.530313e-08 -2.3192808e-09 7.896902e-09 9.751851e-09 1.5314815e-09 4.04034e-09
6.487655e-09 -1.442693e-08 2.8186322e-09 1.882508e-10 -6.880204e-09 1.6742567e-10 -6.094346e-08 -7.388679e-08
-1.1563899e-08 -3.0442322e-08 -5.1101154e-08 1.0359081e-07 -2.0298264e-08 -1.9625674e-09 5.3036402e-08 -1.4927534e-09
-9.249238e-08 -1.1022761e-07 -1.783736e-08 -4.5628536e-08 -7.699009e-08 1.515377e-07 -3.001801e-08 -3.2731693e-09
8.0081875e-08 -2.6785523e-09 2.7705866e-07 3.3324295e-07 5.2080896e-08 1.3784835e-07 2.3145378e-07 -4.617981e-07
9.110961e-08 8.883718e-09 -2.407565e-07 7.7141635e-09 -2.5988112e-09 -2.6996119e-09 -4.5128482e-10 -1.1814782e-09
-2.0928683e-09 2.873758e-09 -6.4951666e-10 -7.645372e-11 2.1867361e-09 -1.871217e-10 5.084678e-09 5.9643406e-09
1.0699344e-09 2.58188e-09 4.1721493e-09 -7.910394e-09 1.668098e-09 1.066733e-10 -4.45783e-09 2.509127e-10
-8.682717e-08 -1.0387296e-07 -1.681649e-08 -4.2963357e-08 -7.228116e-08 1.4375948e-07 -2.8416155e-08 -3.0136833e-09
7.524601e-08 -2.4174283e-09 -1.1276611e-07 -1.5573906e-07 -1.4641775e-08 -5.3598498e-08 -1.02928546e-07 2.5986162e-07
-4.2456904e-08 -1.0324149e-08 1.015321e-07 6.7993926e-09 -8.43047e-08 -1.00689306e-07 -1.611438e-08 -4.1730054e-08
-7.023525e-08 1.3862527e-07 -2.7467824e-08 -2.740108e-09 7.30812e-08 -2.4599336e-09 -8.6531685e-08 -1.0376149e-07
-1.6492853e-08 -4.2774285e-08 -7.221875e-08 1.4384304e-07 -2.83127e-08 -2.9995226e-09 7.500591e-08 -2.2960287e-09
1.2704584e-08 1.5361783e-08 2.2106375e-09 6.34284e-09 1.07177325e-08 -2.1271436e-08 4.163604e-09 3.7842735e-10
-1.10972485e-08 3.5337658e-10 -5.3851718e-08 -6.528138e-08 -1.023156e-08 -2.6901033e-08 -4.5136904e-08 9.1627875e-08
-1.7948361e-08 -1.7125962e-09 4.6866393e-08 -1.3114826e-09 -7.342974e-08 -8.761972e-08 -1.4070708e-08 -3.6232798e-08
-6.110517e-08 1.208066e-07 -2.3893332e-08 -2.502623e-09 6.3567406e-08 -2.0796318e-09 2.8456424e-07 3.421842e-07
5.3203955e-08 1.4157808e-07 2.3789204e-07 -4.7305645e-07 9.335794e-08 9.182593e-09 -2.472999e-07 8.0324165e-09
-2.0038144e-09 -2.0562716e-09 -3.6379894e-10 -9.146126e-10 -1.6151475e-09 2.12446e-09 -4.8988924e-10 -6.769545e-11
1.6868192e-09 -1.5640923e-10 4.301015e-09 5.038632e-09 6.640267e-10 2.158516e-09 3.523164e-09 -6.5317898e-09
1.358386e-09 -2.8856285e-11 -3.7215264e-09 2.0742096e-10 -1.049628e-07 -1.2585551e-07 -2.0212903e-08 -5.198557e-08
-8.740718e-08 1.7481234e-07 -3.4471828e-08 -3.559029e-09 9.0951424e-08 -2.8224545e-09 -8.40529e-08 -1.1551108e-07
-1.4475571e-08 -4.1189228e-08 -7.623564e-08 1.9453378e-07 -3.277353e-08 -8.075449e-09 7.6438646e-08 4.213786e-09
9.126173e-07 1.0861576e-06 1.7210493e-07 4.519699e-07 7.606183e-07 -1.4805482e-06 2.948974e-07 2.8469458e-08
-7.9154313e-07 2.9006383e-08 5.206188e-07 6.2271135e-07 9.832096e-08 2.5751444e-07 4.3478525e-07 -8.571211e-07
1.6934817e-07 1.7386613e-08 -4.515132e-07 1.4815042e-08 -8.2170925e-07 -9.90291e-07 -1.5525822e-07 -4.0917973e-07
-6.8607335e-07 1.3783463e-06 -2.7162284e-07 -2.6177345e-08 7.141895e-07 -2.2222707e-08 9.2168204e-07 1.1120721e-06
1.7238861e-07 4.6123603e-07 7.7157404e-07 -1.5391726e-06 3.0427162e-07 2.6496352e-08 -8.0222435e-07 2.6232472e-08
7.2279806e-07 8.599011e-07 1.355684e-07 3.5678443e-07 6.0318484e-07 -1.1720597e-06 2.3273682e-07 2.3969463e-08
-6.265873e-07 2.23405e-08 1.5509362e-06 1.8724919e-06 2.9258624e-07 7.7109104e-07 1.2964903e-06 -2.6150774e-06
00000000: bfe4 a7b3 648c c8b3 b7e1 80b2 c041 26b3
00000010: 47a2 8bb3 5a1d 0a34 1426 dbb2 3014 31b1
00000020: a271 9133 d0a0 1db1 7d86 bab3 af95 dfb3
00000030: d03c 8eb2 495c 38b3 f7c2 9bb3 41c4 1a34
00000040: 37b1 f3b2 302c 53b1 55b6 a133 3861 1fb1
00000050: f1aa 0732 1889 2732 377c d230 35d3 8a31
00000060: 04ea de31 4fda 77b2 e7b1 4131 e4fb 4e2f
00000070: ea66 ecb1 2316 382f 05e0 82b3 b1ab 9eb3
00000080: 91aa 46b2 b0bf 02b3 507a 5bb3 a675 de33
00000090: 5b5c aeb2 dadd 06b1 24ca 6333 9729 cdb0
000000a0: 39a0 c6b3 45b6 ecb3 c538 99b2 1bf9 43b3
000000b0: c055 a5b3 5eb6 2234 27ed 00b3 34ee 60b1
000000c0: 7af9 ab33 9711 38b1 a7be 9434 90e8 b234
000000d0: 8daf 5f33 7703 1434 8885 7834 0ced f7b4
000000e0: 0aa8 c333 019f 1832 5241 81b4 4087 0432
000000f0: c596 32b1 1384 39b1 b118 f8af 9261 a2b0
00000100: 21d2 0fb1 af7b 4531 ac89 32b0 9e1f a8ae
00000110: 7845 1631 13be 4daf 4db5 ae31 e5ee cc31
00000120: f80c 9330 ea6c 3131 9d5a 8f31 48e6 07b2
00000130: fb42 e530 bb93 ea2e 7d2b 99b1 d3f0 892f
00000140: be75 bab3 c310 dfb3 da73 90b2 b686 38b3
00000150: fd38 9bb3 4e5c 1a34 c917 f4b2 4719 4fb1
00000160: ee96 a133 d91f 26b1 d329 f2b3 3a39 27b4
00000170: 358b 7bb2 2c34 66b3 9109 ddb3 1c83 8b34
00000180: dc59 36b3 165e 31b2 dd09 da33 17a0 e931
00000190: 000b b5b3 883a d8b3 e56b 8ab2 ae3a 33b3
000001a0: 3dd4 96b3 06d9 1434 62f2 ebb2 7d4c 3cb1
000001b0: d1f0 9c33 9c0b 29b1 4cd3 b9b3 7bd3 deb3
000001c0: 2bac 8db2 d3b6 37b3 ad16 9bb3 4673 1a34
000001d0: 4934 f3b2 2920 4eb1 ef12 a133 2ac8 1db1
000001e0: 5a43 5a32 ebf4 8332 f2e9 1731 36f0 d931
000001f0: 1621 3832 62b8 b6b2 730f 8f31 ea0a d02f
00000200: 37a6 3eb2 5545 c22f 974a 67b3 d130 8cb3
00000210: e0c6 2fb2 ff13 e7b2 8ddc 41b3 f5c4 c433
00000220: dd2c 9ab2 9f60 ebb0 254a 4933 b13f b4b0
00000230: 6db0 9db3 7329 bcb3 a1bb 71b2 629e 1bb3
00000240: ec38 83b3 11b7 0134 fe3d cdb2 9cfa 2bb1
00000250: 8d82 8833 45e9 0eb1 36c6 9834 70b5 b734
00000260: 5e82 6433 b004 1834 446f 7f34 62f8 fdb4
00000270: 127c c833 79c1 1d32 a4c4 84b4 f1fe 0932
00000280: 7ab3 09b1 504e 0db1 2600 c8af 2468 7bb0
00000290: f3fb ddb0 e5fd 1131 e4a8 06b0 27dd 94ae
000002a0: add5 e730 49f9 2baf 21c8 9331 4720 ad31
000002b0: ba86 3630 0455 1431 281c 7231 3b6e e0b1
000002c0: f5b1 ba30 94d2 fdad c9bd 7fb1 cf0f 642f
000002d0: e967 e1b3 e622 07b4 a5a0 adb2 bd46 5fb3
000002e0: 9bb4 bbb3 0db4 3b34 2d0e 14b3 1a93 74b1
000002f0: 1351 c333 25f5 41b1 9280 b4b3 e30e f8b3
00000300: 3cb0 78b2 09e8 30b3 fcb6 a3b3 0ae1 5034
00000310: e1c2 0cb3 33bc 0ab2 9726 a433 dbc8 9031
00000320: 95fa 7435 17c8 9135 d8cb 3834 45a6 f234
00000330: 4b2d 4c35 40b7 c6b5 6452 9e34 008d f432
00000340: 6e7a 54b5 b629 f932 a7c0 0b35 6628 2735
00000350: 8524 d333 8440 8a34 6e6c e934 ea14 66b5
00000360: 12d6 3534 9159 9532 8067 f2b4 3e85 7e32
00000370: 6e93 5cb5 24ea 84b5 0eb5 26b4 3cad dbb4
00000380: 9a2a 38b5 9eff b835 8fd3 91b4 97dc e0b2
00000390: bbb6 3f35 40e4 beb2 8269 7735 8242 9535
000003a0: d219 3934 cc9f f734 2a1e 4f35 9195 ceb5
000003b0: c65a a334 189a e332 7058 57b5 d155 e132
000003c0: 4e06 4235 f4d3 6635 c290 1134 148c bf34
000003d0: 8cea 2135 aa4f 9db5 36e6 7934 68e5 cd32
000003e0: c032 28b5 47e7 bf32 c329 d035 5552 fb35
000003f0: bf14 9d34 f9fc 4e35 1103 ae35 b07e 2fb6

exp_avg_sq f4 [40, 10]
7.2563597e-13 1.7643155e-12 1.8028772e-13 2.811443e-13 9.286633e-13 1.4448831e-12 2.8762106e-13 4.527361e-14
7.163216e-13 2.3093986e-14 1.1277139e-12 2.6902736e-12 2.617719e-13 4.4274252e-13 1.4232682e-12 2.0719997e-12
4.13212e-13 5.956898e-14 1.1070735e-12 3.6435756e-14 1.12850484e-13 3.3730603e-13 4.897799e-14 4.226777e-14
1.7230356e-13 3.572404e-13 8.525429e-14 1.8346574e-14 1.2183714e-13 4.218897e-15 5.869007e-13 1.3970747e-12
1.3156487e-13 2.290509e-13 7.366818e-13 1.0663769e-12 2.094437e-13 3.009234e-14 5.727854e-13 1.8817125e-14
1.7371035e-12 4.172055e-12 4.170392e-13 6.874586e-13 2.2191248e-12 3.1768971e-12 6.594381e-13 9.662315e-14
1.7176514e-12 5.794083e-14 4.796496e-12 1.2454005e-11 1.4749197e-12 1.7542069e-12 6.386562e-12 1.2471719e-11
2.4465107e-12 4.6771213e-13 4.807662e-12 1.424603e-13 1.7658807e-14 6.391263e-14 1.1710116e-14 6.738745e-15
3.218225e-14 7.6943165e-14 2.1385171e-14 4.9045385e-15 2.1218013e-14 9.003052e-16 2.4283115e-13 7.9226637e-13
1.2893202e-13 9.381913e-14 4.0298914e-13 8.749039e-13 2.303671e-13 5.0435025e-14 2.75778e-13 1.0827021e-14
8.5234033e-13 2.0695728e-12 2.102371e-13 3.288401e-13 1.0870899e-12 1.7061922e-12 3.3627447e-13 5.2846823e-14
8.393242e-13 2.6861246e-14 7.743818e-12 2.080315e-11 2.421444e-12 2.7528002e-12 1.1062342e-11 1.8930293e-11
4.077014e-12 1.064784e-12 7.877856e-12 2.579992e-13 9.013799e-13 2.1838488e-12 2.2359152e-13 3.5141464e-13
1.1539596e-12 1.7572086e-12 3.5549946e-13 5.4944805e-14 8.908745e-13 2.910667e-14 1.3882816e-12 3.303181e-12
3.157283e-13 5.4722573e-13 1.7525847e-12 2.472835e-12 4.990538e-13 7.08246e-14 1.3616544e-12 4.5757377e-14
1.6102611e-13 4.9232076e-13 7.55721e-14 6.250127e-14 2.5059495e-13 5.266045e-13 1.3221943e-13 2.7378436e-14
1.7748396e-13 6.547149e-15 5.97709e-13 1.439997e-12 1.3380916e-13 2.358895e-13 7.572128e-13 1.0700898e-12
2.1751435e-13 3.1625252e-14 5.8520425e-13 1.99882e-14 1.2521561e-12 2.992176e-12 2.9951044e-13 4.972543e-13
1.5985952e-12 2.244784e-12 4.702772e-13 6.771159e-14 1.2386964e-12 4.2061295e-14 5.2661504e-12 1.3825966e-11
1.6897383e-12 1.9376599e-12 7.0808815e-12 1.4015166e-11 2.8099417e-12 5.3700046e-13 5.3205843e-12 1.5960322e-13
1.8065624e-14 6.582516e-14 1.2095857e-14 6.9838193e-15 3.298766e-14 7.937775e-14 2.2193585e-14 5.018514e-15
2.1812686e-14 9.335509e-16 2.0873255e-13 6.803972e-13 1.1723618e-13 8.0237e-14 3.5075745e-13 7.674203e-13
2.0595837e-13 4.540628e-14 2.3995628e-13 9.8678e-15 1.4772223e-12 3.5912577e-12 3.6619256e-13 5.755775e-13
1.8886882e-12 2.9168627e-12 5.856413e-13 9.055265e-14 1.4597544e-12 4.7338337e-14 8.987765e-12 2.2761938e-11
2.4075787e-12 3.3253027e-12 1.2389148e-11 1.7747788e-11 4.0662937e-12 8.442483e-13 9.051132e-12 3.4312315e-13
8.409584e-11 2.1583497e-10 2.5023598e-11 3.2246133e-11 1.1221008e-10 1.9679156e-10 4.1091283e-11 7.301372e-12
8.493593e-11 2.7176232e-12 2.0779652e-11 4.917318e-11 4.8087276e-12 7.9099505e-12 2.5903509e-11 4.0649487e-11
7.499808e-12 1.126887e-12 2.0221515e-11 6.2009875e-13 8.381183e-11 2.3466093e-10 3.0802517e-11 3.1481286e-11
1.1898994e-10 2.4212024e-10 5.282156e-11 1.0528784e-11 8.7322025e-11 2.7686985e-12 9.3835203e-11 2.353009e-10
2.44155e-11 3.5704936e-11 1.2176364e-10 2.0429994e-10 4.0310963e-11 6.937999e-12 9.283057e-11 2.8952472e-12
4.6261855e-11 1.1075034e-10 1.1390412e-11 1.7767742e-11 5.845533e-11 9.281473e-11 1.7770844e-11 2.7239216e-12
4.5475457e-11 1.40853e-12 1.8484997e-10 4.7069104e-10 5.3486143e-11 6.892171e-11 2.4252073e-10 4.4766182e-10
00000000: 953f 4c2b 2a4e f82b 66fc 4a2a 2a45 9e2a
00000010: 9fb2 822b 6659 cb2b 90ea a12a ebe4 4b29
00000020: 69a0 492b 1b03 d028 2db6 9e2b a94f 3d2c
00000030: 4e5d 932a ec3d f92a a44e c82b d4cd 112c
00000040: 209e e82a 2e23 8629 87ce 9b2b 9117 2429
00000050: e01d fe29 ece2 bd2a c793 5c29 6c5b 3e29
00000060: 1fff 412a c41b c92a c1f9 bf29 5240 a528
00000070: 2a2d 092a 7500 9827 a732 252b ec9e c42b
00000080: fe20 142a b7f1 802a 855b 4f2b 4714 962b
00000090: 09d0 6b2a 1b86 0729 8a39 212b 567d a928
000000a0: c079 f42b 88ca 922c afc5 ea2a 9d80 412b
000000b0: 3328 1c2c e48d 5f2c 869d 392b 7493 d929
000000c0: eabc f12b 9d78 8229 ffc2 a82c da17 5b2d
000000d0: 9593 cf2b f7e1 f62b 09b5 e02c a167 5b2d
000000e0: 6b28 2c2c 36a6 032b 9227 a92c 6365 202a
000000f0: 700e 9f28 1feb 8f29 61f3 5228 f4c9 f227
00000100: 9cef 1029 b742 ad29 d99e c028 62b4 b027
00000110: 681d bf28 66bf 8126 a8b3 882a cf00 5f2b
00000120: 202a 112a 0c43 d329 dbdc e22a 7843 762b
00000130: 66af 812a a023 6329 cc3f 9b2a d20a 4328
00000140: 98e9 6f2b 1ca2 112c b8b4 6c2a da1e b92a
00000150: 8bfe 982b 0d20 f02b 424e bd2a 3d00 6e29
00000160: af3f 6c2b d1f1 f128 0e3b 082d 87fc b62d
00000170: db64 2a2c 0ab6 412c 5c9c 422d 3b83 a62d
00000180: 7a72 8f2c e3da 952b b696 0a2d 9a3d 912a
00000190: 44b7 7d2b b9ac 192c debd 7b2a 30d4 c52a
000001a0: c767 a22b 1d4e f72b df20 c82a 0c73 7729
000001b0: 46c2 7a2b b515 0329 1e62 c32b d270 682c
000001c0: 3ebd b12a c507 1a2b 85a7 f62b a302 2e2c
000001d0: 9e78 0c2b 9a7b 9f29 c5a2 bf2b aa12 4e29
000001e0: 9e4c 352a 7393 0a2b 5a2c aa29 87bd 8c29
000001f0: 8a12 8d2a da39 142b a8dd 142a 609a f628
00000200: 45d4 472a cae2 eb27 793d 282b 5ca9 ca2b
00000210: dda7 162a 42cb 842a ef22 552b 0c9a 962b
00000220: 3ee6 742a 6f6d 0e29 69b8 242b a709 b428
00000230: ae39 b02b 408e 522c 019c a82a f3f6 0b2b
00000240: 76fb e02b 6ff6 1d2c 0b5f 042b 1379 9829
00000250: be54 ae2b 5f6d 3d29 4449 b92c 9e3a 732d
00000260: 3dcf ed2b c759 082c e922 f92c b28e 762d
00000270: 69bb 452c f626 172b 9033 bb2c 7fb2 332a
00000280: 7eb8 a228 9f39 9429 4be6 5928 5d9e fb27
00000290: 2f90 1429 28be b229 ece6 c728 9fcf b427
000002a0: a178 c428 f389 8626 1003 6b2a c983 3f2b
000002b0: 07ff 032a 7bad b429 7a75 c52a 7602 582b
000002c0: 75e3 672a e07d 4c29 5815 872a 32c3 3128
000002d0: 8be6 cf2b 59b6 7c2c e925 ce2a bb02 222b
000002e0: 95e7 042c 8741 4d2c e7d7 242b 0ce8 cb29
000002f0: 3271 cd2b 6331 5529 4c1d 1e2d 5437 c82d
00000300: 156b 292c 54ff 692c c3f3 592d 771c 9c2d
00000310: eb11 8f2c 80a2 6d2b ad3a 1f2d 4229 c12a
00000320: c0ed b82e 2550 6d2f 221c dc2d ebd1 0d2e
00000330: a9c0 f62e e65f 582f acb8 342e 7572 002d
00000340: aec6 ba2e 593c 3f2c 9ec7 b62d 1444 582e
00000350: 2b31 a92c 4027 0b2d 84d9 e32d 41c7 322e
00000360: 22f0 032d 6298 9e2b cede b12d d38a 2e2b
00000370: de4d b82e 9701 812f 8d78 072e c774 0a2e
00000380: b1d4 022f 651b 852f ca4f 682e 6d39 392d
00000390: ee05 c02e 70d4 422c 8658 ce2e a85b 812f
000003a0: d1c2 d62d 2f08 1d2e 6be1 052f 52a1 602f
000003b0: 1c4a 312e f01b f42c f722 cc2e 23bc 4b2c
000003c0: 3876 4b2e e68a f32e db61 482d 6649 9c2d
000003d0: 6d8b 802e 0c1a cc2e 6250 9c2d cfad 3f2c
000003e0: d000 482e a43b c62b a43e 4b2f f061 0130
000003f0: 0b3c 6b2e 798f 972e c253 852f cd1a f62f

exp_avg f4 [40]
8.1602775e-07 9.1144807e-07 -8.913895e-08 6.520541e-07 9.613287e-07 -2.922501e-06 2.0671107e-08 -5.1113773e-08
9.0948055e-07 1.4806656e-06 8.797079e-07 9.0921054e-07 -1.3487053e-07 5.765633e-07 7.6568034e-07 -2.9969306e-06
1.5546723e-08 -4.311072e-08 1.1044795e-06 1.1065298e-06 -9.442987e-06 -5.437941e-06 8.704987e-06 -9.755467e-06
-7.4705736e-06 -1.648039e-05 -3.6950192e-07 1.2527993e-05 1.1625237e-05 -0.0001658421 8.064706e-07 1.3098481e-06
-7.653769e-08 7.209769e-07 8.368119e-07 -3.319002e-06 2.1558897e-08 -4.5666603e-08 1.2100785e-06 1.6732843e-06
00000000: 000d 5b35 3caa 7435 a86c bfb3 d108 2f35
00000010: 0107 8135 2f20 44b6 3f90 b132 3088 5bb3
00000020: 0723 7435 48bb c635 1125 6c35 7910 7435
00000030: eed0 10b4 21c5 1a35 2789 4d35 e01e 49b6
00000040: 9b8b 8532 bd28 39b3 a03d 9435 1384 9435
00000050: 526d 1eb7 8f77 b6b6 a20b 1237 69ab 23b7
00000060: bdab fab6 5e3f 8ab7 f55f c6b4 522f 5237
00000070: 030a 4337 e6e5 2db9 3d7c 5835 0ace af35
00000080: 0a5d a4b3 2889 4135 47a1 6035 05bc 5eb6
00000090: 8430 b932 f622 44b3 fb69 a235 9c95 e035

exp_avg_sq f4 [40]
5.911911e-11 8.719498e-11 1.2593016e-11 4.5164567e-11 1.3334073e-10 4.7083126e-10 2.4853364e-12 2.9615508e-11
6.980077e-11 7.12066e-10 7.228445e-11 1.0513748e-10 1.8325157e-11 4.5573142e-11 9.471859e-11 5.245087e-10
2.560753e-12 2.5602437e-11 1.197008e-10 7.114051e-10 7.619838e-09 1.6803375e-09 8.832637e-09 8.156728e-09
3.7900088e-09 1.7254832e-08 2.3445706e-10 2.7075982e-08 9.490587e-09 1.3279468e-06 5.879449e-11 2.1114126e-10
9.063923e-12 5.6284487e-11 1.0146398e-10 5.7900834e-10 2.8213926e-12 2.319775e-11 1.3321053e-10 1.0137472e-09
00000000: 1a01 822e 69be bf2e e789 5d2d c8a2 462e
00000010: 149c 122f ce6b 0130 d7e3 2e2c 1940 022e
00000020: 577e 992e 31bb 4330 87f4 9e2e 2433 e72e
00000030: 9630 a12d cc6e 482e d349 d02e 052d 1030
00000040: 6d32 342c 9033 e12d c89c 032f af8c 4330
00000050: 67e8 0232 9ff1 e630 59be 1732 ab21 0c32
00000060: 4539 8231 c737 9432 e6e4 802f b794 e832
00000070: 0b0c 2332 e83b b235 5b4a 812e fb26 682f
00000080: 4874 1f2d b38a 772e 251f df2e 1728 1f30
00000090: b189 462c b00c cc2d 6e77 122f 0f54 8b30

exp_avg f4 [40]
8.160277e-07 9.114479e-07 -8.9138965e-08 6.5205404e-07 9.613287e-07 -2.922501e-06 2.0671104e-08 -5.1113755e-08
9.094807e-07 1.4806652e-06 8.797079e-07 9.092105e-07 -1.3487052e-07 5.7656337e-07 7.656804e-07 -2.9969299e-06
1.5546721e-08 -4.3110717e-08 1.1044795e-06 1.1065296e-06 -9.442987e-06 -5.4379416e-06 8.704985e-06 -9.755468e-06
-7.470572e-06 -1.648039e-05 -3.6950186e-07 1.2527993e-05 1.1625235e-05 -0.00016584208 8.064705e-07 1.3098482e-06
-7.653769e-08 7.209769e-07 8.36812e-07 -3.3190015e-06 2.1558897e-08 -4.5666578e-08 1.2100785e-06 1.6732843e-06
00000000: ff0c 5b35 39aa 7435 aa6c bfb3 d008 2f35
00000010: 0107 8135 2f20 44b6 3d90 b132 2b88 5bb3
00000020: 0a23 7435 45bb c635 1125 6c35 7810 7435
00000030: edd0 10b4 22c5 1a35 2889 4d35 dd1e 49b6
00000040: 9a8b 8532 bc28 39b3 a03d 9435 1184 9435
00000050: 526d 1eb7 9077 b6b6 a00b 1237 6bab 23b7
00000060: baab fab6 5e3f 8ab7 f35f c6b4 522f 5237
00000070: 010a 4337 e5e5 2db9 3b7c 5835 0bce af35
00000080: 0a5d a4b3 2889 4135 48a1 6035 03bc 5eb6
00000090: 8430 b932 ef22 44b3 fb69 a235 9c95 e035

exp_avg_sq f4 [40]
5.91191e-11 8.719501e-11 1.2593018e-11 4.516456e-11 1.3334074e-10 4.708313e-10 2.4853368e-12 2.9615508e-11
6.980076e-11 7.1206596e-10 7.228444e-11 1.0513752e-10 1.8325157e-11 4.5573142e-11 9.471857e-11 5.245088e-10
2.5607526e-12 2.5602433e-11 1.1970083e-10 7.114052e-10 7.619838e-09 1.6803375e-09 8.832638e-09 8.156727e-09
3.790009e-09 1.7254829e-08 2.344571e-10 2.7075975e-08 9.49059e-09 1.3279467e-06 5.87945e-11 2.1114137e-10
9.0639215e-12 5.628448e-11 1.01464e-10 5.7900834e-10 2.821393e-12 2.3197754e-11 1.3321051e-10 1.0137473e-09
00000000: 1801 822e 6dbe bf2e e989 5d2d c6a2 462e
00000010: 159c 122f cf6b 0130 d9e3 2e2c 1940 022e
00000020: 567e 992e 30bb 4330 86f4 9e2e 2933 e72e
00000030: 9630 a12d cc6e 482e d149 d02e 072d 1030
00000040: 6b32 342c 8e33 e12d ca9c 032f b18c 4330
00000050: 67e8 0232 9ff1 e630 5abe 1732 aa21 0c32
00000060: 4639 8231 c537 9432 e7e4 802f b394 e832
00000070: 0e0c 2332 e73b b235 5c4a 812e 0327 682f
00000080: 4674 1f2d b18a 772e 271f df2e 1728 1f30
00000090: b389 462c b30c cc2d 6d77 122f 1054 8b30
