logs/vanilla_lstm/version_6/checkpoints/epoch=9-step=250.ckpt (torch, 6526 bytes, 12 tensors)

lstm.lstm.weight_ih_l0 f4 [4, 1]
0.5331245 -0.6033049 0.5499776 0.605737
00000000: d97a 083f 3172 1abf 55cb 0c3f 9411 1b3f

lstm.lstm.weight_hh_l0 f4 [4, 1]
-0.44264 0.6662316 0.5146935 -0.5390738
00000000: b6a1 e2be 278e 2a3f f4c2 033f be00 0abf

lstm.lstm.bias_ih_l0 f4 [4]
-0.85415643 -0.9564131 0.7184557 -0.34067622
00000000: ffa9 5abf 7dd7 74bf b6ec 373f 1d6d aebe

lstm.lstm.bias_hh_l0 f4 [4]
-0.93250334 0.7821438 -0.7333367 -0.075120255
00000000: 8ab8 6ebf 933a 483f f4bb 3bbf a6d8 99bd

exp_avg f4 [4, 1]
5.7222014e-08 9.3683585e-09 -7.473871e-07 3.2102484e-08
00000000: 45c4 7533 7af2 2032 0da0 48b5 0ee1 0933

exp_avg_sq f4 [4, 1]
2.1522406e-14 6.303975e-16 4.009248e-12 5.0771295e-15
00000000: 4adb c128 20b3 3526 1810 8d2c 41ec b627

exp_avg f4 [4, 1]
-7.135958e-10 -1.8033622e-10 1.284789e-07 -2.2316812e-10
00000000: d726 44b0 2248 46af 03f4 0934 3e60 75af

exp_avg_sq f4 [4, 1]
3.2728312e-13 1.10154324e-13 3.825374e-11 1.61136e-13
00000000: 783e b82a a50b f829 e23d 282e 4a6c 352a

exp_avg f4 [4]
1.8747535e-06 5.452655e-07 1.7791035e-05 1.3123458e-06
00000000: 0aa0 fb35 5c5e 1235 f53d 9537 dc23 b035

exp_avg_sq f4 [4]
1.0753298e-09 2.785104e-10 2.0975284e-07 4.356083e-10
00000000: ceca 9330 db1c 992f 6c38 6134 6b7a ef2f

exp_avg f4 [4]
1.8747533e-06 5.4526544e-07 1.7791031e-05 1.3123458e-06
00000000: 08a0 fb35 5b5e 1235 f33d 9537 dc23 b035

exp_avg_sq f4 [4]
1.0753297e-09 2.785104e-10 2.0975286e-07 4.356083e-10
00000000: cdca 9330 db1c 992f 6d38 6134 6b7a ef2f
