logs/vanilla_lstm/version_7/checkpoints/epoch=9-step=250.ckpt (torch, 6526 bytes, 12 tensors)

lstm.lstm.weight_ih_l0 f4 [4, 1]
000000 1f d3 c0 bf 1e c8 4b 3d fe 2c 71 3f c0 dd 55 3f
       -1.5064429 0.049751393 0.9420928 0.8354149

lstm.lstm.weight_hh_l0 f4 [4, 1]
000000 1b 16 47 bf 4d 5f 16 3f 26 0c 1a 3e 07 81 61 3f
       -0.77768105 0.5873917 0.15043697 0.88087505

lstm.lstm.bias_ih_l0 f4 [4]
000000 96 b5 ce 3e c0 a9 88 be 42 21 56 3f 56 d1 56 be
       0.40372914 -0.2669201 0.836445 -0.20978293

lstm.lstm.bias_hh_l0 f4 [4]
000000 09 44 91 bf 69 32 a0 be ac 3c 57 bf 4e df 3c 3f
       -1.1348888 -0.3128846 -0.8407695 0.73778236

exp_avg f4 [4, 1]
000000 82 b7 c7 34 61 16 25 34 1a 0e 7c b7 e5 6f 93 33
       3.7200158e-07 1.5374964e-07 -1.5023654e-05 6.8655744e-08

exp_avg_sq f4 [4, 1]
000000 e7 95 b4 29 32 3e 06 28 27 5b 1a 2f e5 65 4d 29
       8.01961e-14 7.451981e-15 1.4038602e-10 4.5607523e-14

exp_avg f4 [4, 1]
000000 aa 38 a3 33 f4 d7 75 33 73 09 c8 37 4b 33 a7 33
       7.600586e-08 5.7239916e-08 2.3846258e-05 7.7858736e-08

exp_avg_sq f4 [4, 1]
000000 10 27 2c 2c 72 b1 eb 2b bb c7 46 31 2c e2 77 2b
       2.4464354e-12 1.6747005e-12 2.8926326e-09 8.8065904e-13

exp_avg f4 [4]
000000 59 a6 74 b6 5b cb e8 37 4e b0 83 b9 ae f7 12 b6
       -3.645566e-06 2.775125e-05 -0.00025117624 -2.1899864e-06

exp_avg_sq f4 [4]
000000 19 0f 88 31 16 c0 15 31 aa c8 fc 36 db ca 8c 30
       3.9598373e-09 2.1791542e-09 7.5335456e-06 1.0243996e-09

exp_avg f4 [4]
000000 55 a6 74 b6 5b cb e8 37 4f b0 83 b9 ae f7 12 b6
       -3.6455651e-06 2.775125e-05 -0.00025117627 -2.1899864e-06

exp_avg_sq f4 [4]
000000 18 0f 88 31 16 c0 15 31 ac c8 fc 36 db ca 8c 30
       3.959837e-09 2.1791542e-09 7.5335465e-06 1.0243996e-09
