lightning_logs/version_0/checkpoints/epoch=4-step=125.ckpt (torch, 17778 bytes, 12 tensors)

lstm.lstm.weight_ih_l0 f4 [40, 10]
00000000: 1e46 073f a05c 8f3e a4c7 553c 2787 0c3c
00000010: 157a 07bf 0179 41be 5a55 95be 3b30 203c
00000020: d66b 2a3f 6d07 3a3f bc69 9ebd 6fb0 b5bb
00000030: 9a7a 033e b4b7 15be d989 1bbf 2b46 0cbf
00000040: 75e3 13bf b4cb 7a3e 95e4 923e 3a3a 9b3e
00000050: 94ee 08bd 8ac9 f2be 42ce e6bd 9cfa debe
00000060: d306 2d3f add7 fe3e 74e4 b93e 62d8 8c3b
00000070: 3564 48bf dead 2bbf a386 d6be 1eec 8e3d
00000080: 20dd 2cbb 7617 973c 653a 963e 1294 143e
00000090: 6709 a53b 7cc2 f9be 3975 53be f696 d2be
000000a0: eaac 1e3e ee2e 0b3f e803 ee3e a30d 493f
000000b0: 3408 97bd 0074 03bf 7e9c 60bf 1f0d b4be
000000c0: 3cfd d4be 0497 463f 7626 c83c 752f 213e
000000d0: 94cc ec3d fc95 383e e2af 873e 07ac ccbd
000000e0: 8b5d d73d 23c0 a63e e3e0 753d 0103 b33e
000000f0: 99aa 15bd fb85 52be c951 f03d 7787 fbbe
00000100: 3beb 30bd fc6f 063f b929 223f 0040 16be
00000110: 597d 9ebd 1e93 1dbf 76e7 15be 23f8 323e
00000120: a51c 50bd 1f9e 49bd 5bf6 6ebe 2f97 82be
00000130: ee22 b73d 421c a03e 6803 1a3d 69ce 203d
00000140: f9cf 243d e5c3 243f 2b77 0c3e 3ae9 2c3d
00000150: 9216 9cbe 0754 74be f377 3ebf 0158 f5be
00000160: efa6 213f 2064 033f e5a1 24be cd5d 7bbe
00000170: c8fe c43e 1b3a 173e 9e90 ed3d b617 0fbf
00000180: 5165 02be 8019 b53d be79 08be 2009 783e
00000190: 8359 ef3d 3d0c 043e b7b4 e33c 7fb0 133e
000001a0: 8638 12bf 66a1 1ebf ce51 fbbe c116 7dbd
000001b0: a0aa 353f 3df2 923e e65c 213d 7c60 d03e
000001c0: f790 063f 7f59 f7bd 6491 03bf ce5a 1abf
000001d0: 08f1 8dbe ef92 8c3e 63a5 2c3f 1ba8 713e
000001e0: 3736 96be fef4 4ebe 415d 15bf 303d b8be
000001f0: 64ab 873e 6bfe 363f e277 cd3d 4a16 f73e
00000200: a369 f3be 1f18 41bf fa87 e0be 34b8 e6bc
00000210: 4381 d63e 1307 5f3d 00d2 773e c5c6 5fbc
00000220: d3e3 8cbe 2e18 81be 5c67 cbbe e200 373e
00000230: d8d1 643e 9c16 2c3f d3e3 6abe d93e 13be
00000240: b54a 58bd 79bb 82be 7eab 9fbe d11e cdbe
00000250: d19e 553e 91a2 9a3e 0dbc 3f3e 2ce9 253d
00000260: 8568 683e ed18 bd3d eae6 33be 7fdf 31be
00000270: abf4 453e db95 3bbe 12da 08be 91cc 8b3e
00000280: d662 883d 0016 1b3e aed7 b8bd 3d2a 8ebd
00000290: 7f73 ccbe 3864 363d 9502 c33e 7b98 5c3e
000002a0: b8e9 2abe 3216 8dbe 3c51 0d3e 9454 223d
000002b0: 35bf fc3d fcdb 26be 3bfc aabe 174a 15bf
000002c0: 9c54 e23d cd19 393f f7a1 7d3e 00ce de3d
000002d0: 1990 5c3e fde7 d53e fd13 0b3f 22e5 ea3d
000002e0: 2a41 00be c555 d3be ad42 a1be 4933 63bd
000002f0: 7831 263f 0608 263f 1791 0abf 0700 2bbe
00000300: 8300 aebe 2a4b 963e e53b a33e 3f1d e43e
00000310: c08c a63e 0608 923e 7d67 20bf 7e8f 59bf
00000320: b9d4 ba3d b25a eb3e fb97 d93e eb51 a93d
00000330: 94c4 15bf a46f 27bf 087c 11be 36c7 2e3e
00000340: 4e9b 293f 8c26 283f b3f2 ab3e 03bd a73d
00000350: 4ccb 9c3e 1889 973d 9947 17bf 6199 46bf
00000360: fa35 adbe 4f4b 113f 2a42 4a3f 82a5 013f
00000370: 7829 1f3e bd69 f93e d261 a73e 9a67 963e
00000380: cb5a 86be d519 b0be e5de 20bf 77e9 b5be
00000390: 1c83 913e 0dd1 2f3f 5426 f33b e1f0 6a3e
000003a0: 5495 70bc e0d9 0fbf 04c6 48bf fadf 603e
000003b0: 8005 c33d 7a91 113f 91b7 0a3f 84e4 433e
000003c0: 4f89 d33d 58c7 a63e b802 f43e 4e96 063f
000003d0: 9e8d c4be 06ee 97be a79c 10bf 8661 93be
000003e0: b958 6f3e 169c 073f 064d d7bb a24f 78bc
000003f0: fbdc 443e 09fa 073e 4fbb d4bd fd93 4fbd
0.52841365 0.28000355 0.013048086 0.008577145 -0.5292066 -0.18893816 -0.2916668 0.009777124
0.66570795 0.7266758 -0.07735011 -0.005544714 0.12839738 -0.14620858 -0.60757214 -0.5479457
-0.57768947 0.24491769 0.2869002 0.3031786 -0.03343065 -0.47419387 -0.11269809 -0.43550575
0.6758854 0.49773923 0.36307108 0.004298256 -0.78277904 -0.67062175 -0.41899595 0.069786295
-0.0026376918 0.018443804 0.29341426 0.1450961 0.0050365212 -0.48781192 -0.20650186 -0.411308
0.15495649 0.54368484 0.46487355 0.78536433 -0.073746115 -0.51348877 -0.8773879 -0.3516626
-0.41599452 0.7757418 0.024432402 0.1574076 0.11562458 0.18025964 0.26501375 -0.09993749
0.10515889 0.32568464 0.06002892 0.3496323 -0.036539648 -0.20558922 0.11734349 -0.4912679
-0.043193083 0.52514625 0.63344914 -0.14672852 -0.07738752 -0.6155261 -0.14639077 0.17477469
-0.050808568 -0.04922306 -0.23336165 -0.2550597 0.08942209 0.3127156 0.037600905 0.039259348
0.0402374 0.6436141 0.13717334 0.04221461 -0.3048597 -0.23860179 -0.7440178 -0.47918704
0.63145345 0.51324654 -0.16077383 -0.24547501 0.38475633 0.14768259 0.11599849 -0.55895555
-0.12733962 0.08842754 -0.13327691 0.24222231 0.11686995 0.12895294 0.027796132 0.14422797
-0.571175 -0.61965024 -0.4908585 -0.061789278 0.7096348 0.28700438 0.039395235 0.40698612
0.5256495 -0.12077617 -0.51393723 -0.60294807 -0.27722955 0.2745585 0.6743986 0.23599283
-0.29338238 -0.20210645 -0.5834542 -0.35984182 0.26497948 0.7148196 0.100326315 0.48259193
-0.47541532 -0.7542743 -0.43853742 -0.028164007 0.41895494 0.054450106 0.24201202 -0.01365823
-0.27517566 -0.2521376 -0.39727294 0.1787143 0.22345674 0.67222 -0.2293847 -0.14379443
-0.05280562 -0.25533655 -0.31185526 -0.40062574 0.20861365 0.30202153 0.1872408 0.040505573
0.22696121 0.0923327 -0.17568555 -0.17370413 0.19331615 -0.18318884 -0.13364437 0.2730451
0.066594765 0.15145111 -0.09025513 -0.0694165 -0.39931867 0.04452917 0.38087907 0.21542542
-0.16690719 -0.27555996 0.1380052 0.03963144 0.12341157 -0.16294855 -0.33395562 -0.5831618
0.11051294 0.72304994 0.24768816 0.10879135 0.21539344 0.41778556 0.54327375 0.11469485
-0.12524858 -0.41276374 -0.31496182 -0.05546883 0.64919233 0.6485599 -0.5412764 -0.16699229
-0.33984765 0.2935422 0.31881633 0.44553563 0.3252926 0.28521746 -0.6265791 -0.84984577
0.09122605 0.45967633 0.42498764 0.08267578 -0.5850308 -0.65404725 -0.1420747 0.1706818
0.662526 0.6568382 0.33583602 0.08190348 0.30623853 0.073991954 -0.59093624 -0.7757779
-0.33830243 0.56755537 0.7900721 0.5064317 0.15543163 0.48713484 0.32691818 0.29375917
-0.26241145 -0.34394708 -0.6284011 -0.35529682 0.2842034 0.6867836 0.0074203406 0.2294345
-0.01468404 -0.56191826 -0.7842715 0.2196044 0.095225334 0.56862605 0.5418635 0.1913014
0.10328924 0.32573962 0.47658324 0.52573097 -0.38389295 -0.29673785 -0.5648903 -0.28785342
0.23373689 0.52972543 -0.006570461 -0.015155705 0.19224922 0.13278975 -0.10387289 -0.050678242

lstm.lstm.weight_hh_l0 f4 [40, 10]
00000000: 75ad 56be 8eda 0abe cc72 343e 5873 993d
00000010: cc8c 023e 1511 8ebe 5f9b 19be 7d1f ff3c
00000020: 391f dfbd f9c4 2f3f f5ef 2dbe 0572 34bb
00000030: 9bfe 7ebc fcac 873e 521e f93d e236 8bbe
00000040: aa55 02be 11f4 603e 3423 c53d 478d e43e
00000050: c0e5 b2bc 60f8 353e 1ed1 5b3e b41c 8fbd
00000060: bfd1 49be 9c03 9bbe b3d5 a13e e9d0 90be
00000070: 279c 9e3e 49f0 0dbf a075 9f3d 3f34 003e
00000080: 5978 923e 3bff b13e 5a37 c3be 4cf8 363e
00000090: 4cba 273e 83c4 babb 0cde eebd dce2 9a3e
000000a0: d867 84bc 26d7 d1be f83e efbc d916 6abe
000000b0: 40b6 bb3e 239a 823d a3b9 563e 8c42 903e
000000c0: b438 46be ebb5 063f 2eaf a3be 8aaf c8be
000000d0: 85af a83e 8603 4abd aed2 ddbe 8ef6 bdbe
000000e0: 4ce9 4dbe 2eef 2abe 8e16 a9be 85b9 93be
000000f0: 0030 9dbd 4119 f13d e0e2 753e 6208 963d
00000100: 5cda 08be 94e4 adbe d8f5 eb3d f903 673e
00000110: 9f9d 5fbe 9154 2b3c a4af 743e 57f3 8fbc
00000120: 0e9b 9f3e 0c8d bf3d d6f4 1ebd 2a55 bc3d
00000130: d761 ebbd b4bd bc3e 69f4 c8bd e076 8f3e
00000140: c0c4 57be 828b 9f3d f987 eebc 316d 7bbe
00000150: ec8b b8bd 3deb 163e 4309 3abe 334f 293e
00000160: 84c5 76bd c813 153f 119a 62bc 6c03 083b
00000170: d3d7 12bd 81fa 00be 2f9a 2a3e 208a 563c
00000180: 0bff c2bd 423c 8ebd 6691 813e e19f bf3e
00000190: b76b b2be addc 28be 1f8a eb3d fde2 16be
000001a0: 3f5d a33e 1ead d1bd c7f8 0a3a 8293 e83c
000001b0: 6570 75bd a105 ce3d d197 043e 49e1 a0be
000001c0: 0e86 073e 39d9 893e 1cc5 d03e 5763 ca3d
000001d0: 590f 31be 6140 18be f674 82be 635b f73e
000001e0: 422f babd 3097 7bbb 78e2 b23e c617 d03d
000001f0: 5fe7 89bd 859a 853e 081e 263e 2017 80be
00000200: 9b7b 093c 9e78 b1be fb2d dc3d f730 3e3e
00000210: bd13 36be dbf9 d23d 95b1 8ebe b8db 393d
00000220: 3f99 703c 1f83 d9bd c00b cd3d c6a5 833e
00000230: d387 4e3e cc0b c23e eed5 dfbb 5ada f2bd
00000240: 3ae8 d53e 83eb c6be e46e 953e 9bc3 43bb
00000250: 3a9b 4d3d 0029 a53e 7753 863e f7e8 30be
00000260: 2b43 803e fd20 a63e 86af 723e 8a64 4d3e
00000270: 7241 b9bd 731f a8bd 04ca 5b3d e5b5 a1be
00000280: 04d7 1fbd a54c bbbe c944 a2bd 701b a43c
00000290: 58f2 813e 44cb debd 6a2e c9be 96ec 833e
000002a0: 70bb 49be d04c 0ebf f34d 913e a51b 473c
000002b0: 36bc 853e b295 58be ad24 ce3e 40dd b3bd
000002c0: ac3c ea3c 6dfb af3c bdf0 823d 2b44 93be
000002d0: cf49 8cbd 2c99 9b3d 6457 a0bd 9c56 fdbd
000002e0: 8a2c e03e 13b9 433e b3a2 223e f506 78be
000002f0: 849d a8be 045c 2d3f bfc1 37be 7971 16be
00000300: 1f9d 33be 8c16 9e3e f5e1 36bf 5f9c d5bd
00000310: 2151 ffbc 1c67 09be f3dd e0bd 6c97 893d
00000320: 98fe c53d e018 6e3d bb27 d03d 9f6d 60be
00000330: a0de d0bc ddd1 91be e943 41be 4691 b23e
00000340: 8b47 a5bd 8d54 123f d39c d3bd 4745 393d
00000350: 3add b73b a398 e73d 0170 5d3e ba9d 77be
00000360: d017 b2be f0d7 b03e 672c 903d 5486 063f
00000370: 04bd 8ebd 1fb2 bf3d cf07 703e c102 91be
00000380: dea8 cd3e f1cf 913d e540 b23d 5d0d 9c3d
00000390: 613e 6cbe ba08 c13e 0380 d13e b7db 9a3e
000003a0: 9ad5 28be 17c7 2abe 08c0 783e 0b5e 653e
000003b0: 36d7 0c3e e863 83be ac34 d63e 8d49 bebe
000003c0: 93a5 d23d 240f 99be ff66 233a 0a87 82bc
000003d0: 8ccc ecbd cbfd c8bd 6311 e1bc f86b 233e
000003e0: d2d7 cf3c d52d 3a3f 9967 ae3c 5cd2 7dbd
000003f0: d060 7abe e194 b83c d11a c53d 0f73 08be
-0.20964606 -0.13559934 0.17621917 0.07492703 0.12749022 -0.27747408 -0.15000676 0.031142944
-0.10894627 0.6865993 -0.16986068 -0.0027533781 -0.015563632 0.26499164 0.12163986 -0.2719031
-0.12727991 0.21968104 0.09625855 0.44639036 -0.021838069 0.17770529 0.2146649 -0.069878966
-0.19708918 -0.3027619 0.31608352 -0.28284386 0.3097851 -0.5544477 0.07786107 0.1251993
0.28607443 0.34765038 -0.38128167 0.17868155 0.1637966 -0.0056996956 -0.11663446 0.30251205
-0.016162798 -0.40984458 -0.02920483 -0.22860278 0.36662483 0.063770555 0.20969252 0.2817577
-0.19357568 0.52621335 -0.3196959 -0.39196426 0.3294641 -0.049319766 -0.43324798 -0.3710217
-0.20108527 -0.16692802 -0.3302502 -0.28852478 -0.07675171 0.11772395 0.24012327 0.07325818
-0.13364547 -0.33963454 0.115215 0.22560109 -0.21837471 0.010457174 0.23895127 -0.017572088
0.31172985 0.093530744 -0.038807712 0.09195931 -0.11493271 0.36863482 -0.098122425 0.28020382
-0.21071148 0.07790281 -0.029117571 -0.24553372 -0.09011063 0.14738174 -0.18167596 0.16534118
-0.06024696 0.5823331 -0.013830678 0.0020753993 -0.035850357 -0.1259556 0.16660379 0.013094455
-0.09521302 -0.06945087 0.25306243 0.37426665 -0.34847805 -0.16490431 0.11500954 -0.14735027
0.3190708 -0.102380976 0.0005301353 0.02839065 -0.05992164 0.100596674 0.12948538 -0.3142188
0.13234732 0.2692354 0.40775383 0.09882229 -0.17291011 -0.14868309 -0.2547986 0.4831191
-0.09091045 -0.0038389675 0.34938407 0.101607844 -0.06733584 0.26094452 0.16222394 -0.25017643
0.008391286 -0.34662336 0.107509576 0.18573366 -0.17780967 0.103015624 -0.2786986 0.045375556
0.014684974 -0.106207125 0.10012007 0.25712413 0.20169 0.37899625 -0.0068309223 -0.118580535
0.41778737 -0.38851556 0.29186165 -0.0029871229 0.050196864 0.32257843 0.26235554 -0.17276369
0.25051245 0.32447043 0.2369977 0.20057884 -0.09045686 -0.082091235 0.053659454 -0.31584087
-0.039023414 -0.36581913 -0.07923276 0.020032614 0.25380206 -0.108786136 -0.39293224 0.25766438
-0.19700408 -0.55585957 0.28379783 0.012152587 0.26120156 -0.21150854 0.40262356 -0.087824345
0.028593384 0.021482194 0.063935734 -0.28762946 -0.06850015 0.075975746 -0.078291684 -0.12370035
0.4378398 0.19113569 0.15882377 -0.24221404 -0.32932675 0.6771853 -0.17945002 -0.14691724
-0.17540406 0.30876577 -0.71438533 -0.10430216 -0.031166615 -0.1341824 -0.109798335 0.067183346
0.096677005 0.05812919 0.10163828 -0.21916817 -0.02549678 -0.28480425 -0.18873562 0.3487646
-0.08070286 0.57160264 -0.10332646 0.045232084 0.005611089 0.1130841 0.21624757 -0.24181262
-0.34783792 0.34539747 0.07039719 0.5254872 -0.069696456 0.09360146 0.23440479 -0.28322414
0.40167898 0.0711974 0.08703784 0.07619736 -0.2307067 0.3770197 0.40917978 0.30245754
-0.16487733 -0.16677509 0.24292004 0.22399156 0.13753971 -0.2566216 0.4183706 -0.3716549
0.10285487 -0.29894364 0.0006233304 -0.015933532 -0.11562452 -0.09814032 -0.027474111 0.15959156
0.025371466 0.72726184 0.021289634 -0.061968192 -0.24450994 0.022531928 0.096242554 -0.13325141

lstm.lstm.bias_ih_l0 f4 [40]
00000000: 05e0 08be f7d6 b73c b090 883e 549d 8b3e
00000010: f50b 13be c077 063b 03e2 893e 6e74 0bbe
00000020: e82f 54be 7bf7 333e ed5b 37be e0e9 febb
00000030: 56c2 ea3d 839c 26bc 8b89 1cbe 73d8 78be
00000040: 6add c0bd 0518 4bbe d305 4d3e a618 91be
00000050: e5f0 923e 9a06 343e e41f b53a 4a9d 243d
00000060: 2b8a 0cbd f7a3 713d 4ba1 bfbd 7855 d2bd
00000070: aeac 6cbc 89d6 5d3e d5f0 45be cb52 aa3e
00000080: d6a1 23be 4cd9 033e 6361 943e 733b a5be
00000090: 5c5b a0be 213d 99be 8cd6 6a3e 8fa9 1ebe
-0.13366707 0.02244137 0.26672888 0.2726847 -0.1436003 0.0020518154 0.26930246 -0.13618633
-0.207214 0.17574875 -0.1790616 -0.007779345 0.11462848 -0.010169151 -0.15286843 -0.24301319
-0.094172314 -0.19833381 0.20021753 -0.28339118 0.28699413 0.17580643 0.0013818708 0.040189065
-0.034311455 0.05899426 -0.09356936 -0.10270208 -0.014445467 0.2166387 -0.19330151 0.3326629
-0.15979704 0.12875861 0.2898055 -0.3227192 -0.31319702 -0.2992945 0.22933406 -0.15494369

lstm.lstm.bias_hh_l0 f4 [40]
00000000: dd18 443e a8d1 33be 01c7 acba 53cb 493e
00000010: ffed 153e 1914 0bbe ab47 f63c ec4f 4dbe
00000020: 205d 46be 5b2b 6ebe af1e 8fbe 54d0 073d
00000030: 9710 47bd 96f0 ce3d ace8 abbd 571c 63be
00000040: ad46 0a3e abc4 073e 2625 783d 4dc7 e7be
00000050: a110 f0bd b24a bebd 84c9 85be 8dd9 24be
00000060: 61f7 743d 5084 bdbd 3d74 1d3e b697 b5bc
00000070: 6a6a 3e3e e37c 5bbe 56bf f5ba da07 ee3d
00000080: 0834 26bc 9135 82be 253b 513e 9280 93bd
00000090: 3e8b ea3d 314e 90be a02d 2abe 2f25 9cbe
0.1915011 -0.17560446 -0.0013181866 0.19706468 0.1464157 -0.13581885 0.03006347 -0.20050019
-0.19371462 -0.23258726 -0.27953097 0.03315766 -0.048599806 0.10104482 -0.08393988 -0.2217878
0.13503523 0.13258617 0.060582303 -0.45269242 -0.11721922 -0.09291591 -0.26130307 -0.16098614
0.05980623 -0.09253752 0.15376373 -0.022167068 0.18595281 -0.21434359 -0.0018749039 0.11622591
-0.010144241 -0.25431493 0.20432718 -0.07202257 0.114523396 -0.28184655 -0.16618967 -0.3049712

exp_avg f4 [40, 10]
00000000: 72c4 2ab3 7d06 8cb0 1a7f a232 b382 0e33
00000010: 91e7 fa33 c7ca 3d34 06a9 0434 166b 2d32
00000020: 23fb 7bb3 de07 c9b3 e0c2 11b2 466d 8432
00000030: 1e4a 5832 d6dd fab1 46c2 16b1 9b51 1833
00000040: c597 1733 1d1d 84b2 3fa9 e0b2 52b8 52b2
00000050: b743 10b3 e777 b4b3 9a81 abb3 01e7 e0b3
00000060: 93dc 57b4 bf0e 2eb4 5990 b732 55d8 d433
00000070: 6b0d 4933 3787 4632 41b7 5c31 a81e 8531
00000080: 2010 54af dbfd e7b1 d59e 0fb2 184e b62f
00000090: 62be 3331 0103 d62f eedc d431 f028 4d32
000000a0: 5caf 7ab3 ef16 f3b3 a732 d0b3 a4a8 8fb3
000000b0: 7b49 22b3 3165 0133 7b4e 3234 87ae 3834
000000c0: 7947 1533 9e8c bab3 5609 612f 2ff2 2430
000000d0: 917f 1330 0bc3 c8b0 4504 1db1 0f9a a130
000000e0: 81a4 0f30 8076 ddb0 ce4c 502f 0012 182f
000000f0: 7b6e b431 6781 08b2 0ec0 59b2 7bde 0ab2
00000100: 86fe ddb1 be71 49b2 5f99 bcb1 cb8f 8532
00000110: 3013 9832 f831 0e31 a40b 9631 0c4e d331
00000120: e510 4ab1 5dea 32b2 f07b ecb1 9088 dc31
00000130: be78 ab31 2188 d5b1 c650 0b31 e027 2e32
00000140: 25d0 06b3 e36e 00b3 a2b1 8cb2 bd9c 6432
00000150: 7616 c233 13c7 0634 3d7e ea33 d189 7d33
00000160: 0d4c d5b2 cb15 cab3 abec a0b3 3223 7cb4
00000170: 4cc1 45b5 f25e 5bb5 b9fe 1035 1819 a235
00000180: 2205 8c34 01e9 3eb4 f3d4 8fb4 9566 0eb5
00000190: 1fa2 bcb2 9399 6333 41d1 9933 f4bb 9b33
000001a0: 9e87 0134 fe03 0834 a612 2f32 b481 c1b3
000001b0: 8087 97b3 fb17 cdb2 b901 3432 40c4 f032
000001c0: b481 a432 26a5 2132 75fb cf32 d139 e632
000001d0: 246f b9b2 f05a 36b3 a5eb 46b2 24a6 3532
000001e0: 772f 0bb3 ed1c 16b3 18a2 ceb2 a083 8db3
000001f0: 53e7 43b4 630a 26b4 a8fc f8b2 9e06 2632
00000200: 432e 9731 5561 2a33 8ff9 2431 6273 52b1
00000210: fbb0 beb1 45c8 c3b0 0659 dc30 e2d5 f22e
00000220: 9c76 0fb1 bb48 8d31 27a7 2432 dade e631
00000230: f13f b4b3 0232 03b3 3bd0 e432 4cdd 1b33
00000240: c8a1 d432 5de8 8a33 a097 a533 0b05 b330
00000250: 71dd 5fb3 51b9 13b3 f385 8230 db55 d330
00000260: c878 a330 d278 d42f 4e3b 9eae 33e3 94b0
00000270: f286 50b1 0d3a d8b0 5f94 3c30 fd73 eb30
00000280: 709e 09b2 5c4e 08b2 05c9 d4b0 d779 ac31
00000290: 17b6 8731 7f7b c1b1 ee27 4ab1 61c0 4231
000002a0: b648 3bb1 439d a3b1 0cb5 3231 2811 5031
000002b0: 0c29 64af 3f74 8530 c9fa cd31 e864 9531
000002c0: 9f3f 1bb2 c6f0 18b2 c4f8 3731 cf9c b731
000002d0: e19a ecb2 e427 0133 165b 5633 5a49 7b33
000002e0: 5524 e933 f598 0334 fbd4 2b33 1e42 66b3
000002f0: 3727 87b3 026e 25b3 8024 8434 446b 8134
00000300: c7c3 3d33 e73c e9b3 48cd b533 62ac 78b4
00000310: 8d73 c7b4 263f 8fb3 0223 6734 01ef bd34
00000320: 4f43 0b34 170d 0a35 edb5 0335 fe72 6835
00000330: e96d 1236 ba89 fe35 71a1 2334 11fe 31b5
00000340: a8ee 12b5 7779 2eb5 6bbf a233 9ce3 9b34
00000350: 1303 8034 7ca0 b034 bed1 5c35 8576 1d35
00000360: 4f1a 85b4 1ea4 16b5 d412 cab4 6581 a3b4
00000370: 2150 dcb3 2b36 3534 57da ab34 44f4 2035
00000380: bdda ae35 9e14 ae35 0a78 f034 3173 4bb4
00000390: 0054 c1b4 57b7 eab4 300c ee32 05db f933
000003a0: ae72 ee33 f5a3 0634 f377 5934 71f0 1d33
000003b0: 51b9 83b4 9012 9cb4 f4c9 3bb4 01f4 88b3
000003c0: 4f83 14b4 2ec7 9934 d0e9 0835 161f 9c35
000003d0: d088 4136 a4a0 4336 4254 9c35 1f94 d8b3
000003e0: c35c 13b5 f965 92b5 ac05 f233 0475 1234
000003f0: 80b1 6c33 c9d5 d933 97d7 9a34 c73c 3833
-3.9759875e-08 -1.0188185e-09 1.8917081e-08 3.318082e-08 1.1683654e-07 1.7675767e-07 1.2354948e-07 1.0094274e-08
-5.86689e-08 -9.361223e-08 -8.48442e-09 1.5416514e-08 1.2589707e-08 -7.3011774e-09 -2.1938305e-09 3.5464478e-08
3.529546e-08 -1.5380062e-08 -2.6153996e-08 -1.2265518e-08 -3.35892e-08 -8.403713e-08 -7.9863824e-08 -1.0472832e-07
-2.010368e-07 -1.6210377e-07 2.1369646e-08 9.91137e-08 4.6811163e-08 1.1555861e-08 3.2118381e-09 3.8742947e-09
-1.9287016e-10 -6.751845e-09 -8.35981e-09 3.3161096e-10 2.6156148e-09 3.8928508e-10 6.195129e-09 1.1941879e-08
-5.836715e-08 -1.1319741e-07 -9.6949684e-08 -6.689632e-08 -3.7785394e-08 3.0127186e-08 1.6606093e-07 1.7199828e-07
3.475677e-08 -8.686878e-08 2.0466948e-10 6.0007016e-10 5.365957e-10 -1.460735e-09 -2.2848934e-09 1.1758078e-09
5.225687e-10 -1.6113546e-09 1.8944776e-10 1.3830714e-10 5.2512497e-09 -7.945665e-09 -1.2674731e-08 -8.083243e-09
-6.4608825e-09 -1.1725602e-08 -5.4889564e-09 1.5548627e-08 1.7703854e-08 2.0692124e-09 4.366898e-09 6.149781e-09
-2.9404472e-09 -1.0414252e-08 -6.882594e-09 6.418368e-09 4.990482e-09 -6.214592e-09 2.0273077e-09 1.01371995e-08
-3.1388613e-08 -2.9903173e-08 -1.6378923e-08 1.3306985e-08 9.0379146e-08 1.2552145e-07 1.0919437e-07 5.9031496e-08
-2.4831047e-08 -9.410322e-08 -7.49363e-08 -2.3482133e-07 -7.3669503e-07 -8.172202e-07 5.401485e-07 1.2077244e-06
2.6080767e-07 -1.7779895e-07 -2.6790767e-07 -5.30484e-07 -2.1959805e-08 5.299223e-08 7.162681e-08 7.2519384e-08
1.2063398e-07 1.266744e-07 1.0190581e-08 -9.010856e-08 -7.056133e-08 -2.3876046e-08 1.0477771e-08 2.8028921e-08
1.9151095e-08 9.408984e-09 2.4212321e-08 2.6801816e-08 -2.1587375e-08 -4.2457884e-08 -1.1578696e-08 1.0573363e-08
-3.240663e-08 -3.4950904e-08 -2.4055268e-08 -6.5897666e-08 -1.8244945e-07 -1.5463733e-07 -2.8985895e-08 9.663976e-09
4.3999377e-09 3.9669732e-08 2.4006999e-09 -3.062461e-09 -5.549848e-09 -1.4245037e-09 1.6032409e-09 1.1042879e-10
-2.087666e-09 4.1119086e-09 9.584062e-09 6.7192163e-09 -8.393534e-08 -3.0546296e-08 2.6637386e-08 3.6290018e-08
2.4753618e-08 6.4683924e-08 7.710992e-08 1.3025397e-09 -5.2122633e-08 -3.439465e-08 9.496816e-10 1.5376672e-09
1.1894139e-09 3.8648423e-10 -7.195543e-11 -1.0832991e-09 -3.0344691e-09 -1.5732567e-09 6.860485e-10 1.7131466e-09
-8.010474e-09 -7.934059e-09 -1.5482163e-09 5.0197104e-09 3.9497183e-09 -5.631079e-09 -2.9417566e-09 2.834007e-09
-2.7253413e-09 -4.761803e-09 2.6005322e-09 3.0277736e-09 -2.0751062e-10 9.710063e-10 5.994796e-09 4.3479425e-09
-9.036653e-09 -8.90231e-09 2.6771412e-09 5.343828e-09 -2.7544447e-08 3.0071433e-08 4.99086e-08 5.8507204e-08
1.0856517e-07 1.2255971e-07 4.0007745e-08 -5.361118e-08 -6.2935605e-08 -3.8517108e-08 2.4613473e-07 2.4106168e-07
4.418305e-08 -1.0860986e-07 8.46581e-08 -2.3159512e-07 -3.7150713e-07 -6.670443e-08 2.1526287e-07 3.5377892e-07
1.296987e-07 5.1428054e-07 4.906604e-07 8.659407e-07 2.1819671e-06 1.8964558e-06 1.523929e-07 -6.6307354e-07
-5.473653e-07 -6.4996806e-07 7.5785316e-08 2.9036607e-07 2.3844095e-07 3.2899322e-07 8.22616e-07 5.8659526e-07
-2.4792323e-07 -5.6118176e-07 -3.763913e-07 -3.0455263e-07 -1.0259124e-07 1.6876645e-07 3.2010095e-07 5.99601e-07
1.3027671e-06 1.2970011e-06 4.4790823e-07 -1.8947755e-07 -3.601017e-07 -4.3719294e-07 2.7712389e-08 1.16348055e-07
1.1103599e-07 1.253937e-07 2.0253337e-07 3.677309e-08 -2.4535487e-07 -2.907077e-07 -1.7489202e-07 -6.3773776e-08
-1.3831344e-07 2.8643393e-07 5.100419e-07 1.1631953e-06 2.8838876e-06 2.915077e-06 1.1647428e-06 -1.0085227e-07
-5.4896753e-07 -1.0907526e-06 1.1270035e-07 1.363988e-07 5.5109467e-08 1.0143737e-07 2.8841598e-07 4.2896115e-08

exp_avg_sq f4 [40, 10]
00000000: 26a9 2629 9047 9429 47ac b629 5525 8529
00000010: 8ef9 8929 7547 d729 b042 8929 c180 ec28
00000020: 2280 6729 25bb cd29 ff70 8328 a7be 0329
00000030: ea5b 0c29 13df 9828 8b64 e328 49d3 3f29
00000040: 10fc e428 08a1 6628 ace6 cd28 c217 2129
00000050: 5c36 8128 b39f ae28 ca17 3329 db66 8829
00000060: 03d5 5429 632c 1829 33a1 6129 fecd 3c29
00000070: f912 b428 db47 d928 5c2c f624 9799 9024
00000080: b5cc 8025 4eed bc25 401b 2e25 bb8c 5625
00000090: 17df 9925 c33d 6025 f38c ad24 99d9 a324
000000a0: 0ced 1928 3d3d b728 ac79 ac28 8ad2 0a28
000000b0: d126 0227 daf6 2d28 fb7c 1129 66d0 b628
000000c0: fde5 5627 2594 b828 4c47 4e24 f14b c124
000000d0: 001c b324 1fb7 c123 8af4 0325 146f 7625
000000e0: 15dd 5424 f8a5 0024 86fb af24 eac0 c124
000000f0: 275a 3826 7936 ae25 65d3 3826 9be2 6826
00000100: 8760 6c26 5b16 4f26 8c6f 6226 eef8 dc26
00000110: 1b9d 8426 00ee c525 f031 fb26 42eb 3327
00000120: 91d5 ef26 1be7 6726 ddfa 0027 89ad 5a27
00000130: 78e9 2927 da93 b726 91dc 0527 fcb8 4627
00000140: 8d42 b128 45cd 1329 e221 5929 71b2 3829
00000150: 2627 1229 30b0 6529 7b93 2629 a8c4 5428
00000160: 479e a928 d502 6029 46b5 112b 6267 c12a
00000170: 33bf bd2a ff30 4a2b 8e84 ff2b 4712 8f2b
00000180: 9ba5 742a d310 262b 3ed0 172b a407 ab2a
00000190: 96a6 cd28 17a9 1d29 1d9e 5829 2930 3229
000001a0: f76c 3a29 d039 7e29 80e6 4329 9c01 1229
000001b0: 086d 0b29 9fe0 4d29 db1a 6428 12c3 e028
000001c0: f47f ea28 e41c 8128 5bc5 c528 b4ce 3129
000001d0: 7df9 fb28 bf3b 7028 f64d a328 4313 0729
000001e0: c3cc ba28 2411 db28 c571 6229 3476 bb29
000001f0: 846a 8e29 ff58 6329 769b 6729 941a 2329
00000200: f759 f228 2852 2129 f715 4925 aa66 5d25
00000210: f035 ed25 04c8 d925 8a97 3325 8f3b 8525
00000220: 0b6b 0226 8ac2 dc25 9e97 0325 6c13 f924
00000230: 800f 4628 34bd dc27 1dbb bc26 fc69 4027
00000240: 3374 fd27 3af2 5528 48c6 de27 97ed 2127
00000250: e46a 1528 7b74 a927 dc75 9323 4e4f 2224
00000260: 5f14 3324 fbb6 1723 dcb2 6524 2675 8424
00000270: 3da0 9323 ab68 3223 1e7f c823 2791 4a24
00000280: d314 0026 7ffa e725 6019 0f26 ca0f 6626
00000290: e152 b226 eb4c 9826 ae81 9e26 f10e 8e26
000002a0: 9f1d 1526 8ef5 0426 31a2 8826 b380 c026
000002b0: 63bf ac26 3059 5926 a022 a926 e059 1b27
000002c0: 07ea 1c27 c602 9b26 73fd 9826 691f e426
000002d0: b345 bb28 42e1 e428 c928 4129 67d6 4029
000002e0: 8711 2529 8b34 4229 3f6e 2529 d661 0329
000002f0: 920a d828 6d88 2729 260c e429 17ec 2e2a
00000300: 6608 862a 3936 4f2a 81f6 4f2a 97a8 f129
00000310: 24a6 212a 4a90 b229 7898 102a a7cb 842a
00000320: 43b1 282c 428e 802c fce0 e42c d051 0a2d
00000330: 47ee df2c 6ed8 f12c b39b e52c c8f6 912c
00000340: bfd7 5e2c 3065 ac2c e790 062b ddf3 6e2b
00000350: 82d8 bf2b eb3c b62b 91aa 8f2b 0a56 da2b
00000360: 4114 e92b be8c 832b a285 1a2b eafc 762b
00000370: f96e 802b 5257 8b2b ff17 022c 7f7d 3c2c
00000380: 57ec 1e2c 619d 012c 69ad e72b 7d52 be2b
00000390: cfa5 9f2b 23c4 cc2b 3761 5e29 ff6f 9e29
000003a0: bfaf d429 88c5 b129 6801 6c29 57f4 fc29
000003b0: 80ee 352a c692 c529 e867 f728 bb02 5b29
000003c0: 33a2 e92c 8490 d12c 6fb5 4c2d 25fe ad2d
000003d0: 2f45 912d cf14 462d 8fd0 382d 771e 332d
000003e0: bf62 0e2d aea5 1b2d b161 9d2a 8657 322b
000003f0: 6a2c 1f2b 1a0f 572a 5c0d 202b ddfd 922b
3.7006117e-14 6.5849344e-14 8.112309e-14 5.9128626e-14 6.127313e-14 9.560314e-14 6.0955906e-14 2.6257101e-14
5.140344e-14 9.136293e-14 1.4592926e-14 2.9253208e-14 3.1165967e-14 1.6972133e-14 2.5245666e-14 4.259378e-14
2.54224e-14 1.2802483e-14 2.285961e-14 3.5769788e-14 1.4345452e-14 1.9387139e-14 3.9766618e-14 6.057456e-14
4.7258214e-14 3.378928e-14 5.0099854e-14 4.1923055e-14 1.9992243e-14 2.4123002e-14 1.0676064e-16 6.2710236e-17
2.2343175e-16 3.2773605e-16 1.5101327e-16 1.8609223e-16 2.669244e-16 1.9449829e-16 7.526557e-17 7.1058606e-17
8.5446075e-15 2.034364e-14 1.9148603e-14 7.706192e-15 1.8062167e-15 9.6569566e-15 3.230487e-14 2.0296437e-14
2.9823143e-15 2.0492351e-14 4.472952e-17 8.382906e-17 7.767631e-17 2.1002657e-17 1.1445292e-16 2.1374733e-16
4.6157436e-17 2.7896157e-17 7.632025e-17 8.402722e-17 6.3960003e-16 3.02211e-16 6.4124317e-16 8.0798277e-16
8.2009767e-16 7.184785e-16 7.8560675e-16 1.5333039e-15 9.201923e-16 3.4335328e-16 1.7430159e-15 2.4968774e-15
1.6641844e-15 8.045743e-16 1.7899562e-15 3.034765e-15 2.3580025e-15 1.2738251e-15 1.8577027e-15 2.75783e-15
1.967981e-14 3.28186e-14 4.8213068e-14 4.101098e-14 3.2452468e-14 5.1001033e-14 3.6987323e-14 1.1811007e-14
1.8831411e-14 4.9740448e-14 5.1765916e-13 3.4355423e-13 3.3705815e-13 7.183281e-13 1.8155631e-12 1.0165834e-12
2.172901e-13 5.8998395e-13 5.393497e-13 3.0381004e-13 2.2831817e-14 3.5007665e-14 4.8098776e-14 3.9565712e-14
4.139481e-14 5.6449474e-14 4.3498625e-14 3.2419908e-14 3.095877e-14 4.5713972e-14 1.2662366e-14 2.4953594e-14
2.603471e-14 1.4334406e-14 2.1956983e-14 3.948118e-14 2.7974796e-14 1.3335632e-14 1.8130445e-14 2.999273e-14
2.073895e-14 2.4321318e-14 5.028076e-14 8.324973e-14 6.324544e-14 5.0481317e-14 5.1427145e-14 3.6216323e-14
2.6906413e-14 3.582044e-14 1.7441413e-16 1.9203478e-16 4.1149496e-16 3.7779035e-16 1.5577119e-16 2.311218e-16
4.524788e-16 3.829574e-16 1.1413809e-16 1.0801944e-16 1.0994569e-14 6.12674e-15 1.3095838e-15 2.6702807e-15
7.034759e-15 1.18764e-14 6.1832355e-15 2.2472036e-15 8.29434e-15 4.703321e-15 1.5987687e-17 3.5195324e-17
3.8831693e-17 8.224474e-18 4.980796e-17 5.744433e-17 1.6005635e-17 9.671564e-18 2.173788e-17 4.3924717e-17
4.4437143e-16 4.0241855e-16 4.964748e-16 7.981868e-16 1.2373696e-15 1.0567967e-15 1.0998602e-15 9.857279e-16
5.1734904e-16 4.612949e-16 9.480858e-16 1.335756e-15 1.1986773e-15 7.540787e-16 1.1736116e-15 2.1559292e-15
2.1776215e-15 1.0756037e-15 1.0615816e-15 1.5829192e-15 2.0791398e-14 2.5410775e-14 4.2889984e-14 4.281853e-14
3.6652562e-14 4.3122227e-14 3.6732983e-14 2.9172702e-14 2.3985401e-14 3.719978e-14 1.01273414e-13 1.5536215e-13
2.380901e-13 1.8404106e-13 1.8470817e-13 1.07317956e-13 1.4357314e-13 7.929818e-14 1.2842667e-13 2.3589222e-13
2.3972636e-12 3.6537726e-12 6.505128e-12 7.862558e-12 6.3644953e-12 6.8736605e-12 6.5258575e-12 4.148546e-12
3.166786e-12 4.899768e-12 4.7807456e-13 8.4893014e-13 1.3631459e-12 1.2948786e-12 1.0208103e-12 1.5513712e-12
1.6561267e-12 9.347174e-13 5.4897243e-13 8.7747745e-13 9.125748e-13 9.90078e-13 1.8487432e-12 2.6786071e-12
2.2584345e-12 1.8419365e-12 1.6461668e-12 1.3523207e-12 1.1343651e-12 1.4549511e-12 4.9378223e-14 7.036038e-14
9.445178e-14 7.894645e-14 5.2403746e-14 1.1233434e-13 1.6158776e-13 8.7740186e-14 2.7467571e-14 4.8630137e-14
6.640266e-12 5.9561817e-12 1.1636344e-11 1.9780686e-11 1.6515315e-11 1.1259617e-11 1.0505498e-11 1.01817365e-11
8.0936915e-12 8.847518e-12 2.795659e-13 6.3359767e-13 5.6549784e-13 1.9101075e-13 5.686196e-13 1.0444385e-12

exp_avg f4 [40, 10]
00000000: 3f33 5534 55f1 7034 a5bc d1b4 fb89 6f33
00000010: 8c25 11b3 e5c1 e732 82ce c133 f815 86b3
00000020: ff57 6634 729e 1cb4 6594 5832 2ab3 be32
00000030: f28b 05b3 3ffd 1432 271d c4b1 2760 d531
00000040: ad16 0332 f409 8cb1 2a6e 4932 d52e 5bb2
00000050: 4ed0 81b3 db50 7fb3 d0fd aa32 e12a 99b2
00000060: 4582 0332 622e 61b2 4057 75b0 8fb6 6f31
00000070: 491c d5b3 0e29 0834 3397 83b1 b097 aa30
00000080: 66de 2a33 e7b2 f031 ba6c 9131 26ca 0530
00000090: 3b3b 01b2 51bb 81b0 8435 dcb1 6490 a5b1
000000a0: 0840 0434 a29c 4534 aa64 0ab4 6d95 1134
000000b0: 5c17 deb2 3572 9532 e7bf 9a33 fdc9 a8b3
000000c0: 5091 c333 149b c4b3 f9cb ffb0 8eb6 edb0
000000d0: d28f 6331 3059 1230 d6f1 c1ae 5eb0 862e
000000e0: d8db 18b0 f727 2630 165b 0fb1 ad0b 0930
000000f0: 031c 1632 f33b 2032 e9cc c531 fbcb b931
00000100: 5eba f531 44d5 e4af a117 04b1 7fd1 95b1
00000110: 9ffd bd31 22cf c1b0 0f16 8431 7554 f231
00000120: 7600 6332 a62a ab31 f1a2 a331 6e35 b730
00000130: 339d 3bb1 c396 d7b0 b9e9 a030 7ea9 94b1
00000140: cffc 8134 9314 8c34 1f2a ecb4 471e 3d33
00000150: 4221 3eb2 9325 ce32 1eb8 cd33 912a a2b3
00000160: d11d 8734 dd1e 16b4 3c97 0835 da09 f734
00000170: 97f9 30b6 17a1 0935 d69c 09b5 91d4 8133
00000180: 5ae1 6335 233e 09b4 7025 f734 4357 acb4
00000190: 6b9e e033 363f ca33 23b3 a5b4 66f1 05b3
000001a0: afbe e3b2 dab9 5132 03a1 3d33 e9fb 3bb2
000001b0: 8ae1 1634 2711 9cb3 d86a c830 d5c3 6ab1
000001c0: 05f6 54b2 67e5 81b2 1660 1431 6f58 4b30
000001d0: 10d1 e0b1 aee9 0432 c24f 2032 9480 d3b1
000001e0: e9f5 feb3 5a44 25b4 d5ac 0fb3 cce2 f1b3
000001f0: 5a9a b430 062d bbb2 f68b 7bb2 e96a 3b33
00000200: b8c6 17b4 fcbc 5234 5bf2 d5b0 af34 2c31
00000210: 9dab f132 0509 1432 f5ee 4d30 7b56 c9af
00000220: 71fd 75b1 48af 23b1 80d6 43b1 1443 f6b1
00000230: a585 2ab3 0daa bdb1 955f 12b3 3623 3b33
00000240: 4256 9eb3 a850 9031 8046 0733 0977 1ab2
00000250: 2ba5 16b3 32e8 96b2 cd19 83b0 1270 d3b0
00000260: 187a 9131 c467 c6b0 7ec2 b630 b8db 5caf
00000270: f8f0 09b1 5196 5a30 8382 32b0 18d3 3a30
00000280: 32fd 47b2 fbf8 32b2 02ab 8cb0 026a 0930
00000290: bbcc 07b2 fa1b d8b0 c5e5 1831 e2ab c430
000002a0: 9c57 36b2 54a4 db31 9431 36b2 e7ee 22b2
000002b0: bd72 dd32 c0b8 3331 8899 a2b0 085a 5fb0
000002c0: b948 b6b1 74d6 5631 ba55 27b2 aebb 79b0
000002d0: ea13 1e34 fb1b 1b34 06d3 c8b4 0547 7eb2
000002e0: 0cca deb2 68ec 8632 84aa 8633 ea72 f2b2
000002f0: 4b0f 3f34 a27e c2b3 2d3a 1e35 8fb6 e034
00000300: 6a5b 6ab5 79e2 b7b4 2238 ae34 73c7 8531
00000310: a360 ddb3 fa58 ecb2 3e65 2935 38a6 81b2
00000320: 7940 0f36 919d 0436 2edd 8eb6 ce3a 63b2
00000330: c9df adb3 d7a2 6534 e94a 4735 7e02 d5b4
00000340: 19ac 2b36 87a3 cdb5 1c59 a734 21ee ef33
00000350: cdf8 ceb5 2ff4 94b4 f513 d1b3 ff21 0033
00000360: 2f6f 7234 4cb7 a633 f7eb 0635 94ec 15b4
00000370: 4c54 6235 7017 8835 7bc1 96b5 8b06 f034
00000380: db84 85b4 6442 1a34 9e94 ba34 a7b8 94b4
00000390: 6395 8b35 195a 94b5 63a4 beb4 4960 ebb4
000003a0: 9f66 6a34 4db2 05b4 7e1a 9bb3 e1b9 e5b2
000003b0: cb47 8bb3 9edc 2c34 0caf 9fb4 0daf 4034
000003c0: 8fec 5936 5b12 6836 ce71 aeb6 d74f 5935
000003d0: d459 9bb4 e9af d134 6c2d 9a35 7972 74b5
000003e0: 8a7b 7836 2f74 39b6 9203 4ab3 25f9 25b4
000003f0: 3de1 09b4 4165 13b4 cbef 0f33 7f98 73b2
1.9855814e-07 2.2439538e-07 -3.906654e-07 5.5772016e-08 -3.3794592e-08 2.6980112e-08 9.0248264e-08 -6.243857e-08
2.1452432e-07 -1.4586274e-07 1.2606596e-08 2.2200386e-08 -3.1093755e-08 8.672315e-09 -5.707665e-09 6.210047e-09
7.6303595e-09 -4.075668e-09 1.1724788e-08 -1.2758126e-08 -6.044921e-08 -5.944535e-08 1.9906025e-08 -1.7831043e-08
7.654823e-09 -1.310727e-08 -8.925447e-10 3.488285e-09 -9.9237305e-08 1.2680923e-07 -3.829791e-09 1.241224e-09
3.978348e-08 7.005258e-09 4.232416e-09 4.867239e-10 -7.522256e-09 -9.439224e-10 -6.4089267e-09 -4.8185473e-09
1.2316752e-07 1.8404037e-07 -1.2888873e-07 1.3558538e-07 -2.5854824e-08 1.7397818e-08 7.206091e-08 -7.859851e-08
9.106827e-08 -9.15517e-08 -1.8611664e-09 -1.7295905e-09 3.31146e-09 5.3241234e-10 -8.8195826e-11 6.1249436e-11
-5.5609695e-10 6.044724e-10 -2.0861015e-09 4.98569e-10 8.737518e-09 9.326857e-09 5.75675e-09 5.4073985e-09
7.151626e-09 -4.1624493e-10 -1.922196e-09 -4.3602877e-09 5.5294573e-09 -1.4101469e-09 3.8442134e-09 7.0527286e-09
1.3213244e-08 4.9816036e-09 4.7624487e-09 1.3330188e-09 -2.7301439e-09 -1.5686158e-09 1.170796e-09 -4.326636e-09
2.4212065e-07 2.6092002e-07 -4.3989073e-07 4.403253e-08 -1.10670175e-08 2.3998643e-08 9.579547e-08 -7.5514556e-08
2.5167404e-07 -1.3981067e-07 5.0884023e-07 4.6014503e-07 -2.6371324e-06 5.1270894e-07 -5.1264703e-07 6.045696e-08
8.489202e-07 -1.2781724e-07 4.6034575e-07 -3.2100988e-07 1.0459629e-07 9.417856e-08 -3.0863984e-07 -3.1186026e-08
-2.6512991e-08 1.2207659e-08 4.415143e-08 -1.094211e-08 1.4051889e-07 -7.267436e-08 1.4582282e-09 -3.41628e-09
-1.23959625e-08 -1.5121897e-08 2.1591453e-09 7.397664e-10 -6.5430257e-09 7.736544e-09 9.331361e-09 -6.155526e-09
-1.18725275e-07 -1.5391689e-07 -3.3451972e-08 -1.1263691e-07 1.3140593e-09 -2.179014e-08 -1.4641946e-08 4.3636565e-08
-1.4135264e-07 1.9626526e-07 -1.5566671e-09 2.5059241e-09 2.8134133e-08 8.616785e-09 7.4918144e-10 -3.6623135e-10
-3.5796257e-09 -2.3819258e-09 -2.8498164e-09 -7.167168e-09 -3.970276e-08 -5.5199565e-09 -3.4080205e-08 4.3571355e-08
-7.3731385e-08 4.200121e-09 3.1496256e-08 -8.991045e-09 -3.5074816e-08 -1.7567888e-08 -9.538837e-10 -1.5384123e-09
4.233936e-09 -1.4435888e-09 1.3297521e-09 -2.0086943e-10 -2.0073099e-09 7.952155e-10 -6.494149e-10 6.796639e-10
-1.16408945e-08 -1.0417575e-08 -1.0234944e-09 4.9990956e-10 -7.9045845e-09 -1.572402e-09 2.224952e-09 1.4309729e-09
-1.0613714e-08 6.392421e-09 -1.0605067e-08 -9.483961e-09 2.5779963e-08 2.6152946e-09 -1.1830688e-09 -8.125487e-10
-5.3051648e-09 3.1263e-09 -9.740171e-09 -9.085238e-10 1.4722141e-07 1.4445679e-07 -3.7406443e-07 -1.4800894e-08
-2.5936082e-08 1.5707158e-08 6.270878e-08 -2.8224765e-08 1.7793825e-07 -9.056863e-08 5.8944244e-07 4.185608e-07
-8.730482e-07 -3.4251187e-07 3.2450868e-07 3.893484e-09 -1.03086926e-07 -2.7514478e-08 6.310473e-07 -1.5093164e-08
2.1346189e-06 1.9761248e-06 -4.2576785e-06 -1.322651e-08 -8.0966466e-08 2.1386528e-07 7.4242286e-07 -3.9676155e-07
2.558116e-06 -1.5321283e-06 3.117101e-07 1.117262e-07 -1.5420607e-06 -2.7744815e-07 -9.735951e-08 2.983324e-08
2.2578455e-07 7.763319e-08 5.0262264e-07 -1.3962773e-07 8.431423e-07 1.0139611e-06 -1.1232181e-06 4.4708244e-07
-2.4869846e-07 1.436652e-07 3.4753333e-07 -2.77015e-07 1.0399784e-06 -1.1053081e-06 -3.5509865e-07 -4.3842218e-07
2.1830282e-07 -1.2451456e-07 -7.222569e-08 -2.6743637e-08 -6.485751e-08 1.6099008e-07 -2.974342e-07 1.7945077e-07
3.2473215e-06 3.4581378e-06 -5.1988527e-06 8.095498e-07 -2.8936358e-07 3.9057275e-07 1.1487114e-06 -9.1063663e-07
3.702679e-06 -2.7634776e-06 -4.7035037e-08 -1.5457461e-07 -1.284106e-07 -1.3727278e-07 3.3512872e-08 -1.4179135e-08

exp_avg_sq f4 [40, 10]
00000000: 9d89 822b d5d2 692c 575d 6b2c c645 942b
00000010: 710a 8029 f5f9 9627 793a 382a ee39 b92a
00000020: e60c 822b ec31 e928 f461 b529 9638 c52a
00000030: 0e36 632a ddc4 242a ef6c 3f28 e4bd f125
00000040: f1b5 7b28 bf91 d228 dd38 9629 c877 c027
00000050: 5350 632b 00e2 192c ae84 942c 1371 de2a
00000060: c048 1c29 3a46 aa27 a48c 7c2a ebf6 b62a
00000070: 01e8 6a2b 152c 1629 cc66 b627 176c ec28
00000080: 8557 8328 be6e 4e28 544b 2c25 b210 9423
00000090: 1b99 8b26 3f9b 0a27 632e a227 dfcf d524
000000a0: d58e a329 d186 902a 7bfc 142b 9508 6529
000000b0: 5ea2 fb27 03fa 5e26 562b 5029 034d 5c29
000000c0: 3a8d b429 3130 5228 009e 1727 c441 5228
000000d0: 442b 9927 6e28 c627 b6f0 0124 f64b 9323
000000e0: e74b 9725 3db1 4426 98c7 f526 d5c1 3b23
000000f0: 6c84 8828 a742 5d29 07ab 5e29 32c4 9b27
00000100: 6e02 9d26 2c2c 0c25 4fab 9727 38ab 1b28
00000110: 618c 8928 4671 1c26 b2c1 2228 b443 1129
00000120: 2a9f bb28 9df2 2f28 6486 1c27 c86b c124
00000130: dbb1 db26 b57b a127 c9c6 1f28 ef0f f925
00000140: e857 302b a3d1 212c 9376 372c 37e7 592b
00000150: 07ea 2329 31f8 5427 a33c 092a f55c 882a
00000160: c380 362b ab7d 9b28 2a56 312c 324d 3f2d
00000170: 978f 1b2e 3e54 8e2c c615 902b 4dd3 d128
00000180: 0926 2a2c ce1d 8b2b a9ec 4b2c ec9c 5c2a
00000190: e3ae 4d2b 763e 312c a9b7 262c e18b 3a2b
000001a0: 2d32 1029 cae3 8727 9e87 222a 5a28 952a
000001b0: 25c9 432b 5ee4 ac28 cabd d429 db8b ea2a
000001c0: 457d 702a d569 1d2a 6420 2628 2f54 2026
000001d0: 0467 fb28 c150 1429 0a2f 9e29 d75c cc27
000001e0: de9d 8a2b 0ff9 4e2c 97c1 da2c 2500 372b
000001f0: c6ab 6a29 c87c e427 3d8b ae2a 22c3 f62a
00000200: c648 972b 9173 4629 f852 6528 21b9 9229
00000210: 7fb8 0d29 d31a ff28 3627 dc25 c439 5524
00000220: 30b3 0027 3ae4 a627 409c 4d28 8229 3c25
00000230: 37ee 9529 18fd 432a aa0c 962a 09b7 1729
00000240: 1661 c828 0f41 f425 7e61 ac28 cfd9 0b29
00000250: aead ab29 c798 4c26 4937 3b25 544f 7926
00000260: e41e c625 e135 d725 a3d4 0323 ca2b 1422
00000270: 70f4 1324 40ed 7e24 0567 0d25 a6bc 2122
00000280: 7f26 4828 af07 5929 5947 ac29 275d eb27
00000290: 49e5 a526 f542 0225 5040 0028 9d0a 2728
000002a0: 98cb 6028 18fa ee25 5ce0 e127 9ff7 e528
000002b0: d639 9628 9b41 d127 f47e b226 2095 a024
000002c0: 8ab0 2d27 af91 9c27 80cc c027 697d 1126
000002d0: 168c 6b2b 9729 512c f457 4a2c cf2d 672b
000002e0: 26a1 3829 c9fa 9f27 b65b 312a 4769 b52a
000002f0: 8f75 692b 9158 b428 1c25 c02b 0e61 ab2c
00000300: ebda 442d 4daf e82b 51ab 092a ad70 6b28
00000310: 5fd7 272b 4b8a 282b 31d7 d62b b34b 0a2a
00000320: 7ede c02e 0192 8b2f 75b9 e42f fd43 7e2e
00000330: 3b6e 9e2c 5e2b 0b2b 43d6 be2d 51b6 152e
00000340: 9cb3 c62e 9728 8e2c 5e5f 842c f71b 2a2d
00000350: ea2c 532d cd20 622c 9c33 3e2b 58b6 e528
00000360: 9897 a22b 1ae5 932b 6087 5a2c d672 4c2b
00000370: 3383 2f2e d0bf f72e aeab 532f b485 e32d
00000380: 20b1 0f2c 8722 6a2a d903 222d 2817 852d
00000390: 720b 372e e9c4 bb2b 7360 c72b 772e da2c
000003a0: b972 bd2c 7134 0c2c 7137 0f2a 9a1a 3e28
000003b0: bdf1 e12a 1acd 6b2b 64dd d12b 23ce 8129
000003c0: 4b9f aa2f 1248 8330 51e4 db30 fc19 3d2f
000003d0: c127 b82d 8da7 242c f518 b82e a7e1 3c2f
000003e0: 4a7b c02f c6bf 3e2d 8c80 342c 7037 882d
000003f0: 2e70 ee2c 3dca f92c 9e3e 072a f22e 6c28
9.275251e-13 3.3228327e-12 3.3447323e-12 1.0535399e-12 5.686153e-14 4.1904367e-15 1.636277e-13 3.2902798e-13
9.240636e-13 2.5889847e-14 8.055007e-14 3.5033494e-13 2.0180404e-13 1.4634427e-13 1.0626251e-14 4.193551e-16
1.3972751e-14 2.337789e-14 6.6712024e-14 5.3420572e-15 8.0758073e-13 2.1868063e-12 4.2211434e-12 3.9513583e-13
3.470206e-14 4.726062e-15 2.2430891e-13 3.2501028e-13 8.345547e-13 3.3344926e-14 5.06266e-15 2.624814e-14
1.4581877e-14 1.14593105e-14 1.4944144e-16 1.6053263e-17 9.686562e-16 1.9235506e-15 4.5014325e-15 9.272617e-17
7.2634315e-14 2.5673086e-13 5.293055e-13 5.0855658e-14 6.9842534e-15 7.736055e-16 4.6222866e-14 4.891661e-14
8.018105e-14 1.1667792e-14 2.1041112e-15 1.1671602e-14 4.251294e-15 5.4999874e-15 2.8176306e-17 1.5969943e-17
2.6245758e-16 6.8241363e-16 1.705439e-15 1.0178336e-17 1.5156462e-14 4.912967e-14 4.9442245e-14 4.3233858e-15
1.0894722e-15 1.215803e-16 4.2096652e-15 8.641356e-15 1.5270935e-14 5.4276887e-16 9.0348075e-15 3.225519e-14
2.0830197e-14 9.76706e-15 2.1722202e-15 8.3882996e-17 1.5244385e-15 4.48206e-15 8.869378e-15 4.3205412e-16
6.2649755e-13 2.2995848e-12 2.6071686e-12 7.741476e-13 3.6396257e-14 2.9555455e-15 1.2189082e-13 2.4222955e-13
6.483808e-13 1.7262957e-14 2.5201044e-12 1.0874234e-11 3.5370453e-11 4.0452355e-12 1.0237859e-12 2.3295298e-14
2.4179567e-12 9.884816e-13 2.8979408e-12 1.9594368e-13 7.3073334e-13 2.5187886e-12 2.369197e-12 6.6274595e-13
3.2017944e-14 3.7716996e-15 1.4435542e-13 2.6495716e-13 6.955706e-13 1.9194875e-14 9.4476144e-14 4.1663794e-13
2.1359744e-13 1.3981119e-13 9.221875e-15 5.562524e-16 2.7911274e-14 3.2932644e-14 7.0247695e-14 5.672203e-15
9.849307e-13 2.9412616e-12 6.2174254e-12 6.501486e-13 5.2107427e-14 6.3418e-15 3.1005225e-13 4.383378e-13
1.0749394e-12 4.406507e-14 1.2730045e-14 6.515817e-14 3.1468314e-14 2.832232e-14 3.8190487e-16 4.6235942e-17
1.7860706e-15 4.63217e-15 1.1413667e-14 1.6320464e-16 6.658253e-14 1.7407289e-13 2.665414e-13 3.3687493e-14
2.2246565e-14 4.2371338e-16 1.9138117e-14 3.105312e-14 7.624054e-14 7.098377e-16 1.6238396e-16 8.649674e-16
3.4368457e-16 3.7333065e-16 7.146552e-18 2.0080922e-18 3.208259e-17 5.527843e-17 1.2264705e-16 2.1919438e-18
1.1110578e-14 4.8190344e-14 7.650711e-14 6.53266e-15 1.1511323e-15 1.1298389e-16 7.119373e-15 9.272664e-15
1.2478645e-14 4.145589e-16 6.2693296e-15 2.5531496e-14 1.6678428e-14 5.8080283e-15 1.2385642e-15 6.9641567e-17
2.4104275e-15 4.345665e-15 5.3512425e-15 5.0476943e-16 8.368318e-13 2.9723773e-12 2.875475e-12 8.213126e-13
4.099598e-14 4.4403267e-15 1.5752577e-13 3.222511e-13 8.2941374e-13 2.0022424e-14 1.365272e-12 4.8708875e-12
1.118992e-11 1.6533247e-12 1.2227482e-13 1.3069553e-14 5.9629206e-13 5.987751e-13 1.5265342e-12 1.2283126e-13
8.770672e-11 2.5387695e-10 4.1604734e-10 5.78133e-11 4.502868e-12 4.9442904e-13 2.169565e-11 3.4040607e-11
9.0359026e-11 4.040389e-12 3.7622535e-12 9.669591e-12 1.2003934e-11 3.213474e-12 6.757318e-13 2.5503186e-14
1.1552868e-12 1.0508567e-12 3.1054812e-12 7.2634726e-13 3.990692e-11 1.1266332e-10 1.9251331e-10 2.5866288e-11
2.0419846e-12 2.0795354e-13 9.209488e-12 1.5130633e-11 4.1619548e-11 1.3341803e-12 1.416657e-12 6.2010913e-12
5.38444e-12 1.9924307e-12 1.2720187e-13 1.0552887e-14 4.0135769e-13 8.3773407e-13 1.4911791e-12 5.76451e-14
3.1036004e-10 9.551988e-10 1.5999239e-09 1.7198681e-10 2.0936032e-11 2.3398811e-12 8.3717845e-11 1.7178668e-10
3.50122e-10 1.0842832e-11 2.5650896e-12 1.5486029e-11 6.7768213e-12 7.0994586e-12 1.2012133e-13 1.3110811e-14

exp_avg f4 [40]
00000000: 0e6f 5b36 a3f4 2d34 9a9e 9bb5 b4c6 46b4
00000010: 4c17 9835 194e 16b3 b6c6 83b2 9d9e 91b3
00000020: 9ff3 7d36 4c90 3e37 5019 1936 6776 f133
00000030: 6841 8eb5 219e 01b4 4bd6 b7b3 b704 adb2
00000040: fbd3 b8b3 f4ff 37b4 f95d 3a36 53ee fd36
00000050: 65ce 2138 8852 2237 0d35 7337 a03f 66b6
00000060: cb58 5d38 ded8 1c35 1cc9 2bb6 383e 06b6
00000070: c399 0c38 0b2d 89b9 8b99 6c36 1f24 d333
00000080: 8dde a2b5 7ea4 88b4 092a 5f35 013c 25b3
00000090: 9a1b 95b2 34f4 a8b3 054a 5036 e2d3 6537
3.2698185e-06 1.6200879e-07 -1.1594559e-06 -1.8512475e-07 1.1331663e-06 -3.4995626e-08 -1.534077e-08 -6.78094e-08
3.7841744e-06 1.1358479e-05 2.281351e-06 1.1243974e-07 -1.059886e-06 -1.2071588e-07 -8.560581e-08 -2.0141995e-08
-8.606727e-08 -1.7136318e-07 2.777086e-06 7.567732e-06 3.857761e-05 9.675168e-06 1.44962805e-05 -3.4309705e-06
5.27732e-05 5.843011e-07 -2.5598047e-06 -2.0003772e-06 3.3521803e-05 -0.00026164236 3.5256114e-06 9.8320236e-08
-1.2134711e-06 -2.5451658e-07 8.3135143e-07 -3.847163e-08 -1.7358435e-08 -7.86753e-08 3.10375e-06 1.36987965e-05

exp_avg_sq f4 [40]
00000000: 7082 232f 7bb6 182d d04f 382f 37a0 3d2b
00000010: a695 912d 7cc3 832a 3e93 132c 0bb3 812b
00000020: c647 f42e 73ac 7f30 099d e32e 58fa 272d
00000030: 20ec 692f 7933 cb2b 4f00 302d 398e 8c28
00000040: 17d3 1e2c 9b5b 3d2b 4d52 052f fbb4 bf2f
00000050: a33c 9232 7d13 1430 516a 0932 29c0 6c2f
00000060: 8f3a 8333 40fc a42f 4751 0331 96ba 382e
00000070: e5c3 9c32 eeaa 9935 6347 4c2f 4ee8 a32c
00000080: bf43 b82f e848 c52b 8143 212d 01a3 9c2a
00000090: 24cf 772c 6438 a32b 7eb0 a32e ab16 ba30
1.4871104e-10 8.6807185e-12 1.6763058e-10 6.736863e-13 1.6551049e-11 2.340592e-13 2.0971692e-12 9.215696e-13
1.1108585e-10 9.3013525e-10 1.035066e-10 9.548438e-12 2.1275115e-10 1.4438304e-12 1.000451e-11 1.5604802e-14
2.2570329e-12 6.7273417e-13 1.2125519e-10 3.4871292e-10 1.7024211e-08 5.386978e-10 7.998623e-09 2.1532344e-10
6.1108146e-08 3.001066e-10 1.910921e-09 4.2002478e-11 1.8249873e-08 1.1449135e-06 1.8579054e-10 4.6585296e-12
3.3517542e-10 1.4017927e-12 9.166779e-12 2.7824273e-13 3.5215797e-12 1.1597498e-12 7.443733e-11 1.3539724e-09

exp_avg f4 [40]
00000000: 0f6f 5b36 96f4 2d34 949e 9bb5 b0c6 46b4
00000010: 4f17 9835 1b4e 16b3 c6c6 83b2 9a9e 91b3
00000020: 9cf3 7d36 4d90 3e37 4c19 1936 6e76 f133
00000030: 6e41 8eb5 229e 01b4 97d6 b7b3 b704 adb2
00000040: f3d3 b8b3 f4ff 37b4 fb5d 3a36 55ee fd36
00000050: 62ce 2138 8a52 2237 1c35 7337 9e3f 66b6
00000060: cc58 5d38 e5d8 1c35 22c9 2bb6 3a3e 06b6
00000070: c799 0c38 0e2d 89b9 8d99 6c36 1c24 d333
00000080: 80de a2b5 7da4 88b4 0a2a 5f35 033c 25b3
00000090: aa1b 95b2 35f4 a8b3 044a 5036 e4d3 6537
3.2698188e-06 1.620086e-07 -1.1594552e-06 -1.8512469e-07 1.1331666e-06 -3.4995633e-08 -1.5340799e-08 -6.780938e-08
3.7841737e-06 1.135848e-05 2.2813501e-06 1.1243979e-07 -1.0598867e-06 -1.207159e-07 -8.560635e-08 -2.0141995e-08
-8.606721e-08 -1.7136318e-07 2.7770864e-06 7.567733e-06 3.85776e-05 9.67517e-06 1.4496294e-05 -3.43097e-06
5.2773205e-05 5.843015e-07 -2.559806e-06 -2.0003777e-06 3.3521817e-05 -0.00026164245 3.5256119e-06 9.8320214e-08
-1.2134697e-06 -2.5451655e-07 8.313515e-07 -3.8471637e-08 -1.7358463e-08 -7.8675306e-08 3.1037498e-06 1.3698798e-05

exp_avg_sq f4 [40]
00000000: 6f82 232f 7bb6 182d d14f 382f 37a0 3d2b
00000010: a595 912d 7bc3 832a 3e93 132c 0bb3 812b
00000020: c747 f42e 71ac 7f30 0b9d e32e 57fa 272d
00000030: 1fec 692f 7933 cb2b 5100 302d 3a8e 8c28
00000040: 19d3 1e2c 995b 3d2b 4c52 052f fcb4 bf2f
00000050: a33c 9232 7e13 1430 516a 0932 28c0 6c2f
00000060: 903a 8333 40fc a42f 4751 0331 96ba 382e
00000070: e2c3 9c32 ecaa 9935 6247 4c2f 4ee8 a32c
00000080: be43 b82f e848 c52b 8143 212d 01a3 9c2a
00000090: 26cf 772c 6438 a32b 7eb0 a32e ad16 ba30
1.4871103e-10 8.6807185e-12 1.6763059e-10 6.736863e-13 1.6551047e-11 2.3405916e-13 2.0971692e-12 9.215696e-13
1.11085856e-10 9.3013514e-10 1.0350661e-10 9.5484376e-12 2.1275114e-10 1.4438304e-12 1.0004512e-11 1.5604803e-14
2.2570333e-12 6.7273406e-13 1.2125517e-10 3.4871295e-10 1.7024211e-08 5.3869786e-10 7.998623e-09 2.1532343e-10
6.110815e-08 3.001066e-10 1.910921e-09 4.2002478e-11 1.8249867e-08 1.1449133e-06 1.8579052e-10 4.6585296e-12
3.351754e-10 1.4017927e-12 9.166779e-12 2.7824273e-13 3.5215802e-12 1.1597498e-12 7.443733e-11 1.3539726e-09
