lightning_logs/version_2/checkpoints/epoch=9-step=250.ckpt (torch, 17778 bytes, 12 tensors)

lstm.lstm.weight_ih_l0 f4 [40, 10]
-0.027624525 0.08028868 0.14006576 0.027734952 0.058485016 -0.50603014 -0.08226524 -0.23644404
0.108058244 0.4769722 0.35990733 -0.13295744 0.20741841 -0.38902318 -0.6606185 -0.4040341
0.20540826 0.11126751 0.24385126 0.29554287 0.1497683 -0.015880821 0.07428928 0.121590436
-0.37505078 -0.21680869 0.3559133 0.55875534 0.34595788 0.11569052 -0.17306605 0.2008853
0.1720476 0.011323196 0.23645796 0.09129209 0.05261164 -0.283515 -0.21401177 -0.018403687
-0.0393443 0.024928503 -0.18024398 0.12508209 -0.043532252 0.005572778 0.15196913 0.23763993
-0.07299313 0.22269529 -0.16842063 0.47455314 0.66393554 0.5737789 -0.082695924 -0.42509043
-0.43008673 -0.21326268 0.3369946 0.31017137 0.19365172 0.11360208 0.18768333 0.5825913
-0.33333644 -0.93397784 -0.5153471 -0.018929496 0.30749056 0.60094595 0.2753743 0.10171256
0.035036877 0.013760188 -0.20918043 0.305057 0.017109502 0.038860742 0.04069987 -0.39574713
-0.31113183 -0.59119457 -0.109427996 -0.11779599 0.35822424 0.7688762 0.42398226 -0.49833164
-0.14701466 -0.6067213 -0.17337175 0.11258018 0.33752975 0.44535527 -0.011582343 -0.684955
-0.44789815 -0.29058984 -0.105651505 0.19902888 0.044654794 0.16628756 0.56894326 0.039812483
-0.42616805 -0.787672 -0.46380898 -0.35564536 0.16495806 0.3656477 0.0049484884 -0.0025521645
-0.14510633 0.045764662 -0.73283935 -0.06811054 0.27545935 0.29951778 0.49342656 0.38421544
0.19446766 0.15663141 -0.25495252 0.14336176 -0.6044226 -0.36899853 -0.06476116 0.18586676
-0.13783637 0.15577324 0.2423038 -0.1252925 -0.008008682 -0.36820126 -0.03832431 0.42826506
0.43022183 0.36994302 -0.0709033 -0.21999082 -0.37708312 0.16941611 0.07152619 -0.041959323
-0.21730244 -0.70739454 -0.27348912 0.084840596 -0.0012143126 0.26495373 -0.0430613 0.06683185
0.0881993 0.38999838 -0.24686581 -0.76719826 -0.15300108 0.037359867 0.16247816 0.6691167
-0.15361528 0.25012034 0.14646181 0.6436245 -0.06040357 -0.56638896 -0.29810235 -0.24878071
0.3175852 0.49963555 0.21900399 0.01235988 -0.06882859 -0.2854504 0.24337952 0.49722618
0.2485039 0.095837414 0.008696577 0.031609505 -0.5142804 -0.35819703 -0.16952778 0.28718376
0.20604219 0.67984486 0.17183523 -0.23950844 -0.085458964 -0.33157554 -0.4072743 -0.19280045
-0.0013574885 0.26169696 0.14874958 0.3893571 0.15293361 0.06813742 -0.38946286 -0.5225767
0.08526849 0.20028244 -0.3871513 0.03938423 -0.17805082 0.2995008 -0.07851789 0.14441751
-0.34226343 -0.4326562 -0.38162643 -0.1386488 -0.53969896 -0.1281765 0.6135432 0.32667482
-0.33911446 -0.61320126 -0.23312503 -0.50465626 0.29045093 0.3011696 -0.069765255 -0.14970614
-0.12446652 -0.48901498 0.32722637 0.1793799 0.48579794 0.52004415 0.31395945 0.21326415
0.3212259 0.26909488 -0.0345573 0.1782303 0.19139382 -0.15364881 -0.063883744 0.11078241
0.17429751 0.15492877 0.014105694 -0.09213767 0.36931923 0.052991703 0.04400039 0.19190672
-0.16481628 -0.48830035 -0.32650718 0.02185888 0.7272142 0.28404498 -0.29798505 -0.84166193
00000000: d44c e2bc 646e a43d 666d 0f3e 6934 e33c
00000010: fc8d 6f3d 318b 01bf ae7a a8bd 631e 72be
00000020: a44d dd3d b335 f43e c645 b83e ff25 08be
00000030: 7e65 543e 0c2e c7be 4b1e 29bf 8fdd cebe
00000040: 8b56 523e 38e0 e33d 25b4 793e 6551 973e
00000050: dc5c 193e 7f18 82bc fa24 983d 6804 f93d
00000060: a806 c0be 1903 5ebe 453a b63e 970a 0f3f
00000070: 6421 b13e 27ef ec3d 3a38 31be e0b4 4d3e
00000080: 3f2d 303e ed84 393c 0922 723e 59f7 ba3d
00000090: 4e7f 573d e128 91be e725 5bbe 54c3 96bc
000000a0: 7d27 21bd dc36 cc3c e191 38be 8515 003e
000000b0: e04e 32bd da9b b63b cc9d 1b3e e257 733e
000000c0: 6c7d 95bd 3c0a 643e 7576 2cbe a1f8 f23e
000000d0: aef7 293f 2de3 123f 7b5c a9bd 74a5 d9be
000000e0: 5434 dcbe 8861 5abe 8e8a ac3e c8ce 9e3e
000000f0: a34c 463e 35a8 e83d 0f30 403e b424 153f
00000100: 13ab aabe 2c19 6fbf caed 03bf 0812 9bbc
00000110: 676f 9d3e 98d7 193f dcfd 8c3e ad4e d03d
00000120: d482 0f3d 6972 613c 6533 56be 6e30 9c3e
00000130: 3a29 8c3c 712c 1f3d e8b4 263d 5e9f cabe
00000140: ac4c 9fbe 8758 17bf c91b e0bd 063f f1bd
00000150: 2b69 b73e 12d5 443f 3414 d93e 5325 ffbe
00000160: 038b 16be 1652 1bbf 5d88 31be 7090 e63d
00000170: b3d0 ac3e 9b05 e43e dec3 3dbc 3659 2fbf
00000180: e852 e5be 31c8 94be d15f d8bd 3ace 4b3e
00000190: f2e7 363d 4947 2a3e 44a6 113f 6a12 233d
000001a0: b332 dabe dfa4 49bf 5f78 edbe 2617 b6be
000001b0: c4ea 283e 2d36 bb3e ee26 a23b 3742 27bb
000001c0: c196 14be ba73 3b3d 5c9b 3bbf 8a7d 8bbd
000001d0: 0209 8d3e 655a 993e 68a2 fc3e e3b7 c43e
000001e0: 8822 473e fc63 203e 2389 82be 6dcd 123e
000001f0: 71bb 1abf 60ed bcbe 80a1 84bd db53 3e3e
00000200: fa24 0dbe 0583 1f3e 7d1e 783e ad4c 00be
00000210: d936 03bc e084 bcbe f4f9 1cbd 8f45 db3e
00000220: 0946 dc3e 2c69 bd3e c035 91bd 4645 61be
00000230: 0a11 c1be 6b7b 2d3e 537c 923d 8add 2bbd
00000240: 8884 5ebe cf17 35bf c406 8cbe e8c0 ad3d
00000250: 9229 9fba 04a8 873e 0c61 30bd 23df 883d
00000260: d6a1 b43d dead c73e 64ca 7cbe 1b67 44bf
00000270: 51ac 1cbe a906 193d ad60 263e 3b4b 2b3f
00000280: 534d 1dbe c60f 803e 16fa 153e 93c4 243f
00000290: bc69 77bd defe 10bf dfa0 98be 5fc0 7ebe
000002a0: 879a a23e 3bd0 ff3e 9542 603e 1881 4a3c
000002b0: 01f6 8cbd 8e26 92be 7b38 793e 6e94 fe3e
000002c0: ce77 7e3e 6846 c43d 167c 0e3c f878 013d
000002d0: e1a7 03bf 9a65 b7be b198 2dbe c009 933e
000002e0: b9fc 523e 500a 2e3f 93f5 2f3e b341 75be
000002f0: 1c05 afbd 45c4 a9be 4286 d0be 7b6d 45be
00000300: c1ed b1ba 25fd 853e cf51 183e d059 c73e
00000310: a19a 1c3e a28b 8b3d ad67 c7be 96c7 05bf
00000320: 3fa1 ae3d d716 4d3e b238 c6be 5c51 213d
00000330: f452 36be 2b58 993e fdcd a0bd 2fe2 133e
00000340: 273d afbe 1d85 ddbe 8a64 c3be f3f9 0dbe
00000350: b629 0abf b340 03be 2b11 1d3f ec41 a73e
00000360: 69a0 adbe c2fa 1cbf 54b8 6ebe 2731 01bf
00000370: fcb5 943e e732 9a3e 16e1 8ebd 914c 19be
00000380: 4ee8 febd 2c60 fabe 378a a73e 5daf 373e
00000390: 82ba f83e 9d21 053f 4bbf a03e eb61 5a3e
000003a0: b977 a43e cec6 893e f58b 0dbd 0182 363e
000003b0: befc 433e 1d56 1dbe 7bd5 82bd e3e1 e23d
000003c0: 0c7b 323e a6a5 1e3e 921b 673c adb2 bcbd
000003d0: 6917 bd3e d40d 593d c139 343d 3283 443e
000003e0: 99c5 28be 8102 fabe f32b a7be 6511 b33c
000003f0: b62a 3a3f 586e 913e 7f91 98be 2877 57bf

lstm.lstm.weight_hh_l0 f4 [40, 10]
-0.13786638 0.25222751 -0.024572724 -0.18843175 -0.20584296 -0.121580824 -0.121639 0.081908576
-0.028752888 0.23487316 0.11440156 -0.056604628 0.19265999 -0.09176181 0.038672697 -0.25955927
-0.43533552 0.097440645 0.098287694 -0.08673628 0.3078041 0.0055379686 0.0882527 0.19982612
0.2639821 -0.24074663 -0.2261157 -0.13635501 -0.430932 -0.24737865 -0.11053492 0.046786744
0.04506624 -0.1331932 -0.3667789 -0.19416258 0.08639746 0.21500354 -0.10846409 -0.024481954
-0.01760748 0.06578785 -0.13708495 0.057072517 0.33257964 -0.0785026 -0.31940764 -0.26260865
-0.004089634 -0.18814412 0.2560328 0.46325794 -0.5428133 -0.4919852 0.40335315 0.1533299
-0.18222089 -0.011124539 -0.23674998 0.21047726 -0.041181732 0.3447189 -0.02489893 -0.30227035
0.04154066 0.094232135 -0.27621168 0.38455927 -0.32454902 0.3397395 0.20924664 -0.0007789153
0.27222627 -0.0260656 -0.038947895 -0.40879235 -0.07475378 0.10922836 -0.31710315 0.07397229
-0.2781554 0.12896538 -0.021320473 -0.21527055 0.45189354 0.33015308 -0.19473304 0.4423886
0.3533443 0.18089163 0.45511165 0.08617132 -0.08719577 -0.11754836 0.043116413 -0.027274314
0.08929561 0.10911537 -0.45663783 -0.0890404 0.046731792 -0.1438312 0.14506072 0.105981275
-0.12935632 0.39384434 0.23915769 0.43874452 0.20350462 0.2167636 0.28976163 0.09066968
-0.25489354 0.16707925 0.10077839 -0.023311578 -0.37433317 -0.3446414 0.045838244 -0.24002512
0.037340645 -0.12628154 0.03964802 0.36751017 -0.1516644 -0.39756915 -0.29272747 -0.117944285
-0.3368815 -0.12663436 0.056109753 -0.066253476 0.011634145 0.037290256 0.042065024 0.15364578
-0.018553078 -0.28684974 -0.3418502 -0.00028498194 0.44054708 0.2309729 -0.17780833 -0.2276873
-0.0288289 0.07254434 -0.44311208 -0.10139787 0.08984833 0.2071249 0.13881524 0.5356356
0.061605763 -0.46900892 0.17386582 0.25305495 -0.06047713 -0.09110292 0.11168536 -0.052924886
0.24495798 0.5308908 -0.42680308 -0.03550735 -0.06172199 -0.14171472 -0.3021035 -0.09425367
0.24303596 0.1292633 0.009191613 -0.28096464 0.20540343 0.2351602 0.06487268 -0.18240412
-0.25231138 -0.30035126 -0.11859472 -0.29520583 0.041079227 0.2478377 -0.0300385 -0.110592484
0.4305768 0.2838176 -0.058105156 -0.014875975 0.18679799 0.16853273 0.39566597 -0.04522767
0.1874282 0.026467111 -0.0009465687 -0.080414586 -0.17283662 -0.0848455 -0.1548475 0.1557801
0.050430857 0.045225304 -0.088105865 0.06444382 0.18580559 -0.2055918 -0.33671153 -0.2455534
0.12244106 -0.24841234 0.2851798 -0.24718517 0.11399674 0.1655772 -0.13583183 -0.41449496
-0.13272573 -0.040823016 -0.4180317 0.14526281 0.18260066 -0.009485402 -0.22668009 -0.14438236
-0.04232439 0.17233849 0.37197408 -0.12879008 -0.17231533 0.28604692 -0.30455932 -0.09903805
0.14306723 -0.04865496 -0.1671983 0.3240156 0.4064441 0.19676746 -0.11763483 0.08912611
-0.20730914 0.12847576 -0.15943757 0.20959646 0.124296464 -0.022890132 -0.19256565 -0.031944964
-0.39222503 -0.33371267 -0.00095183525 0.2778148 -0.2631417 -0.054059554 0.011156791 0.16556875
00000000: d82c 0dbe f723 813e bd4c c9bc 41f4 40be
00000010: 7fc8 52be 5eff f8bd de1d f9bd afbf a73d
00000020: 2d8b ebbc 9782 703e 5d4b ea3d 41da 67bd
00000030: a948 453e 9eed bbbd 4367 1e3d f4e4 84be
00000040: 4ce4 debe f68e c73d 0f4b c93d caa2 b1bd
00000050: 8098 9d3e d977 b53b d5bd b43d 389f 4c3e
00000060: a928 873e 4986 76be e08a 67be a6a0 0bbe
00000070: 1ea3 dcbe d450 7dbe 2260 e2bd 75a3 3f3d
00000080: 6197 383d cc63 08be 72ca bbbe 8ed2 46be
00000090: 27f1 b03d e329 5c3e 6c22 debd 618e c8bc
000000a0: 903d 90bc c8bb 863d ff5f 0cbe dfc4 693d
000000b0: e147 aa3e f9c5 a0bd 6689 a3be a474 86be
000000c0: 5602 86bb daa8 40be bb16 833e 2530 ed3e
000000d0: d0f5 0abf 7ce5 fbbe 4e84 ce3e 8302 1d3e
000000e0: 1d98 3abe b343 36bc 966e 72be 5a87 573e
000000f0: 2dae 28bd ff7e b03e d7f8 cbbc 2ec3 9abe
00000100: 8a26 2a3d c7fc c03d 9e6b 8dbe f4e4 c43e
00000110: 4a2b a6be 56f2 ad3e c044 563e 1f30 4cba
00000120: 3e61 8b3e 8687 d5bc d487 1fbd 3b4d d1be
00000130: 8318 99bd 1eb3 df3d 585b a2be c97e 973d
00000140: 626a 8ebe 800f 043e 46a8 aebc e26f 5cbe
00000150: 975e e73e d309 a93e 1968 47be c280 e23e
00000160: 8be9 b43e a83b 393e 6504 e93e 977a b03d
00000170: b293 b2bd 32bd f0bd d69a 303d 626e dfbc
00000180: 9ee0 b63d e177 df3d 6fcc e9be d05a b6bd
00000190: d669 3f3d 7c48 13be cc8a 143e b60c d93d
000001a0: fc75 04be f7a5 c93e c1e5 743e 1fa3 e03e
000001b0: 8463 503e 47f7 5d3e a35b 943e 06b1 b93d
000001c0: 6881 82be d316 2b3e e764 ce3d ecf7 bebc
000001d0: 99a8 bfbe d674 b0be e2c0 3b3d 25c9 75be
000001e0: 81f2 183d f34f 01be f665 223d 4b2a bc3e
000001f0: ea4d 1bbe 2f8e cbbe 60e0 95be c68c f1bd
00000200: bb7b acbe 70ac 01be 57d3 653d e7af 87bd
00000210: 249d 3e3c abbd 183d 604c 2c3d 5255 1d3e
00000220: a0fc 97bc f8dd 92be fd06 afbe a169 95b9
00000230: 638f e13e 2984 6c3e 6313 36be dc26 69be
00000240: 962a ecbc 2092 943d 96df e2be b0a9 cfbd
00000250: 6702 b83d 8d18 543e 9525 0e3e 6a1f 093f
00000260: 5356 7c3d f021 f0be e209 323e 6b90 813e
00000270: deb6 77bd 2b94 babd 4bbb e43d c4c7 58bd
00000280: 44d6 7a3e 76e8 073f ef85 dabe 2870 11bd
00000290: 33d0 7cbd aa1d 11be 4fad 9abe 1108 c1bd
000002a0: 6bde 783e 995d 043e 6b98 163c 99da 8fbe
000002b0: 4755 523e d6cd 703e f8db 843d 25c8 3abe
000002c0: f52e 81be a4c7 99be cae1 f2bd 3825 97be
000002d0: b142 283d 2bc9 7d3e 4d13 f6bc 507e e2bd
000002e0: 9074 dc3e 8a50 913e acff 6dbd 5dba 73bc
000002f0: f947 3f3e d893 2c3e bb94 ca3e a640 39bd
00000300: 2eed 3f3e 8ed1 d83c 2623 78ba 67b0 a4bd
00000310: 15fc 30be 7ac3 adbd 5890 1ebe d284 1f3e
00000320: 9690 4e3d 2b3e 393d d970 b4bd 1ffb 833d
00000330: d243 3e3e a886 52be 7465 acbe 5a72 7bbe
00000340: 61c2 fa3d ce5f 7ebe 1603 923e 1c1e 7dbe
00000350: 1f77 e93d 128d 293e 8017 0bbe af38 d4be
00000360: 41e9 07be 0936 27bd 4008 d6be c6bf 143e
00000370: abfb 3a3e a968 1bbc d31e 68be f8d8 13be
00000380: 575c 2dbd 8079 303e 6373 be3e 8ce1 03be
00000390: 6e73 30be be74 923e 33ef 9bbe 76d4 cabd
000003a0: 3780 123e 6c4a 47bd 0836 2bbe 5fe5 a53e
000003b0: 7119 d03e 697d 493e 88ea f0bd c087 b63d
000003c0: d948 54be 268f 033e 9a43 23be 74a0 563e
000003d0: 258f fe3d 1684 bbbc ee2f 45be b9d8 02bd
000003e0: b8d1 c8be 63dc aabe 9584 79ba be3d 8e3e
000003f0: 82ba 86be 8d6d 5dbd f9ca 363c db8a 293e

lstm.lstm.bias_ih_l0 f4 [40]
0.043643355 0.04329247 0.1642406 0.090016395 -0.02897815 -0.27326953 -0.10971054 -0.05533568
0.05148032 0.07399001 0.31687716 -0.04730061 0.040932555 0.20763162 -0.34878916 0.24321137
0.09679966 -0.15640883 0.09252589 0.11761028 -0.3937376 -0.21994485 0.2837701 -0.13078542
-0.020165507 0.18563251 0.36716232 0.008750126 -0.14872502 -0.04217133 0.18686825 0.10230001
-0.38031662 -0.32149336 -0.18303147 0.25204954 -0.21776946 0.16305158 0.31728965 -0.32975495
00000000: 60c3 323d 7253 313d b02e 283e 845a b83d
00000010: 9663 edbc fce9 8bbe ebaf e0bd aaa7 62bd
00000020: 07dd 523d 1388 973d b93d a23e 49be 41bd
00000030: e5a8 273d 629d 543e 7e94 b2be 670c 793e
00000040: e63e c63d a329 20be 377e bd3d a9dd f03d
00000050: fa97 c9be 3939 61be 514a 913e 9dec 05be
00000060: 2232 a5bc 7316 3e3e b3fc bb3e b05c 0f3c
00000070: 5f4b 18be d8bb 2cbd 645a 3f3e ab82 d13d
00000080: dcb8 c2be c79a a4be 9a6c 3bbe a30c 813e
00000090: f5fe 5ebe fef6 263e ca73 a23e a4d5 a8be

lstm.lstm.bias_hh_l0 f4 [40]
0.20108604 0.03800761 -0.05797479 -0.14765571 -0.45384225 -0.13725394 0.22103275 -0.40356305
-0.09869848 -0.13102399 0.32797393 -0.019378062 -0.10542927 -0.4038654 0.04155165 -0.24674964
0.047384985 -0.093016535 -0.21528575 -0.3784925 -0.36836028 0.17471476 -0.0697396 0.047524545
-0.17148788 0.281002 -0.032914404 0.014147837 0.36182052 0.11201476 -0.047622435 0.07362658
-0.026219929 0.002934801 0.15816687 0.19002119 -0.05926373 -0.0025166424 -0.20342278 -0.00719756
00000000: 80e9 4d3e dead 1b3d f976 6dbd 0f33 17be
00000010: 035e e8be 4c8c 0cbe 6956 623e d19f cebe
00000020: 6e22 cabd 272b 06be 33ec a73e bebe 9ebc
00000030: 4deb d7bd 72c7 cebe 1032 2a3d f0ab 7cbe
00000040: c216 423d 747f bebd de73 5cbe c5c9 c1be
00000050: b899 bcbe 6de8 323e a3d3 8ebd 19a9 423d
00000060: 859a 2fbe 7fdf 8f3e 41d1 06bd 54cc 673c
00000070: 8a40 b93e ff67 e53d be0f 43bd 88c9 963d
00000080: 2dcb d6bc ca55 403b 7ff6 213e ea94 423e
00000090: 86be 72bd 41ee 24bb 104e 50be 82d9 ebbb

exp_avg f4 [40, 10]
1.4782573e-08 -4.742488e-09 -9.513084e-09 4.3629194e-09 2.0982986e-08 2.8606253e-09 -9.519335e-09 1.00092e-09
-3.09523e-09 -1.633848e-08 4.8174527e-08 5.2382944e-08 5.1474287e-09 -1.885389e-08 9.887093e-09 2.8394709e-09
-3.6929247e-08 -2.6257425e-08 1.7328373e-08 1.9931608e-08 1.7014079e-08 1.4928403e-08 -1.9441098e-09 -7.564639e-09
1.3976316e-09 -3.0919978e-09 -1.5343378e-08 -8.8002095e-09 7.318232e-09 9.7719175e-09 -2.7168037e-09 -1.6391672e-08
-1.30550415e-08 -5.6461884e-09 -1.3191701e-08 -1.5972171e-08 -3.1804186e-09 4.980888e-09 2.4703848e-09 1.0314916e-09
3.156915e-08 4.0316507e-08 8.246855e-09 -1.1177348e-08 1.09392975e-08 1.3489506e-08 -5.472607e-09 -8.050313e-10
1.4475305e-08 6.924249e-09 1.1565357e-07 2.0350933e-07 9.3628124e-08 4.6830353e-09 1.1113845e-07 1.3402267e-07
1.0273344e-08 -2.1583164e-08 4.0010484e-08 7.740147e-09 4.9322914e-08 9.3490904e-08 4.894466e-08 1.6818513e-08
7.4882166e-08 7.010565e-08 -3.1095848e-09 -2.7127959e-08 3.5075445e-10 -8.145073e-09 -3.4807623e-08 -3.4000784e-08
-2.0904787e-08 -2.0335552e-08 -3.4240227e-08 6.363252e-10 4.70409e-08 2.638178e-08 -1.0125247e-08 -1.36789025e-08
-1.0710962e-08 -6.5627312e-09 2.030037e-09 5.783958e-09 -7.307937e-09 -1.1943358e-08 -1.6120099e-09 -4.630904e-09
-4.925596e-09 5.6281224e-09 2.388353e-07 -2.1972474e-07 -7.7252275e-07 -6.873185e-07 7.213527e-07 8.9168805e-07
-2.732647e-08 -3.356902e-08 9.2207074e-08 -2.965233e-07 1.39891485e-08 -1.5652455e-08 -1.8224881e-08 9.6429815e-09
3.657655e-08 7.1113018e-09 -1.20902355e-08 -4.9718327e-09 -1.4632316e-08 -3.102626e-08 3.7337887e-08 3.7538754e-08
6.681044e-09 -2.0844377e-09 1.9140755e-08 -4.1874912e-09 -4.501915e-08 -2.4914918e-08 1.5729059e-08 1.7670239e-08
1.1584035e-08 9.332179e-09 3.049653e-10 -8.4976953e-10 5.0476787e-09 -5.9403646e-09 -1.763977e-08 -6.9077206e-09
6.8330026e-09 5.9746803e-09 -3.4463377e-09 -1.5085334e-08 -1.2097408e-08 -7.474041e-09 -1.41695935e-08 -1.5626158e-08
-8.70753e-10 9.3594545e-09 4.516106e-09 1.491551e-10 1.3951837e-08 2.139517e-08 6.8417254e-09 -3.0377063e-09
6.773238e-09 6.708652e-09 -5.750747e-09 -6.513924e-09 5.046209e-09 5.379715e-09 6.177042e-08 1.446361e-07
8.588166e-08 2.5708763e-08 9.1218105e-08 8.839382e-08 -1.8837707e-08 -5.526897e-08 3.135245e-09 1.7728192e-08
4.3393865e-08 8.9244296e-08 5.600561e-08 2.8175139e-08 7.609465e-08 5.7712867e-08 -2.4601134e-08 -4.6242477e-08
-6.298921e-09 2.9780085e-09 -1.0554243e-08 -6.880373e-09 5.505598e-10 -6.1674105e-10 -1.3142701e-08 -2.5864975e-09
5.3046687e-09 -4.8341056e-09 -7.242367e-09 3.6673387e-09 -1.04444045e-08 -1.2288959e-08 6.3238054e-10 1.25038495e-08
3.344325e-09 -4.565282e-09 -6.103172e-09 -7.1808564e-09 -6.6903407e-09 4.150702e-10 3.8170165e-07 3.5002438e-07
1.8195297e-07 -7.0365694e-08 -1.2980396e-07 -4.873793e-07 -4.0016815e-07 8.140798e-08 4.3205634e-07 5.6298313e-07
-2.6188891e-08 4.3337205e-09 1.28073205e-08 -8.165448e-09 -3.3413045e-08 -1.1612261e-09 1.881319e-08 -1.9778061e-09
2.0886413e-09 2.2940492e-08 -3.8563428e-07 -3.6900101e-07 -1.8632516e-08 7.826049e-08 -2.076518e-07 -2.4140418e-08
3.2115008e-07 1.5712813e-07 -1.2499538e-07 -6.984049e-08 1.3001535e-07 1.1304402e-07 -2.1879811e-09 -2.4826535e-08
6.074818e-08 -4.27369e-08 -1.5805095e-07 -6.869617e-08 3.9681613e-08 3.0257443e-08 -8.261862e-08 -1.917877e-07
-1.2491213e-07 -4.792333e-08 -1.3828766e-07 -1.7959867e-07 -3.3446074e-08 4.163583e-08 -6.5904104e-09 3.93876e-09
-2.7967351e-07 -3.6180177e-07 -1.0164443e-07 3.967998e-08 -1.5884835e-07 -1.350664e-07 1.2151231e-07 8.188537e-08
-1.1462685e-07 -7.324711e-08 3.6032813e-07 5.936264e-07 2.9192162e-07 7.831132e-08 3.954106e-07 3.5811064e-07
00000000: 72f6 7d32 5ef3 a2b1 fc6e 23b2 a5e8 9531
00000010: 133e b432 a794 4431 7a8a 23b2 be90 8930
00000020: ddb3 54b1 b358 8cb2 74e8 4e33 a8fb 6033
00000030: 43dd b031 24f4 a1b2 e5db 2932 8020 4331
00000040: 239c 1eb3 b08c e1b2 7fd9 9432 1236 ab32
00000050: 5b26 9232 e83b 8032 2499 05b1 a2f5 01b2
00000060: ca16 c030 007b 54b1 72cc 83b2 bb2f 17b2
00000070: d973 fb31 59e1 2732 84b2 3ab1 abcd 8cb2
00000080: ae48 60b2 6600 c2b1 b7a1 62b2 2d33 89b2
00000090: 848e 5ab1 5b24 ab31 78c3 2931 62c4 8d30
000000a0: a696 0733 7828 2d33 0dae 0d32 7f06 40b2
000000b0: 8aef 3b32 7abf 6732 8f09 bcb1 0b49 5db0
000000c0: 11af 7832 57ea ed31 395d f833 3884 5a34
000000d0: 9b10 c933 6ae8 a031 02ab ee33 dfe7 0f34
000000e0: a57e 3032 e165 b9b2 fed7 2b33 87f9 0432
000000f0: 1ed7 5333 2bc5 c833 3937 5233 4d78 9032
00000100: e8ce a033 fd8c 9633 65b0 55b1 0307 e9b2
00000110: 4dd4 c02f 69ee 0bb2 637f 15b3 4208 12b3
00000120: 1d92 b3b2 5aae aeb2 870f 13b3 68e9 2e30
00000130: 040a 4a33 269e e232 4ff3 2db2 7300 6bb2
00000140: 4f03 38b2 657e e1b1 ca80 0b31 3cbc c631
00000150: 4b19 fbb1 722f 4db2 8e8d ddb0 dd1d 9fb1
00000160: 003e a9b1 7d61 c131 4639 8034 7aed 6bb4
00000170: 5c5f 4fb5 2b80 38b5 fba2 4135 565c 6f35
00000180: 8bbb eab2 872d 10b3 6003 c633 da31 9fb4
00000190: ed54 7032 1d74 86b2 f08c 9cb2 48aa 2532
000001a0: 5818 1d33 ac57 f431 6bb5 4fb2 b4d4 aab1
000001b0: 9b61 7bb2 bc41 05b3 715d 2033 4c3a 2133
000001c0: 168f e531 d13d 0fb1 f76a a432 90e1 8fb1
000001d0: 145b 41b3 7c04 d6b2 911c 8732 44c9 9732
000001e0: 2003 4732 5b53 2032 0da8 a72f 3795 69b0
000001f0: da6f ad31 001c ccb1 4486 97b2 f458 edb1
00000200: bac7 ea31 d849 cd31 9dd4 6cb1 0095 81b2
00000210: f7d4 4fb2 2e67 00b2 886e 73b2 493a 86b2
00000220: cc59 6fb0 51cb 2032 172c 9b31 6eff 232f
00000230: d4b0 6f32 7ac8 b732 7414 eb31 e5bf 50b1
00000240: 08ba e831 ed81 e631 1b98 c5b1 15d1 dfb1
00000250: ec62 ad31 79d8 b831 a6a6 8433 454d 1b34
00000260: f16d b833 2bd6 dc32 afe3 c333 04d3 bd33
00000270: 8ed0 a1b2 e060 6db3 d073 5731 b548 9832
00000280: 0f60 3a33 92a6 bf33 d28a 7033 c905 f232
00000290: 7a69 a333 f8df 7733 7752 d3b2 249c 46b3
000002a0: e56d d8b1 aea5 4c31 0d52 35b2 6768 ecb1
000002b0: 3456 1730 4b87 29b0 36ca 61b2 25be 31b1
000002c0: 5c44 b631 3e19 a6b1 89d8 f8b1 8104 7c31
000002d0: fa6e 33b2 6a1f 53b2 d3d3 2d30 83d0 5632
000002e0: fdd1 6531 a5dc 9cb1 12b4 d1b1 7bbb f6b1
000002f0: dce0 e5b1 f02f e42f adec cc34 fcea bb34
00000300: da5e 4334 f31b 97b3 3e60 0bb4 73d4 02b5
00000310: b1d6 d6b4 83d2 ae33 5ff5 e734 e81f 1735
00000320: fbf5 e0b2 cfe7 9431 3107 5c32 0548 0cb2
00000330: 0882 0fb3 0399 9fb0 a49a a132 efe9 07b1
00000340: c487 0f31 ad0e c532 2c09 cfb4 1d1b c6b4
00000350: 560d a0b2 2910 a833 e4f6 5eb4 575d cfb2
00000360: 886a ac34 0db7 2834 7836 06b4 37fb 95b3
00000370: 599a 0b34 9bc2 f233 5f5b 16b1 2142 d5b2
00000380: aa74 8233 b88d 37b3 b7b4 29b4 1e86 93b3
00000390: 656e 2a33 69f4 0133 116c b1b3 34ee 4db4
000003a0: 961f 06b4 42d4 4db3 397c 14b4 b5d7 40b4
000003b0: 59a6 0fb3 14d3 3233 dd71 e2b1 b355 8731
000003c0: 0926 96b4 a83d c2b4 9e47 dab3 996c 2a33
000003d0: e78f 2ab4 c506 11b4 0d79 0234 f5d8 af33
000003e0: c728 f6b3 064c 9db3 1f73 c134 b259 1f35
000003f0: 67b9 9c34 1a2c a833 d248 d434 5a42 c034

exp_avg_sq f4 [40, 10]
1.2956703e-14 2.3523826e-14 3.768803e-14 3.324966e-14 1.3323479e-14 7.244395e-15 8.4581195e-15 9.313709e-15
2.065069e-14 3.222888e-14 3.5826e-14 4.3722462e-14 4.5717512e-14 7.3317295e-14 1.1398766e-13 7.995187e-14
3.9433748e-14 3.9883502e-14 4.4106652e-14 4.9548554e-14 1.7636154e-14 1.1851968e-14 5.0266687e-15 2.4312766e-14
2.4552028e-14 1.09455e-14 3.742871e-15 1.2128959e-14 1.8452318e-14 6.289777e-15 2.2870413e-14 1.9465202e-14
8.299133e-15 8.719598e-15 1.4641588e-14 1.6958953e-14 1.4714323e-14 2.1695372e-14 2.2345635e-14 8.829612e-15
7.20352e-14 1.2074951e-13 7.3446444e-14 1.9874725e-14 5.587469e-14 1.1844428e-13 4.08739e-14 3.622553e-14
1.1704645e-13 1.0473386e-13 4.1861447e-13 4.3739003e-13 6.3799454e-13 6.65166e-13 5.423428e-13 6.3596676e-13
5.7365354e-13 4.384763e-13 4.4967117e-13 6.793413e-13 1.0067031e-13 1.1825354e-13 1.7624854e-13 1.8272127e-13
1.3569233e-13 1.5778516e-13 1.5605235e-13 1.1465872e-13 9.817593e-14 1.6194447e-13 8.279283e-14 9.032275e-14
2.7163439e-13 4.4053067e-13 2.804499e-13 1.1464754e-13 4.7064247e-14 7.8328694e-14 9.829842e-14 1.6318836e-13
2.622867e-15 3.422598e-15 2.710564e-15 2.6499474e-15 6.0539876e-15 6.2850997e-15 3.3962345e-15 2.5881661e-15
3.2474032e-15 3.6213932e-15 1.8407083e-11 1.8684816e-11 8.359597e-12 4.5642596e-12 7.1759113e-12 3.850924e-12
5.8636173e-12 1.5323512e-11 1.9623607e-11 1.16785505e-11 1.3597205e-14 2.5769366e-14 4.461094e-14 4.5577196e-14
2.0746878e-14 1.5685961e-14 1.7612886e-14 1.51171e-14 1.996407e-14 3.3298715e-14 1.8085956e-14 4.6068218e-14
1.0742437e-13 1.1206555e-13 5.722082e-14 5.4726623e-14 4.640744e-14 2.127536e-14 3.4828084e-14 9.1120925e-14
2.514197e-15 8.693318e-15 2.1247352e-14 1.5075875e-14 4.5447574e-15 7.5493175e-15 1.214903e-14 5.576261e-15
4.064222e-15 1.9083493e-14 2.6748718e-15 1.0168079e-14 4.569952e-14 7.2802157e-14 4.155696e-14 9.464486e-15
4.7076567e-15 3.9020237e-15 6.2882104e-15 3.1242095e-14 2.8617018e-14 1.3493804e-14 1.12053895e-14 2.0034579e-14
2.4835087e-14 1.8128492e-14 2.8061165e-14 3.358351e-14 2.128543e-14 1.4514079e-14 2.6127478e-13 2.8814272e-13
4.950303e-13 4.862402e-13 3.4015398e-13 4.673823e-13 5.3337516e-13 3.9689118e-13 2.9402097e-13 4.752552e-13
1.2140233e-13 1.3431644e-13 2.2668301e-13 2.2254033e-13 1.468902e-13 2.1350167e-13 2.4229804e-13 1.6030611e-13
1.2467033e-13 2.1659538e-13 2.1579066e-14 1.5286049e-13 3.6954248e-13 3.3779687e-13 1.1620696e-13 4.905221e-14
7.5587445e-14 4.715047e-14 8.093779e-14 2.850508e-13 3.043576e-15 2.902948e-15 2.7244525e-15 4.231111e-15
6.4875507e-15 4.2295586e-15 2.4207228e-15 3.2841164e-15 3.8860635e-15 2.927212e-15 1.942605e-11 2.0542594e-11
8.779832e-12 1.7174695e-12 2.6624436e-12 9.566583e-13 3.9583996e-12 1.512902e-11 2.1184944e-11 1.4620688e-11
1.0148779e-13 1.5130367e-13 2.2104855e-13 2.1024292e-13 9.44625e-14 4.5455745e-14 4.4165616e-14 6.2576294e-14
1.536415e-13 2.0301938e-13 5.621872e-12 1.02486205e-11 1.1053986e-11 7.0300653e-12 4.44688e-12 4.8923205e-12
2.99054e-12 4.2633067e-12 8.508239e-12 1.0155408e-11 1.4910857e-12 2.3994977e-12 2.4194785e-12 1.5994646e-12
9.831674e-13 1.0447244e-12 6.3565066e-13 1.1414241e-12 2.163985e-12 2.2500385e-12 5.6802707e-13 1.8400739e-12
2.6191052e-12 1.808488e-12 5.797542e-13 3.7523435e-13 3.8529295e-13 4.604374e-13 1.3793747e-12 2.340814e-12
3.1298904e-12 4.7295206e-12 5.9359956e-12 5.0635824e-12 3.939352e-12 3.6228477e-12 2.4858642e-12 3.1611176e-12
4.3463093e-12 5.2818635e-12 2.0566554e-12 2.421892e-12 4.1795885e-12 4.5989814e-12 3.5069376e-12 3.3888404e-12
00000000: 3f68 6928 40e2 d328 57bb 2929 3fbe 1529
00000010: b403 7028 e080 0228 315e 1828 e7c7 2728
00000020: 4001 ba28 5e25 1129 9158 2129 91e8 4429
00000030: b4e4 4d29 8b18 a529 b556 002a 1d09 b429
00000040: 0498 3129 8c9e 3329 82a3 4629 9825 5f29
00000050: 34da 9e28 8e81 5528 d61a b527 6cfd da28
00000060: 1f25 dd28 362d 4528 e4d9 8627 f37e 5a28
00000070: 2634 a628 f49c e227 95ff cd28 b353 af28
00000080: ff80 1528 0c14 1d28 34e1 8328 afc0 9828
00000090: eb88 8428 1f6a c328 8745 c928 660f 1f28
000000a0: 7735 a229 adf3 072a fe62 a529 ff03 b328
000000b0: 22a3 7b29 3d5b 052a 6614 3829 3125 2329
000000c0: 58c8 032a f6d6 eb29 b4a8 eb2a 8c3a f62a
000000d0: 5a94 332b 433a 3b2b eba7 182b 3c02 332b
000000e0: 1878 212b 18d7 f62a 7224 fd2a b337 3f2b
000000f0: 7cb0 e229 4324 052a 2f70 462a d2b9 4d2a
00000100: a7c6 182a 7aa6 312a 07b3 2f2a 2018 012a
00000110: 9212 dd29 5155 362a d16e ba29 8563 cb29
00000120: a4ea 982a 29ff f72a 17e1 9d2a e714 012a
00000130: 62f5 5329 6b61 b029 2e59 dd29 d8bb 372a
00000140: 5bff 3c27 ca9f 7627 1551 4327 e7f2 3e27
00000150: 2e1e da27 d071 e227 78b9 7427 3d7f 3a27
00000160: 0400 6a27 7579 8227 11e9 a12d 775a a42d
00000170: 4710 132d 3297 a02c dd7a fc2c 0a7e 872c
00000180: c54e ce2c 7bc9 862d 6f9c ac2d 8473 4d2d
00000190: 0af2 7428 1d1c e828 e9e8 4829 ee42 4d29
000001a0: 0bdf ba28 5d49 8d28 8da4 9e28 a929 8828
000001b0: 03d2 b328 cef6 1529 60e7 a228 0a79 4f29
000001c0: efe5 f129 6459 fc29 8fd9 8029 8077 7629
000001d0: 2300 5129 a4a1 bf28 0cda 1c29 a32f cd29
000001e0: c02a 3527 da9a 1c28 0f61 bf28 9aca 8728
000001f0: fdbd a327 15ff 0728 83db 5a28 eee7 c827
00000200: d56d 9227 8ae3 ab28 adbe 4027 fd2b 3728
00000210: f6cf 4d29 96ef a329 ea27 3b29 3d7f 2a28
00000220: 789c a927 d195 8c27 818e e227 afb3 0c29
00000230: 2de1 0029 3015 7328 bddb 4928 9874 b428
00000240: d0b1 df28 7549 a328 a4c0 fc28 273f 1729
00000250: dcb8 bf28 30bb 8228 aa15 932a be35 a22a
00000260: b156 0b2b 4ddd 082b 5b7d bf2a 728e 032b
00000270: bb21 162b 0c6e df2a e384 a52a bfc5 052b
00000280: d7af 082a 143a 172a ee38 7f2a e28e 7a2a
00000290: 3862 252a ab61 702a d466 882a 177d 342a
000002a0: c75d 0c2a 5edd 732a f05d c228 091b 2c2a
000002b0: af08 d02a a929 be2a 60d6 022a 59e9 5c29
000002c0: 3235 aa29 ca58 5429 7641 b629 2678 a02a
000002d0: 1150 5b27 f02d 5127 4751 4427 1c71 9827
000002e0: 18bd e927 cb62 9827 746e 2e27 41a5 6c27
000002f0: 9c02 8c27 88ed 5227 93df aa2d cfb1 b42d
00000300: d974 1a2d 5cb6 f12b 525a 3b2c 3fa3 862b
00000310: 1846 8b2c 8613 852d 4158 ba2d dd9a 802d
00000320: ba87 e429 505a 2a2a e8e0 782a 65b6 6c2a
00000330: ecb5 d429 e8b6 4c29 7de7 4629 c7e8 8c29
00000340: 26fc 2c2a 5a94 642a 52cd c52c af4b 342d
00000350: ba76 422d 3359 f72c ef75 9c2c 1b22 ac2c
00000360: c870 522c 7400 962c b4ad 152d e4a7 322d
00000370: 06da d12b 82d9 282c 7341 2a2c c91a e12b
00000380: 575e 8a2b 2a08 932b 75eb 322b 23a4 a02b
00000390: e346 182c 1755 1e2c aae2 1f2b d37b 012c
000003a0: 9b4d 382c a685 fe2b b12f 232b f83c d32a
000003b0: 91e6 d82a 039a 012b 3621 c22b 5bb8 242c
000003c0: 183f 5c2c bc67 a62c b2da d02c b228 b22c
000003d0: 879a 8a2c 6cef 7e2c 59ed 2e2c a271 5e2c
000003e0: 13ec 982c ccd6 b92c 69b9 102c ed6c 2a2c
000003f0: 630e 932c f1cf a12c 5fc7 762c ec77 6e2c

exp_avg f4 [40, 10]
-2.2675996e-08 -1.00052615e-08 7.672397e-09 9.069564e-09 -9.7544e-10 2.6947318e-09 1.999929e-10 6.730248e-09
4.667144e-09 -8.891972e-09 -9.572356e-08 -2.4886104e-08 -1.3535406e-09 2.6975433e-08 -6.138283e-09 3.917795e-08
3.8282444e-08 1.3004121e-09 -2.1316322e-09 4.468322e-09 1.7654465e-09 -1.7861314e-09 -5.6945675e-09 6.2306946e-09
1.9500666e-09 -1.1999927e-09 -1.341633e-10 -2.3302664e-09 -6.499885e-09 6.209309e-10 2.333857e-07 4.8771682e-08
-2.9532751e-08 -3.0969666e-08 2.1691333e-08 -8.5465615e-08 -8.5812715e-08 -1.720043e-08 -2.6305113e-08 -2.4000097e-09
-1.9952077e-07 -5.320691e-08 2.1173134e-08 3.749359e-08 -1.6296063e-08 7.438829e-08 7.815175e-08 8.582367e-09
5.3970086e-09 -3.7593924e-09 -1.7926924e-06 -4.1386184e-07 2.0980566e-07 2.8022978e-07 -1.5467853e-07 6.4295756e-07
6.6423377e-07 1.2315489e-07 1.5419121e-07 -1.6165057e-09 -8.790566e-07 -1.9447462e-07 9.893545e-08 1.3858293e-07
-7.406984e-08 3.0730203e-07 3.152504e-07 7.126028e-08 9.21734e-08 5.6605316e-09 1.6926681e-07 2.2264674e-08
-1.1146601e-08 -2.5587637e-08 1.7885837e-08 -6.7436225e-08 -5.6497136e-08 -1.788579e-08 -3.7358383e-08 -1.4633236e-08
-2.7523082e-08 1.7681345e-09 3.448259e-09 -3.176858e-09 -4.34175e-09 1.2908529e-08 9.78485e-09 1.5849015e-09
1.2035906e-08 6.522483e-09 -2.1280462e-08 -2.7654264e-07 2.3569446e-07 7.376074e-08 -3.3567993e-08 -5.842992e-08
-9.999491e-08 8.594031e-08 -2.2130943e-07 -4.399969e-07 -1.7366915e-08 -4.3298143e-09 7.1489623e-09 7.784219e-09
-8.7281127e-10 7.5702905e-10 -6.3217236e-09 1.0136462e-08 1.304184e-08 -6.3933596e-09 -1.0366312e-07 -1.4308832e-08
8.654754e-10 2.0113452e-08 -9.904676e-09 4.3104595e-08 3.6894534e-08 6.485471e-09 1.5046785e-08 1.08349445e-08
3.485069e-08 9.519553e-09 -1.0343688e-08 -3.597705e-10 4.0731334e-09 -1.3256653e-08 -1.3646892e-08 -2.0781226e-09
-3.921607e-09 2.93967e-09 1.5300628e-07 2.9603104e-08 -1.7827816e-08 -2.0559842e-08 1.3778658e-08 -5.499439e-08
-5.43927e-08 -1.41537715e-08 -2.094116e-08 -4.105861e-09 -1.423959e-07 -3.258923e-08 1.5036035e-08 2.2942686e-08
-1.2479804e-08 5.3162744e-08 5.3796036e-08 8.1631875e-09 1.1016656e-08 1.1556703e-09 -1.3367043e-06 -2.8113604e-07
1.5114011e-07 1.9316542e-07 -1.2078355e-07 4.88853e-07 4.896079e-07 1.002894e-07 1.4996358e-07 2.2428202e-08
-8.3415415e-07 -1.6778009e-07 9.1106024e-08 1.2183214e-07 -7.4593e-08 3.0139475e-07 2.9829576e-07 6.9573396e-08
1.0579402e-07 1.9449441e-08 2.082224e-07 4.776143e-08 -2.8547626e-08 -3.1528913e-08 1.8953951e-08 -7.406516e-08
-7.5686124e-08 -1.2128206e-08 -1.7376234e-08 4.0213615e-09 3.008997e-08 1.6646705e-08 -5.700114e-09 -8.718681e-09
2.1503734e-09 -1.3646511e-08 -1.6369675e-08 3.4052683e-09 1.0750921e-08 7.036356e-09 -1.2057667e-07 1.5848133e-07
1.573812e-08 -2.0816768e-07 -1.7482107e-07 5.1809286e-07 2.7356816e-07 -2.0066541e-07 9.556351e-08 1.7054381e-07
6.2857545e-08 2.2494289e-08 -1.5195294e-08 -1.9481664e-08 3.4586183e-09 -1.23425945e-08 -9.401116e-09 -1.2575718e-08
-9.4021875e-09 1.4841448e-08 5.091672e-07 1.5295042e-07 5.3897548e-08 -2.2722413e-07 6.2073324e-09 -1.4967092e-07
-1.703296e-07 -3.3836628e-08 3.442333e-08 -1.0954181e-08 2.6714162e-07 5.6927824e-08 -9.397622e-08 2.43752e-08
4.2028127e-08 -1.1575801e-07 -1.0796048e-07 -1.6908512e-08 -4.8720196e-08 1.8921863e-08 2.1344329e-06 4.6441446e-07
-2.6886713e-07 -2.982278e-07 1.9631509e-07 -7.793135e-07 -7.79957e-07 -1.6433489e-07 -2.3710925e-07 -1.2176634e-08
2.0265484e-06 4.76389e-07 -2.0319773e-07 -3.558417e-07 1.7050654e-07 -7.43212e-07 -7.5900743e-07 -1.231935e-07
-1.3919919e-07 -5.388595e-09 -5.240868e-06 -1.167126e-06 5.9597346e-07 8.211142e-07 -4.5359835e-07 1.8702647e-06
00000000: 0bc9 c2b2 9be3 2bb2 8fcf 0332 5dd0 1b32
00000010: 3e10 86b0 392e 3931 ffe4 5b2f e33f e731
00000020: a25c a031 4ec3 18b2 9590 cdb3 1fc5 d5b2
00000030: 7a07 bab0 9bb7 e732 e9e8 d2b1 9d44 2833
00000040: fe6b 2433 2fba b230 127c 12b1 c787 9931
00000050: 20a4 f230 e97b f5b0 f2a9 c3b1 c515 d631
00000060: ef01 0631 fdec a4b0 9d83 13af 7b22 20b1
00000070: 9855 dfb1 21ae 2a30 9398 7a34 0879 5133
00000080: 35af fdb2 8203 05b3 bf53 ba32 3889 b7b3
00000090: 0a48 b8b3 25c0 93b2 8ef5 e1b2 6bed 24b1
000000a0: da3b 56b4 9e85 64b3 37e0 b532 a308 2133
000000b0: 6cfb 8bb2 65bf 9f33 61d4 a733 a671 1332
000000c0: 9770 b931 f72b 81b1 719c f0b5 bd30 deb4
000000d0: f146 6134 7d72 9634 b615 26b4 b597 2c35
000000e0: cc4d 3235 8f3c 0434 c28f 2534 bd2b deb0
000000f0: 4ff8 6bb5 c7d0 50b4 5776 d433 63cd 1434
00000100: 5310 9fb3 45fb a434 af3f a934 c107 9933
00000110: ddf0 c533 907e c231 b5bf 3534 8940 bf32
00000120: 457f 3fb2 cfcb dbb2 5fa3 9932 75d1 90b3
00000130: 42a7 72b3 45a3 99b2 fa73 20b3 a765 7bb2
00000140: e66b ecb2 b402 f330 6af6 6c31 e14f 5ab1
00000150: 702e 95b1 50c4 5d32 3a1a 2832 c4d3 d930
00000160: 79c6 4e32 5e1c e031 3bcc b6b2 bb77 94b4
00000170: 3313 7d34 6566 9e33 662c 10b3 60f4 7ab3
00000180: c8bc d6b3 2f8e b833 13a1 6db4 b738 ecb4
00000190: 402e 95b2 73c5 94b1 f0a2 f531 5bbb 0532
000001a0: a2ea 6fb0 2f17 5030 7836 d9b1 a224 2e32
000001b0: 9e0e 6032 96ac dbb1 679d deb3 e9d2 75b2
000001c0: 6be6 6d30 f3c5 ac32 3a29 2ab2 0122 3933
000001d0: f875 1e33 ced6 de31 3b40 8132 9724 3a32
000001e0: bdae 1533 708b 2332 05b4 31b2 32c9 c5af
000001f0: a9f3 8b31 60bf 63b2 aa73 6ab2 b8ce 0eb1
00000200: d2be 86b1 3903 4a31 0c4a 2434 ea49 fe32
00000210: c823 99b2 929b b0b2 2eb7 6c32 f932 6cb3
00000220: 689d 69b3 f228 73b2 19e2 b3b2 8913 8db1
00000230: 7de5 18b4 3df8 0bb3 9728 8132 8013 c532
00000240: c266 56b2 0e55 6433 5e0d 6733 143e 0c32
00000250: c443 3d32 89d5 9e30 cf68 b3b5 0bef 96b4
00000260: 1449 2234 e868 4f34 bbb0 01b4 b939 0335
00000270: 996d 0335 ae5e d733 ad05 2134 23a8 c032
00000280: a3ea 5fb5 0a27 34b4 11a6 c333 f7d0 0234
00000290: ef2f a0b3 61cf a134 7525 a034 6168 9533
000002a0: e130 e333 c611 a732 bd93 5f34 3f22 4d33
000002b0: e538 f5b2 686a 07b3 2ed0 a232 c10d 9fb3
000002c0: e388 a2b3 6a5c 50b2 be42 95b2 452c 8a31
000002d0: 463c 0133 7efe 8e32 bcda c3b1 2ac9 15b2
000002e0: c5c5 1331 fd71 6ab2 4c9d 8cb2 1d02 6a31
000002f0: 0db3 3832 71c4 f131 dd77 01b4 042b 2a34
00000300: 7e30 8732 b284 5fb4 73b6 3bb4 1213 0b35
00000310: ecde 9234 7d76 57b4 9838 cd33 ba1e 3734
00000320: 4dfc 8633 7739 c132 ce86 82b2 a258 a7b2
00000330: a8ac 6d31 4e0b 54b2 8c82 21b2 980c 58b2
00000340: 4287 21b2 61f9 7e32 b4ad 0835 b13a 2434
00000350: fb7c 6733 e5fa 73b4 4648 d531 3bb5 20b4
00000360: d8e3 36b4 c453 11b3 dad8 1333 ff30 3cb2
00000370: aa6b 8f34 ce80 7433 f9cf c9b3 a261 d132
00000380: 6a82 3433 a496 f8b3 e7d7 e7b3 363e 91b2
00000390: 6c40 51b3 9e89 a232 473d 0f36 a354 f934
000003a0: d158 90b4 1e1c a0b4 aeca 5234 0432 51b5
000003b0: 3d5e 51b5 0874 30b4 1898 7eb4 6731 51b2
000003c0: d6ff 0736 68c2 ff34 912e 5ab4 830a bfb4
000003d0: 7b14 3734 2481 47b5 98be 4bb5 2c47 04b4
000003e0: c876 15b4 9526 b9b1 b7da afb6 25a6 9cb5
000003f0: fcfa 1f35 8a6a 5c35 1586 f3b4 ce05 fb35

exp_avg_sq f4 [40, 10]
4.944524e-10 3.7600336e-11 5.4078573e-12 1.2753161e-10 6.8421783e-12 1.7446862e-10 5.755364e-11 1.3725399e-10
1.1206377e-11 2.2254992e-10 4.4675344e-10 6.9172036e-11 1.0457452e-11 1.7734365e-10 1.32573405e-11 1.5100358e-10
4.758177e-11 1.6497477e-10 1.1312725e-11 3.061503e-10 5.1438746e-11 7.505534e-12 1.287735e-12 1.7301608e-11
1.5650625e-12 2.0244285e-11 8.201156e-12 1.6176498e-11 1.3889062e-12 2.9881663e-11 5.105275e-10 7.4412976e-11
1.0476575e-11 2.1022416e-10 1.3923943e-11 1.5598871e-10 3.838472e-11 1.9915666e-10 1.2071381e-11 3.6553008e-10
3.0875988e-10 3.599287e-11 7.4168215e-12 6.192778e-11 9.0179106e-12 1.4827838e-10 7.682322e-11 6.007329e-11
9.030037e-12 1.0844233e-10 6.981152e-09 4.144896e-10 1.2411122e-10 2.134592e-10 1.4207223e-10 3.9068646e-09
2.2987734e-09 3.5817332e-10 2.1108335e-10 3.4913528e-10 1.58179e-09 8.570761e-11 2.4506484e-11 7.89588e-11
2.7973535e-11 8.3670926e-10 4.707255e-10 1.1882069e-10 4.4890768e-11 1.3353837e-10 5.5171836e-09 5.819268e-10
8.24651e-11 1.7797269e-09 1.0597582e-10 1.8483576e-09 5.5361976e-10 1.7952185e-09 1.2793343e-10 3.0926282e-09
6.772683e-12 4.1582525e-13 7.778103e-14 1.2982916e-12 9.946945e-14 2.8135031e-12 1.1505895e-12 1.4268574e-12
1.7940453e-13 2.2177123e-12 1.8766967e-07 2.0399245e-08 2.9708374e-09 6.156227e-08 3.9406958e-09 6.1927004e-08
1.8648466e-08 6.196818e-08 4.281425e-09 1.0832551e-07 6.9373857e-10 4.8876386e-11 7.328617e-12 1.6901153e-10
9.230847e-12 2.4463384e-10 8.3553796e-11 1.8664859e-10 1.5336489e-11 2.9821898e-10 6.315704e-10 1.01039885e-10
1.5438947e-11 2.647303e-10 1.9392042e-11 2.0184637e-10 5.6674672e-11 2.4783486e-10 1.5734658e-11 4.6107476e-10
5.5466454e-11 8.2438145e-12 1.4785633e-12 1.9380896e-11 1.7585558e-12 2.0873348e-11 8.107276e-12 1.84572e-11
1.4673018e-12 3.4219617e-11 6.657653e-10 9.898334e-11 1.4668737e-11 2.787611e-10 1.8689635e-11 2.0080686e-10
4.8392096e-11 2.6566627e-10 1.6069897e-11 4.875073e-10 1.9890307e-10 2.4841563e-11 4.8091457e-12 4.9815325e-11
6.20288e-12 8.870252e-11 4.276072e-11 4.7794928e-11 5.6036404e-12 8.814506e-11 6.607474e-09 4.2141424e-10
1.2439091e-10 1.6348534e-10 1.4213912e-10 3.817048e-09 2.281352e-09 2.9274397e-10 1.956766e-10 2.6855704e-10
2.429431e-09 1.4315281e-10 4.1005678e-11 9.618407e-11 4.656856e-11 1.336802e-09 7.739739e-10 1.5374685e-10
6.820803e-11 1.6334223e-10 3.600114e-09 3.9683565e-10 5.894091e-11 1.2041265e-09 7.439521e-11 1.1764577e-09
3.4223838e-10 1.2174811e-09 8.340924e-11 2.1159283e-09 6.771907e-12 3.7636e-13 8.2120014e-14 1.0064667e-12
1.0320682e-13 3.025985e-12 1.374309e-12 1.1727491e-12 1.9313998e-13 1.7266903e-12 2.21532e-07 2.5645797e-08
3.8561394e-09 7.706015e-08 5.085298e-09 7.070755e-08 2.012039e-08 7.723318e-08 5.0633506e-09 1.3676213e-07
4.049446e-09 3.8765108e-10 5.5423183e-11 1.2354819e-09 7.102766e-11 1.3642006e-09 4.1247378e-10 1.2701447e-09
9.3118305e-11 2.1577766e-09 1.5835785e-07 1.63712e-08 2.304977e-09 5.0067882e-08 2.9950602e-09 5.342349e-08
1.6230656e-08 5.0703903e-08 3.6249113e-09 8.717014e-08 3.8635307e-08 4.1008716e-09 5.825586e-10 1.2238678e-08
7.572946e-10 1.32389335e-08 4.131221e-09 1.2305685e-08 8.941236e-10 2.1256337e-08 2.3960915e-08 2.8565474e-09
4.1655066e-10 8.266532e-09 5.2715865e-10 7.901207e-09 2.357887e-09 8.155487e-09 5.6597654e-10 1.4393748e-08
1.11556375e-07 1.017685e-08 1.5109816e-09 3.0279608e-08 1.9432198e-09 4.090005e-08 1.44499674e-08 3.1338374e-08
2.6145999e-09 5.2506422e-08 4.0981455e-08 1.7854848e-09 4.545644e-10 3.351238e-09 5.2847793e-10 1.9629729e-08
00000000: ffe9 0730 375e 252e a645 be2c f538 0c2f
00000010: ddbc f02c 8dd4 3f2f a31f 7d2e 90e9 162f
00000020: 0925 452d 3cb2 742f f59a f52f 651c 982e
00000030: 2df8 372d cdfd 422f c139 692d bb07 262f
00000040: 4f44 512e 4564 352f fc03 472d d34e a82f
00000050: e13a 622e ec09 042d 8b3b b52b c22f 982d
00000060: 5243 dc2b 1412 b22d b946 102d 3c4a 8e2d
00000070: 9f78 c32b c36b 032e 2e55 0c30 c8a2 a32e
00000080: 4d4e 382d d724 672f ddf3 742d eb82 2b2f
00000090: 5ad1 282e 9ef9 5a2f ab5c 542d c9f3 c82f
000000a0: 17be a92f 5e4c 1e2e 657a 022d 3e2e 882e
000000b0: 0fa5 1e2d a708 232f a1ef a82e 411a 842e
000000c0: acdb 1e2d 9b77 ee2e ddde ef31 3ade e32f
000000d0: 3476 082f 6cb3 6a2f c735 1c2f 253d 8631
000000e0: 73f8 1d31 6ae8 c42f ae16 682f 6cf0 bf2f
000000f0: 4a66 d930 1879 bc2e b28f d72d daa1 ad2e
00000100: cd0e f62d 2efe 6530 5d64 0130 0da5 022f
00000110: 836e 452e b6d3 122f a991 bd31 75f5 1f30
00000120: b957 b52e 939a f430 150b e92e 4d09 fe30
00000130: 872d 1830 a3bb f630 0faa 0c2f 1786 5431
00000140: e84a ee2c bc16 ea2a b625 af29 e2b7 b62b
00000150: 3cfc df29 91fb 452c 5bee a12b f5cf c82b
00000160: d6fd 492a c10e 1c2c 3f82 4934 6a3a af32
00000170: 8627 4c31 3734 8433 ba66 8731 bbfc 8433
00000180: 6930 a032 5e13 8533 d01b 9331 94a0 e833
00000190: 83b1 3e30 ebf5 562e 28ed 002d 84d4 392f
000001a0: 0a64 222d 277d 862f 9bbc b72e e838 4d2f
000001b0: b4e6 862d 97f2 a32f d19a 2d30 6630 de2e
000001c0: 6bcd 872d 7a89 912f ff92 aa2d b4ee 5d2f
000001d0: 0242 792e a83f 882f 4d67 8a2d 817a fd2f
000001e0: adf1 732e d706 112d db16 d02b e679 aa2d
000001f0: a67e f72b 9a9a b72d ed9f 0e2d eb59 a22d
00000200: 1e81 ce2b dd7f 162e 1101 3730 abaa d92e
00000210: 0f07 812d 2340 992f 5165 a42d 1bca 5c2f
00000220: a8d4 542e 340d 922f 315a 8d2d 4701 0630
00000230: 3db2 5a2f 3a82 da2d ef34 a92c 1217 5b2e
00000240: 933e da2c 140f c32e 4a10 3c2e 4e34 522e
00000250: 1b29 c52c 42d5 c12e f507 e331 c8ac e72f
00000260: eec4 082f 08c1 332f 9b48 1c2f 1c27 8331
00000270: f8c5 1c31 0df0 a02f 1126 572f 0ba4 932f
00000280: 01f3 2631 ef65 1d2f 4a58 342e d182 d32e
00000290: 8acf 4c2e 8aba b730 92bf 5430 e40b 292f
000002a0: b5fd 952e c098 332f e065 7731 a729 da2f
000002b0: c89c 812e 6f7e a530 c898 a32e edb0 a130
000002c0: c525 bc2f 4f54 a730 3a6b b72e ce67 1131
000002d0: ea43 ee2c 31df d32a f7ea b829 c9a5 8d2b
000002e0: ae66 e829 4def 542c b36a c12b bd0c a52b
000002f0: cf74 592a 9302 f32b 41de 6d34 b44b dc32
00000300: f67e 8431 447c a533 c1ba ae31 e3d7 9733
00000310: 35d5 ac32 64db a533 b4f9 ad31 e3d8 1234
00000320: 4e23 8b31 0a1d d52f f5c0 732e a8cd a930
00000330: 0531 9c2e 8b7e bb30 86c2 e22f 3e91 ae30
00000340: f2c4 cc2e 0248 1431 1309 2a34 a6a0 8c32
00000350: 9665 1e31 380a 5733 a8d1 4d31 c073 6533
00000360: 976b 8b32 88c5 5933 1d1a 7931 4b32 bb33
00000370: f8ef 2533 a6e7 8c31 eb21 2030 4642 5232
00000380: df29 5030 7271 6332 9bf2 8d31 fa68 5332
00000390: 5bc6 7530 2e97 b632 9cd2 cd32 ea4c 4431
000003a0: 4b00 e52f 9804 0e32 7ee7 1030 e0bd 0732
000003b0: 6308 2231 361c 0c32 0f93 1b30 6048 7732
000003c0: c490 ef33 42d6 2e32 f0aa cf30 c80c 0233
000003d0: 7c89 0531 15aa 2f33 a13f 7832 e898 0633
000003e0: 87ac 3331 6c83 6133 9603 3033 2965 f530
000003f0: 40e6 f92f 9a4b 6631 5444 1130 3b9e a832

exp_avg f4 [40]
-2.2337085e-07 -3.490096e-08 -2.0901871e-07 -6.361904e-07 -2.0640763e-07 8.470877e-07 7.418385e-07 -2.7980698e-07
4.3470573e-07 1.0089949e-05 8.99165e-08 1.9813291e-07 -1.1853054e-07 -3.6486557e-07 2.7481047e-07 2.8904863e-06
1.8483481e-06 -4.5508474e-07 -2.6082305e-09 1.9463519e-06 4.5939848e-07 4.931355e-06 -2.462334e-06 -2.5255745e-06
5.648085e-07 2.222283e-06 2.1344647e-07 -2.968126e-06 8.3344526e-07 0.00028123008 -2.0275465e-07 -1.8017483e-08
-2.6003758e-07 -7.5235124e-07 -1.490441e-07 6.3032314e-07 1.2107621e-06 -1.9020706e-07 4.2393012e-07 1.1361381e-05
00000000: b6d7 6fb4 03e6 15b3 a06e 60b4 acc6 2ab5
00000010: e6a0 5db4 6c63 6335 c122 4735 6138 96b4
00000020: 8061 e934 0048 2937 1e18 c133 5cbe 5434
00000030: da8a feb3 bee2 c3b4 aa89 9334 2dfa 4136
00000040: c214 f835 5f52 f4b4 7a3c 33b1 129e 0236
00000050: 3fa3 f634 0478 a536 933e 25b6 0a7d 29b6
00000060: 589d 1735 8822 1536 b82f 6534 0430 47b6
00000070: ecb9 5f35 1072 9339 c6b4 59b4 ddc4 9ab2
00000080: 4b9b 8bb4 2ff5 49b5 ee08 20b4 7a33 2935
00000090: 7881 a235 b83b 4cb4 8398 e334 c39c 3e37

exp_avg_sq f4 [40]
6.7462755e-09 7.2796524e-09 6.6147565e-10 8.610388e-09 3.0339373e-09 4.3263164e-08 1.1148396e-08 8.124885e-08
8.412146e-11 2.7378376e-06 8.5178815e-09 9.61211e-09 7.0937006e-10 1.0248732e-08 2.106489e-09 3.6345018e-08
1.48965205e-08 4.9999176e-08 6.7499034e-11 3.118588e-06 5.8858237e-08 2.3700854e-06 5.8433335e-07 3.6456825e-07
1.5587093e-06 3.6569543e-07 6.643428e-07 2.0337745e-06 3.532275e-08 7.805769e-05 1.1284025e-08 7.5555775e-09
1.0556652e-09 1.5599952e-08 2.2451163e-09 2.1405782e-08 2.2410301e-08 4.8041755e-08 9.858197e-11 4.637459e-06
00000000: decc e731 8020 fa31 36d3 3530 e3ec 1332
00000010: 977d 5031 5ad0 3933 2a87 3f32 077b ae33
00000020: 2cfc b82e b1bb 3736 0a56 1232 8222 2532
00000030: 7bfd 4230 6612 3032 bfc1 1031 c519 1c33
00000040: 97eb 7f32 adbe 5633 946e 942e ef48 5136
00000050: 51cb 7c33 c20d 1f36 15db 1c35 e1b9 c334
00000060: d834 d135 cc54 c434 4a55 3235 fb7b 0836
00000070: c6b5 1733 e7b2 a338 abdb 4132 c8cd 0132
00000080: eb16 9130 a800 8632 8148 1a31 d0df b732
00000090: c680 c032 7856 4e33 b7c8 d82e 789b 9b36

exp_avg f4 [40]
-2.2337078e-07 -3.490106e-08 -2.0901875e-07 -6.361907e-07 -2.0640775e-07 8.4708637e-07 7.418381e-07 -2.7980695e-07
4.3470567e-07 1.0089952e-05 8.991634e-08 1.9813287e-07 -1.185305e-07 -3.648658e-07 2.748105e-07 2.8904851e-06
1.8483489e-06 -4.550847e-07 -2.608246e-09 1.9463537e-06 4.5939848e-07 4.9313553e-06 -2.462334e-06 -2.5255774e-06
5.6480934e-07 2.2222855e-06 2.1345056e-07 -2.9681278e-06 8.334434e-07 0.00028123 -2.0275456e-07 -1.8017397e-08
-2.600376e-07 -7.523512e-07 -1.4904413e-07 6.303242e-07 1.2107618e-06 -1.9020739e-07 4.2393012e-07 1.1361377e-05
00000000: b1d7 6fb4 1fe6 15b3 a36e 60b4 b1c6 2ab5
00000010: eea0 5db4 5563 6335 ba22 4735 6038 96b4
00000020: 7e61 e934 0448 2937 0818 c133 59be 5434
00000030: d58a feb3 c6e2 c3b4 ab89 9334 28fa 4136
00000040: c914 f835 5d52 f4b4 c03c 33b1 1a9e 0236
00000050: 3fa3 f634 0578 a536 933e 25b6 177d 29b6
00000060: 679d 1735 9322 1536 d830 6534 0c30 47b6
00000070: cbb9 5f35 0d72 9339 c0b4 59b4 adc4 9ab2
00000080: 4c9b 8bb4 2ef5 49b5 f008 20b4 8d33 2935
00000090: 7581 a235 cf3b 4cb4 8398 e334 be9c 3e37

exp_avg_sq f4 [40]
6.7462747e-09 7.2796533e-09 6.6147565e-10 8.610388e-09 3.0339378e-09 4.326316e-08 1.1148395e-08 8.124884e-08
8.412147e-11 2.7378373e-06 8.517883e-09 9.61211e-09 7.0936995e-10 1.0248732e-08 2.106489e-09 3.6345018e-08
1.48965205e-08 4.9999166e-08 6.749903e-11 3.1185875e-06 5.8858245e-08 2.3700852e-06 5.8433335e-07 3.6456822e-07
1.5587091e-06 3.6569543e-07 6.643428e-07 2.033774e-06 3.532275e-08 7.805769e-05 1.1284022e-08 7.5555775e-09
1.0556653e-09 1.5599946e-08 2.2451159e-09 2.1405784e-08 2.2410301e-08 4.8041752e-08 9.858197e-11 4.637458e-06
00000000: dccc e731 8220 fa31 36d3 3530 e3ec 1332
00000010: 997d 5031 59d0 3933 2987 3f32 067b ae33
00000020: 2dfc b82e b0bb 3736 0c56 1232 8222 2532
00000030: 79fd 4230 6612 3032 bfc1 1031 c519 1c33
00000040: 97eb 7f32 aabe 5633 936e 942e ed48 5136
00000050: 53cb 7c33 c10d 1f36 15db 1c35 e0b9 c334
00000060: d634 d135 cc54 c434 4a55 3235 f97b 0836
00000070: c6b5 1733 e7b2 a338 a7db 4132 c8cd 0132
00000080: ec16 9130 a500 8632 7f48 1a31 d1df b732
00000090: c680 c032 7756 4e33 b7c8 d82e 769b 9b36
