logs/vanilla_lstm/version_0/checkpoints/epoch=9-step=250.ckpt (torch, 17650 bytes, 12 tensors)

lstm.lstm.weight_ih_l0 f4 [40, 10]
000000 09 6c 16 3f f7 b6 42 bd 42 8f a8 be a0 63 4f be
       0.587586 -0.04753777 -0.32921797 -0.20252848
000010 5d ba 36 3f 7a 8a bc 3e 0c 4f 03 3f 8e 66 a2 bd
       0.7137812 0.368244 0.5129249 -0.07929717
000020 53 fb f2 be 96 be a2 bd 30 91 3e be e6 ab 81 3e
       -0.4745737 -0.07946508 -0.18610072 0.2532646
000030 d8 97 3e 3e 57 18 d5 3e 62 a2 e1 bc ce a0 ce be
       0.18612611 0.41620132 -0.02754325 -0.4035706
000040 fa eb 98 be d1 1b 31 bf 17 16 71 be 5e 7c 38 be
       -0.29867536 -0.6918307 -0.23543583 -0.18016192
000050 8d 01 95 3d d7 c6 cb 3e da 5e e2 3e 48 f2 05 bc
       0.072756864 0.3980014 0.4421299 -0.00817544
000060 90 a4 22 3f e3 ef 67 be 97 62 c4 bc d6 76 2a bf
       0.6353235 -0.22650103 -0.023972793 -0.6658758
000070 e2 ee 48 be cc 49 50 3e 96 30 66 3f 15 86 18 3f
       -0.19622377 0.20340651 0.89917886 0.5957959
000080 a3 14 0a 3e db 80 e3 3e 09 51 2b 3f 17 3b 61 3f
       0.13484435 0.44434246 0.66920525 0.8798079
000090 20 6e 51 3b fb 09 25 bf 85 87 6a bf 98 b8 f4 bc
       0.0031956509 -0.64468354 -0.91613036 -0.029873177
0000a0 96 71 32 3f f5 12 a6 bd 01 e9 ea 3d 68 5c d1 be
       0.6970457 -0.081090845 0.11470223 -0.40890813
0000b0 b4 46 26 3f dc a8 13 3f ff 18 6b 3e 38 a9 9b be
       0.64951634 0.57679534 0.22958754 -0.3040254
0000c0 90 33 05 bf b7 22 f3 be 50 1b aa be 5d 70 45 3c
       -0.52031803 -0.47487423 -0.33223963 0.012050715
0000d0 9e db d8 3b 0c 6e 2b 3e 3e ca 88 3d 4b 8d be 3d
       0.0066179773 0.16741198 0.066792 0.09304293
0000e0 f8 2f 49 bd 43 e5 8c bd 40 17 2e 3e 76 90 0a be
       -0.049118012 -0.06879666 0.17001057 -0.1353167
0000f0 5b 4e bf be 7a 61 23 3e b1 c8 0b 3f 7f 9f 59 3d
       -0.37364468 0.15955153 0.54603106 0.053130623
000100 3f 75 43 3f 28 01 e2 3e d8 f1 df be 9c 62 75 bf
       0.7635078 0.44141507 -0.437392 -0.9585359
000110 02 09 17 bf 35 b3 05 3e c9 a3 9d be a8 3e b6 be
       -0.5899812 0.13056643 -0.3078902 -0.35594678
000120 a8 74 1c be 5c f4 02 be d5 dc 42 3e 18 62 de 3e
       -0.15278876 -0.12788528 0.19029553 0.43434215
000130 6f 9a 19 3f 03 b4 8e 3e 16 e5 f6 be 7a 4a 70 be
       0.6000127 0.27871713 -0.48221654 -0.2346591
000140 5a 9d 0b be 51 87 39 3e 3a fb c9 3d f9 2b 22 3f
       -0.13634244 0.18118025 0.09862371 0.63348347
000150 05 87 f0 be 38 57 4c bf cc 1c a7 be b1 eb 81 3d
       -0.46978012 -0.79820585 -0.32639158 0.06343783
000160 38 39 1e 3f 36 d5 89 3e 17 87 68 be b8 02 a4 3d
       0.6180606 0.2692048 -0.22707783 0.08008331
000170 a0 6b 39 3f 90 8a 1d 3f d3 52 87 bc e5 c1 13 bf
       0.7242985 0.61539555 -0.016518986 -0.57717735
000180 57 be 64 bf 45 9c 0c be af ed 81 bd 58 1c dd 3e
       -0.89352936 -0.13731487 -0.06344163 0.43185687
000190 51 7e 1c 3e 4c 87 14 be 04 81 8d be a3 f7 e3 be
       0.15282561 -0.14504737 -0.27637494 -0.4452487
0001a0 0f 0d c4 3d 3b a5 98 3e c7 d1 05 3f c0 2c 60 3d
       0.09572803 0.2981356 0.5227322 0.054730177
0001b0 fb 72 ee 3c 2b 9f a5 be dd 37 f9 bc 90 84 e4 3e
       0.029107561 -0.32347998 -0.030422146 0.44632387
0001c0 0c 0d ca 3e 86 5a e4 bc 03 5e bf be e1 0b e2 bd
       0.3946308 -0.027875196 -0.37376413 -0.11037422
0001d0 de 5e ff be c9 40 f8 be 86 32 a7 3d 0e 26 92 3e
       -0.49877065 -0.48486927 0.081639335 0.28544658
0001e0 c5 f5 04 be 58 8b 1a 3d 65 52 ae 3e 0d f8 35 3e
       -0.12984379 0.037730545 0.34047237 0.17770405
0001f0 d8 68 8f 3e d1 1d 59 be c8 50 31 be b9 6f bf bd
       0.28009677 -0.2120278 -0.17315972 -0.09347481
000200 3c 65 34 be 21 f8 e6 bd 04 d6 01 3f f8 c7 eb bc
       -0.17616743 -0.112777956 0.50717187 -0.028781876
000210 f8 a2 32 bf 69 03 47 bf a2 24 84 be b6 a2 1f 3f
       -0.6977992 -0.7773958 -0.258092 0.6235765
000220 b9 74 b4 3e f0 d7 c7 3e f6 d8 85 3e fa e1 d9 bd
       0.35245302 0.39031935 0.2614209 -0.10638805
000230 42 9e 3e 3f a6 ee f0 bc 26 80 e7 bd 54 9f 0b bf
       0.7446023 -0.029410671 -0.11303739 -0.5453999
000240 f3 66 4e 3e 59 e9 ea 3e c4 0c 0b 3e 26 9a c5 3e
       0.2015646 0.45881155 0.13579088 0.38594168
000250 be f6 b6 3e 40 44 05 bf 27 b0 51 3e 92 d3 4b be
       0.35735124 -0.52057266 0.20477353 -0.19904926
000260 30 27 6b bd 7c 8e 95 3e 2a 42 46 3e f9 58 f5 bd
       -0.05741042 0.2921027 0.19361177 -0.11979861
000270 28 da 41 be 5b 0a 38 be 61 5d 8d 3e 3c 4b dd 3d
       -0.18930876 -0.179727 0.27610305 0.108053654
000280 85 70 a4 be df 20 1f be 4d 60 20 3f 91 30 13 3f
       -0.32117096 -0.15539883 0.62646943 0.5749598
000290 e1 df c3 3e 18 9e 5c 3e ae e1 d1 be 1b 64 3b bf
       0.38256744 0.21544683 -0.40992492 -0.73199624
0002a0 bf d0 9d be b3 c2 ae be 5f d9 e1 3e 03 eb 49 be
       -0.30823323 -0.3413292 0.44111153 -0.19718556
0002b0 d8 91 19 bf 30 d6 ed be fd f7 a0 bd f0 df 6f 3d
       -0.59988165 -0.46452475 -0.078598 0.058563173
0002c0 4a 78 f1 3e d3 4d cf 3d 51 a4 f2 bd ae fe 51 be
       0.47162086 0.10122266 -0.11847747 -0.20507309
0002d0 f7 cf c1 be 2e 2f a8 bd 89 eb 98 3e 16 b6 f6 3e
       -0.37853977 -0.08212124 0.298672 0.48185796
0002e0 a5 aa 10 bf 6c 04 de be 8d 54 0d bf 01 39 90 be
       -0.5651038 -0.4336275 -0.5520714 -0.2816849
0002f0 d8 30 1a 3f 69 32 f7 3d 1b 98 5e be 9f 1f 53 bf
       0.6023078 0.12070162 -0.21737711 -0.82470125
000300 15 a7 6c bf f5 63 06 3e 8d 10 a3 bc 03 52 7b 3f
       -0.92442447 0.13124068 -0.019905353 0.98172015
000310 8b 56 54 3f cb da 15 3f f2 74 d3 be f8 c1 1a bf
       0.82944554 0.58536977 -0.4130016 -0.6045222
000320 3a 6f ca 3e b3 8f e8 3d 5f 7a f4 be df 0a 1b be
       0.39537984 0.113555335 -0.47749612 -0.15140866
000330 fb e5 eb 3d a6 84 81 3f d4 a6 7d 3d c8 b1 b2 3e
       0.11518475 1.0118606 0.061926678 0.3490126
000340 11 6d b5 bb 92 78 04 bf 73 3d 24 3f 2f d2 0c 3e
       -0.0055366834 -0.51746476 0.64156264 0.13752054
000350 14 49 af be a3 ec 64 be b0 8d 32 3e 04 dc 45 3f
       -0.34235442 -0.22355895 0.17436862 0.7728884
000360 eb 45 80 3e bc 66 49 3e 68 33 87 3e c1 4a c2 bc
       0.25053343 0.19668096 0.26406407 -0.023717286
000370 8f 2c b4 3e 85 e1 82 3d 26 71 04 bf b1 47 41 bd
       0.35190246 0.06390671 -0.5173515 -0.04718751
000380 a6 dd da 3e d7 fd e2 3e 3f 68 72 bd 60 64 02 3d
       0.4274723 0.4433429 -0.059181448 0.031834006
000390 32 99 e9 be ee 9b f8 be 50 24 d7 be 50 49 94 be
       -0.4562469 -0.48556465 -0.42019892 -0.28962183
0003a0 b7 62 9e bd 73 f2 98 3e 27 c3 df be 1f 37 51 bf
       -0.07733672 0.29872474 -0.43703577 -0.81724733
0003b0 98 87 16 bf 2c a1 87 be 36 60 ff 3d 19 3b ff 3e
       -0.5880065 -0.26490152 0.12469523 0.49849775
0003c0 26 19 15 be 0d 51 07 3d 99 13 a8 3e 9e f5 38 3f
       -0.14560375 0.03303628 0.32827452 0.7224978
0003d0 d0 76 85 bd 87 49 81 bf 9c bc 1c bf f8 53 db bd
       -0.06516802 -1.0100564 -0.61225295 -0.10709375
0003e0 7b 9b 21 be 39 4b 21 3f 38 ac 14 be aa b0 6f 3e
       -0.15781967 0.63005406 -0.14518821 0.23407236
0003f0 4a a5 4c 3e 06 1c 41 3e fb 59 5c bf de 24 f7 be
       0.19984928 0.18858346 -0.860748 -0.48270315

lstm.lstm.weight_hh_l0 f4 [40, 10]
000000 eb 32 d3 bd e2 9e f7 bc 3e ab a8 3e 54 39 3c be
       -0.10312446 -0.030227128 0.32943147 -0.18381244
000010 9a 5c d1 3d 3a f3 67 3e 18 aa c3 3c c1 f9 00 3e
       0.102227405 0.22651377 0.023884818 0.12595274
000020 6a d8 f1 bd 37 5c 8c be d5 6c 07 3d f8 ed b4 bb
       -0.11808856 -0.27414104 0.033062775 -0.005521532
000030 27 5d 1c bd 3c 97 1d 3e fd 83 49 3e 79 6d 81 bd
       -0.038174774 0.15389723 0.19679256 -0.063197084
000040 83 43 df bd fa 6e 22 be 6f 1a e4 bd f1 7f 01 be
       -0.10901549 -0.15862647 -0.11137854 -0.12646462
000050 cb 4b 20 bc 28 39 08 bb fd 63 65 be 72 04 33 be
       -0.009783695 -0.002078602 -0.22401424 -0.17482165
000060 0a e0 4e 3e 1a b4 a8 bb 2f df 67 be cb 28 0f 3e
       0.20202652 -0.005148423 -0.22643732 0.13980405
000070 9a 74 82 be 59 c0 8c 3d 54 de 6d be 0e 1c 11 be
       -0.25479585 0.06872625 -0.23229343 -0.14170858
000080 25 d3 86 3e bb bc 7f 3e 77 70 a3 bd 33 ef 76 be
       0.26332965 0.24974339 -0.07980435 -0.24114685
000090 39 91 77 3d 1b 7f 81 bc 7d 72 7d be c4 0c 42 be
       0.06044123 -0.015807679 -0.24750705 -0.18950182
0000a0 84 7c c3 3d f3 8c 2f be 2c d6 6c 3e 29 44 46 be
       0.09545234 -0.17143612 0.23128575 -0.19361939
0000b0 58 3a 06 be da 2e 93 3e bf b7 5e be f3 cb 5a 3e
       -0.13108194 0.28746682 -0.21749781 0.21366863
0000c0 63 46 89 3e 3c 02 33 bd f5 ce c1 3d b3 77 4d 3e
       0.26811513 -0.043703303 0.09463302 0.20065193
0000d0 8f af 1b be a9 71 4a bd 8a de 2c bd 2d 38 cd 3d
       -0.15203689 -0.0494248 -0.042204417 0.1002048
0000e0 8e 41 4e 3e d3 29 c3 bd f3 62 83 bd d2 4e 34 3e
       0.20142195 -0.09529462 -0.064153574 0.17608193
0000f0 c5 41 97 3e be dc 9d 3e 3c 39 5c be b4 c5 3d 3e
       0.29542366 0.30832475 -0.21506208 0.18532449
000100 ef a0 4f be f0 10 38 3e 89 70 8a be 42 96 66 3e
       -0.20276235 0.17975211 -0.27038983 0.22518256
000110 26 7a 56 3e b5 57 f1 3e 60 99 62 3e dd c5 0d 3e
       0.20945033 0.47137228 0.2212882 0.1384501
000120 34 db a8 be 8e d0 d4 bd 97 d5 97 be 71 98 b3 3e
       -0.3297974 -0.10391341 -0.29655144 0.3507724
000130 46 fd 38 3e 76 c5 88 be 22 d1 e9 3d 98 51 e7 3d
       0.18065366 -0.2671315 0.11416842 0.1129486
000140 99 6a ca 3d 3d f3 0e be 3b 53 04 bd 90 ee 38 3e
       0.09883613 -0.13959976 -0.032305937 0.18059754
000150 62 3d 33 be 83 19 5e 3e c9 48 ef 3d 82 9d 9e be
       -0.17503884 0.2168942 0.116838045 -0.30979544
000160 a5 13 ae be b0 70 00 3e b4 14 a7 3d 8b b7 86 3d
       -0.33999363 0.12542987 0.08158246 0.06577977
000170 c5 9d e4 3e 7d ff 68 3e 83 59 6d 3e 8c 13 c2 be
       0.4465162 0.22753711 0.23178677 -0.37905538
000180 27 15 e2 bd ff fe 8b be 5a a4 69 be b7 dc d1 bd
       -0.11039191 -0.27342984 -0.22816601 -0.10247176
000190 69 40 0c 3e 33 14 87 be 5a ed 0d 3e 86 69 a1 3e
       0.13696446 -0.26382598 0.13860074 0.3152582
0001a0 35 16 67 3e a5 b7 96 3e 6e 52 55 3e 65 38 69 3e
       0.22567065 0.29436985 0.20832226 0.22775419
0001b0 08 ee 14 3d 68 d7 55 be 32 f6 67 3e eb c2 5e be
       0.036359817 -0.20882952 0.2265251 -0.21754043
0001c0 37 ce 0e 3e 5e 78 05 3e 57 c7 48 be 9a 98 94 3d
       0.13945852 0.13034198 -0.19607292 0.07255669
0001d0 96 08 8e be 0a dd 9b 3c 93 66 03 be 61 96 4b bd
       -0.27740926 0.019026298 -0.12832098 -0.04970396
0001e0 1c 9d 68 be da 1d e7 3e 34 6a 27 3e 8a 11 ba bc
       -0.22716182 0.45139962 0.16349107 -0.022713441
0001f0 08 23 5f 3e 4d 57 1d 3d ec 44 03 3e 19 5f 95 be
       0.21790707 0.038413335 0.1281926 -0.29174116
000200 57 73 81 bd 50 04 a0 bb fc 96 22 3e df 14 bd 3d
       -0.063208275 -0.0048833266 0.15877908 0.092324965
000210 ac fb 8c 3e 30 81 85 3d d4 d8 83 bd 0f 72 6c be
       0.2753576 0.06518781 -0.06437841 -0.23090385
000220 2d ef ec 3d 55 43 c2 bd 92 79 2d 3e 7e f6 5d be
       0.11569057 -0.09485499 0.16940907 -0.2167606
000230 c0 3b 9b bd 36 48 90 bd f7 69 60 be 8a 5c 07 bd
       -0.07579756 -0.07045023 -0.21915422 -0.033047237
000240 98 ca fd bd 9d 6a 94 3e 60 71 74 be 15 77 7a 3d
       -0.12392157 0.2898759 -0.23871374 0.06114872
000250 f3 f8 8b bd 80 6e 38 bd f2 aa 61 be af d7 d1 3e
       -0.06834593 -0.045027256 -0.22037867 0.40984866
000260 99 ba 07 be 76 50 9a bd 77 af 5b 3e 65 77 05 be
       -0.13254775 -0.07534878 0.21453653 -0.13033827
000270 c1 c7 8f bd 3a 41 81 be 10 9c 01 3d d0 13 85 3d
       -0.07020522 -0.25245076 0.031642973 0.064979196
000280 aa ed a3 bc 02 d2 e2 bc 34 ab 09 3d c0 f1 80 be
       -0.020010788 -0.02768803 0.033610538 -0.2518444
000290 d4 a2 d7 bd c4 e1 9d be d0 c6 e6 bd 5c ab 7f be
       -0.10529104 -0.30836308 -0.11268389 -0.24967712
0002a0 fb 79 60 3e e8 e5 cc bd 7e 5f 1f 3e 40 d5 32 3d
       0.21921532 -0.10004789 0.15563771 0.043660402
0002b0 91 7a c7 3d 6b 43 b3 bd ee 5e d6 3d 04 80 37 bd
       0.097401746 -0.08753093 0.10467325 -0.04479982
0002c0 0d 58 74 3e f4 8a 88 3e 01 82 ea 3d 4d 7d 9c 3d
       0.23861714 0.26668513 0.114505775 0.07641087
0002d0 b7 50 1d 3e c7 51 d0 bd 98 17 81 be 02 a6 59 be
       0.15362822 -0.10171848 -0.25213313 -0.21254733
0002e0 0d 47 5e 3e 07 6f a7 be bf cf bd 3d de 3f 19 3e
       0.21706791 -0.32701895 0.0926814 0.1496577
0002f0 88 e2 45 be dc 3e dd 3d 63 97 23 3e 4a 87 b4 3e
       -0.19324696 0.10803005 0.15975718 0.35259467
000300 9b aa 44 be 4d bf 56 3e 87 10 c5 bd 87 56 75 3e
       -0.19205706 0.20971413 -0.09622293 0.23958789
000310 1e d3 f9 be d9 09 95 bd 7d fb a7 be 2a 26 54 3d
       -0.48793882 -0.07277269 -0.32809058 0.05179421
000320 42 46 c0 be fb 74 24 3d bb eb 86 3d d8 0e 57 bd
       -0.37553602 0.040150624 0.06587931 -0.05250439
000330 90 0a 72 3e cb a7 34 be b0 5a 8f be d2 bf d4 bd
       0.23636842 -0.17642133 -0.27998877 -0.10388149
000340 30 8b 80 3a 17 bd 8b 3b 50 60 7c bd 6d 7c 52 3e
       0.0009807106 0.0042644846 -0.06161529 0.20555277
000350 5b b1 60 be b3 6a ae 3e d9 cf 75 be fd b8 5a 3c
       -0.21942656 0.3406578 -0.24005069 0.013349769
000360 d6 9e ef 3d 79 66 87 be f9 6a 08 be f6 8f 15 3d
       0.117002174 -0.26445368 -0.13322057 0.036514245
000370 c2 1a b4 3e 53 6c 7e 3d 4f b2 4b 3d c7 e3 f7 be
       0.35176665 0.062115025 0.049730595 -0.48415968
000380 3c c5 6f be 6a e1 98 bd ca 56 2e 3e e0 34 d9 bd
       -0.23415083 -0.07464869 0.17025295 -0.10605788
000390 54 b9 0e 3e c0 ca 62 3e 07 a5 15 3e e5 f8 54 be
       0.13937885 0.22147655 0.14613734 -0.2079807
0003a0 68 65 b5 3d e0 1b 08 be 1b d5 18 3d 4d 71 bf be
       0.08857232 -0.13291883 0.03731261 -0.3739113
0003b0 10 fa 83 3e 91 f9 97 bd 97 1d a2 be 9e 7e 71 3e
       0.2577672 -0.07420648 -0.316632 0.23583457
0003c0 62 59 4f bd c0 72 ca 3d 76 84 8f 3e f3 02 a3 be
       -0.05062235 0.09885168 0.28030747 -0.31838188
0003d0 07 a6 3b 3e 53 1b 7b be 30 fb 0f bd 14 41 99 bd
       0.18325053 -0.24522142 -0.03515166 -0.07483116
0003e0 28 10 98 be 8c 52 7b 3e f3 97 34 3d ad 44 58 3e
       -0.29699826 0.24543208 0.044090223 0.21119948
0003f0 cf d2 1d be d4 ba bb 3c bd fd e2 bd 34 78 62 3e
       -0.15412448 0.022916235 -0.11083553 0.22116166

lstm.lstm.bias_ih_l0 f4 [40]
000000 c0 03 a5 be 64 c2 2f 3c 57 19 1b 3e a1 6f 7e be
       -0.32229424 0.010727499 0.15146385 -0.2484727
000010 45 52 09 bd 88 29 8c 3e f2 7d 15 3d d8 61 9f bd
       -0.033525724 0.27375436 0.036497064 -0.07782334
000020 73 ef 95 3e 8b 5a b0 be 21 d0 6d be c9 59 27 3e
       0.29284248 -0.3444408 -0.23223926 0.16342844
000030 1c ae 2f 3e f3 19 d8 3d 03 52 95 be 3a 53 82 be
       0.17156261 0.105518244 -0.29164132 -0.25454122
000040 ca 74 8b 3d 46 a4 13 3e fa 34 24 be db 6c b3 bc
       0.06809385 0.14418134 -0.16035834 -0.021902492
000050 c5 74 fa 3d 2d c0 1b 3d b3 73 42 3e da 58 d4 3c
       0.12229303 0.03802507 0.18989448 0.025921274
000060 29 84 c6 bd 5e 6f 3e be da 6c 4e 3e 0d 26 3a 3e
       -0.09693176 -0.1859717 0.20158711 0.18178578
000070 94 87 02 3e 8b 40 88 3e 3e 3f 9b be 02 d2 19 be
       0.12747031 0.26611742 -0.30321687 -0.15021518
000080 24 ce 7b 3e c8 f4 2e 3e e0 a1 4d 3d 10 45 9f 3e
       0.24590355 0.17085564 0.050203204 0.31107378
000090 39 21 1e be ec c6 87 be 6d 57 8e 3e 20 c0 ea 3d
       -0.15442361 -0.26518953 0.27801076 0.11462426

lstm.lstm.bias_hh_l0 f4 [40]
000000 fb b1 1c be 02 c1 97 be 8c 4f de 3d 67 1b 3e be
       -0.15302269 -0.2963944 0.10855016 -0.1856514
000010 dd 60 ed bd ad 52 a0 3e 51 98 90 3d d2 29 06 3d
       -0.11590741 0.31313077 0.07060302 0.032754727
000020 9c cc cf bb 27 40 8b bd 66 8b 66 3e 7e 6f 01 be
       -0.00634153 -0.067993455 0.22514114 -0.12640187
000030 e3 9d 70 3d f3 2f 12 3e 4a da 0f 3e 2d eb 4f be
       0.058744323 0.14276104 0.14048114 -0.20304556
000040 dd c6 8e bd 25 45 82 be 36 43 74 be 39 c1 af 3d
       -0.06971524 -0.25443378 -0.23853764 0.08581776
000050 a1 b4 fa 3d fe 14 c1 bc 23 e9 59 be fb b0 8b bd
       0.122414835 -0.02356958 -0.21280341 -0.06820866
000060 c0 fe 38 3d c4 ff 88 3e a4 4a ce 3d 74 77 1e be
       0.045164824 0.26757634 0.1007283 -0.15475255
000070 75 3b 95 3e 7b fe 83 be 88 eb b3 bc 81 c8 61 3e
       0.29146925 -0.2578009 -0.021962896 0.22049142
000080 b6 86 66 be 1c e5 2d bd 81 fa 91 bb ed da 41 be
       -0.22512326 -0.042454824 -0.004454911 -0.1893117
000090 12 b9 7b 3e 5e e7 c3 3d 42 89 b6 bd e3 e7 bc bc
       0.24582317 0.09565614 -0.089128986 -0.023059791

exp_avg f4 [40, 10]
000000 9a 93 fe b1 ff dd 87 b2 7a e7 69 b2 f8 23 21 b2
       -7.4091533e-09 -1.581702e-08 -1.3615017e-08 -9.379612e-09
000010 ed 20 67 b2 8a f3 93 b1 1f 32 47 32 d7 06 3d 32
       -1.3453456e-08 -4.3059503e-09 1.1594721e-08 1.1002803e-08
000020 be 4d ee b0 a5 28 02 b2 8d 49 09 32 fd 61 fb b0
       -1.7338875e-09 -7.576237e-09 7.991173e-09 -1.8290504e-09
000030 23 f2 27 b2 7a 62 11 b2 57 93 4e af f9 44 00 32
       -9.775735e-09 -8.462502e-09 -1.8787936e-10 7.466263e-09
000040 24 cf 77 31 4e b7 93 31 35 9c 5a 32 06 72 04 32
       3.6060976e-09 4.2991024e-09 1.27247874e-08 7.709337e-09
000050 58 3a d4 b1 4f 02 d0 b1 67 11 d9 b1 ac 0e 43 b2
       -6.176645e-09 -6.053859e-09 -6.3175096e-09 -1.135383e-08
000060 35 c0 2b b2 6b 28 f5 31 c7 81 80 32 88 c8 14 32
       -9.997213e-09 7.1350335e-09 1.4960177e-08 8.660329e-09
000070 84 2b 1d 31 b1 d7 00 31 8b 50 4e b3 4c d6 72 b3
       2.2871243e-09 1.8749058e-09 -4.8036366e-08 -5.6539918e-08
000080 e1 cf 4f b3 c9 0f 3b b3 bb c4 12 b3 18 03 b5 32
       -4.8385008e-08 -4.3553687e-08 -3.41722e-08 2.107258e-08
000090 14 0b b7 33 07 2c 8a 33 b0 04 a6 31 2c 6e e4 b2
       8.523617e-08 6.434134e-08 4.8317688e-09 -2.6592794e-08
0000a0 ac 6d 58 b3 36 19 dc b3 0c 13 d9 b3 dc 06 b9 b3
       -5.0391165e-08 -1.0249134e-07 -1.01083145e-07 -8.6159815e-08
0000b0 a8 a5 a8 b3 9c 13 cd b1 a6 e6 d0 33 72 b0 ca 33
       -7.853242e-08 -5.9685146e-09 9.7277095e-08 9.438453e-08
0000c0 16 c5 95 32 55 59 3c b3 c2 fa cb b0 9b eb a9 b0
       1.7435507e-08 -4.3853408e-08 -1.4841464e-09 -1.2363331e-09
0000d0 9b 6e 8d b1 b3 43 25 b2 c6 fe dd b0 21 9d 68 32
       -4.1162145e-09 -9.619657e-09 -1.6152277e-09 1.3539904e-08
0000e0 fd 5e c3 31 0c bb 27 b1 5e 87 e2 af 1c ea 37 31
       5.686046e-09 -2.4408022e-09 -4.1205345e-10 2.676308e-09
0000f0 66 19 74 b1 e0 80 8b b2 35 bd 7a b2 c5 a3 e4 b1
       -3.552111e-09 -1.6240335e-08 -1.4594936e-08 -6.654292e-09
000100 59 db 36 b2 f6 28 88 b1 f0 fc 59 32 31 e8 7c 32
       -1.0643668e-08 -3.9627777e-09 1.2688574e-08 1.4721125e-08
000110 66 9b ef 31 dc 40 36 31 48 ee d5 31 13 80 4a b1
       6.9734822e-09 2.6521354e-09 6.2262053e-09 -2.946767e-09
000120 3d 1c cc b1 0b ef aa b1 26 0a 34 b1 60 0c ba b1
       -5.9403917e-09 -4.974827e-09 -2.6199216e-09 -5.4147193e-09
000130 49 cf 98 b0 dd 40 10 32 7d c9 f6 31 ff e2 62 30
       -1.111837e-09 8.396651e-09 7.182449e-09 8.25409e-10
000140 60 84 ac 33 38 19 fd 33 0c d4 9a 33 e9 22 dd 32
       8.033453e-08 1.1785818e-07 7.209755e-08 2.5743661e-08
000150 55 a0 c6 33 4e 1c 83 33 ff 1a 37 b3 c5 af 24 b3
       9.249258e-08 6.1053115e-08 -4.263256e-08 -3.8344087e-08
000160 e6 4c 2e 33 5d 02 53 33 7c 6b e2 33 90 14 ab b3
       4.058247e-08 4.9129415e-08 1.05434964e-07 -7.966548e-08
000170 96 17 26 b5 e5 ba b2 b4 f9 96 57 35 40 b1 6b 35
       -6.187414e-07 -3.3291067e-07 8.0313436e-07 8.7802255e-07
000180 5a 8a 94 b2 88 c2 4a b4 f1 7a 95 b3 09 a2 0b b5
       -1.7292383e-08 -1.8883486e-07 -6.960716e-08 -5.201733e-07
000190 aa 66 df b1 37 66 32 b2 d0 17 ec b1 93 87 68 b1
       -6.5018257e-09 -1.0384205e-08 -6.871211e-09 -3.3837508e-09
0001a0 ba bc 02 b2 7b e1 93 b1 8d 89 a5 31 a6 a5 86 31
       -7.609907e-09 -4.3038972e-09 4.8177697e-09 3.9187453e-09
0001b0 57 26 6d b1 23 8a 89 b1 6c 5a bb b1 09 97 d8 b1
       -3.4509833e-09 -4.002929e-09 -5.452696e-09 -6.303598e-09
0001c0 60 01 8a b0 8a 64 e6 30 e9 b3 0e 31 07 85 11 31
       -1.0041212e-09 1.6763277e-09 2.0765987e-09 2.1175894e-09
0001d0 77 1a d6 31 9a bb 23 32 36 3f a4 31 99 f0 4a b0
       6.2312284e-09 9.530504e-09 4.7802144e-09 -7.382908e-10
0001e0 a6 2b 9a b1 a5 14 07 b2 42 fa 1a b2 25 31 1b b2
       -4.486952e-09 -7.862728e-09 -9.020882e-09 -9.033362e-09
0001f0 e3 18 d1 b1 dd 06 46 31 7b f4 24 32 4f 9a 16 32
       -6.08553e-09 2.8816693e-09 9.601645e-09 8.766235e-09
000200 5a df c1 31 91 75 6e 31 09 6b d2 b2 76 b1 87 b2
       5.6424314e-09 3.4700387e-09 -2.4495892e-08 -1.5796768e-08
000210 70 b1 c6 af 21 f1 80 31 7f 39 c6 b1 f3 3a 94 31
       -3.6142067e-10 3.7527035e-09 -5.769095e-09 4.3140687e-09
000220 cb 7d 55 32 a1 ac cf b0 37 b2 4f b2 67 be 68 b1
       1.2426834e-08 -1.5110296e-09 -1.2089507e-08 -3.3868675e-09
000230 8f f5 66 b3 3f 8b 80 b3 29 49 0f b3 7c e9 68 b2
       -5.3774382e-08 -5.985793e-08 -3.336132e-08 -1.35572655e-08
000240 ed 71 da b2 00 cf 38 b1 e0 a0 1b 33 90 a9 b4 32
       -2.5430348e-08 -2.689319e-09 3.6235065e-08 2.1031866e-08
000250 8b 23 c6 b2 65 b6 f6 b2 7e b7 f0 30 24 7d 2e 30
       -2.3066397e-08 -2.8721113e-08 1.751445e-09 6.3478667e-10
000260 e1 87 d3 b0 1d 1e 2b b1 8d 98 79 af a7 b1 61 b0
       -1.539089e-09 -2.4900892e-09 -2.2700615e-10 -8.210698e-10
000270 03 fb 98 b1 3d bf fa b0 a9 ae 73 31 25 d0 d6 31
       -4.452319e-09 -1.8244247e-09 3.5460437e-09 6.251883e-09
000280 37 cf 07 31 98 88 ad b2 d4 dc ad b2 6c c4 21 b2
       1.9762874e-09 -2.0201966e-08 -2.0240272e-08 -9.416095e-09
000290 67 9c 33 b2 bb f8 ff b1 ca 98 2c 32 23 ab c7 32
       -1.0454733e-08 -7.449754e-09 1.0046458e-08 2.3244473e-08
0002a0 62 76 6c 32 f7 37 31 b0 b5 2c 80 30 df 40 45 b1
       1.3763925e-08 -6.4471756e-10 9.325932e-10 -2.8704148e-09
0002b0 fb 4a b3 b0 35 63 44 30 44 45 4a b1 36 2a 0b b2
       -1.3045275e-09 7.1445366e-10 -2.9434242e-09 -8.1004625e-09
0002c0 bc 97 64 b0 36 c9 f2 31 4c 83 ad 31 30 e8 ed 30
       -8.3161544e-10 7.066002e-09 5.0498894e-09 1.7310011e-09
0002d0 a3 7a ad 33 40 6a f0 33 4c dc a2 33 cb 70 2a 33
       8.078248e-08 1.1195198e-07 7.5837846e-08 3.9683794e-08
0002e0 a7 4b b4 33 aa e0 17 33 f7 f1 83 b3 fc ca 3c b3
       8.395664e-08 3.5361758e-08 -6.144176e-08 -4.3956774e-08
0002f0 46 d3 31 33 51 e4 79 33 58 92 dd 34 19 1e cf 34
       4.1403176e-08 5.8182483e-08 4.1270937e-07 3.8578654e-07
000300 34 e0 95 34 94 97 07 34 7b 37 3a b3 96 03 10 b5
       2.7916542e-07 1.2627999e-07 -4.335696e-08 -5.36494e-07
000310 54 2f 21 b5 2b 73 fc b3 b3 fa 8d 34 a0 d7 d8 34
       -6.0046045e-07 -1.17556134e-07 2.6445704e-07 4.0390023e-07
000320 d8 ad 56 b3 38 ef 02 b4 87 c6 d3 b3 89 92 51 b3
       -4.9983868e-08 -1.2194221e-07 -9.861565e-08 -4.8794877e-08
000330 8a 3a c7 b3 e0 e5 91 b3 f6 99 37 33 f7 50 5b 33
       -9.277308e-08 -6.793903e-08 4.2748034e-08 5.1063548e-08
000340 f9 e6 fc b2 98 6c 62 b3 13 6d 9a b3 fd 51 5e b4
       -2.9441695e-08 -5.271849e-08 -7.191024e-08 -2.0705188e-07
000350 4c ff 63 b4 b3 89 24 b4 7a 34 8e b4 d7 a5 79 b4
       -2.1233899e-07 -1.5323785e-07 -2.6487743e-07 -2.3250264e-07
000360 a1 95 6f b3 6b 4c 24 b3 8b e7 1b b4 29 a4 1f b4
       -5.578261e-08 -3.8253727e-08 -1.4519735e-07 -1.486775e-07
000370 be 02 41 b4 9d 89 72 b4 c9 59 33 b4 71 a0 1d b4
       -1.7975523e-07 -2.258807e-07 -1.6703338e-07 -1.4680133e-07
000380 33 be 35 b4 20 5c 1b 33 cd 7b 9d 34 43 23 90 34
       -1.6926133e-07 3.6172537e-08 2.9333606e-07 2.6847746e-07
000390 31 63 db 33 81 a2 99 31 e2 f0 ed 33 8d 58 10 35
       1.0216025e-07 4.4713606e-09 1.1079989e-07 5.377304e-07
0003a0 14 97 1e 35 54 a3 ed 34 5e a3 31 35 1b 5c 07 35
       5.9079434e-07 4.4263527e-07 6.617537e-07 5.042545e-07
0003b0 57 89 20 b3 73 ba 47 b4 8e 8a 4d 33 50 cc 26 34
       -3.7377813e-08 -1.8601149e-07 4.7856297e-08 1.5534283e-07
0003c0 6d 4b 29 34 61 89 47 35 fd 13 4c 35 22 9b 05 35
       1.5766791e-07 7.433319e-07 7.602501e-07 4.977211e-07
0003d0 fc 11 55 35 42 ac 41 35 84 aa 2f 33 7a 4a 3f b4
       7.9374854e-07 7.214877e-07 4.0900446e-08 -1.7815356e-07
0003e0 b3 38 51 34 49 73 bb 34 fc 1d c2 34 96 48 a4 34
       1.9485269e-07 3.4915345e-07 3.6157132e-07 3.0600194e-07
0003f0 0e 56 43 34 b2 05 63 34 54 37 a7 34 3a d3 31 b4
       1.8192097e-07 2.1143094e-07 3.114643e-07 -1.6561253e-07

exp_avg_sq f4 [40, 10]
000000 6d b7 48 26 64 67 d4 26 0b 73 43 27 7a 13 58 27
       6.9637527e-16 1.4738479e-15 2.7124051e-15 2.998658e-15
000010 5e 3f f0 26 93 61 34 27 69 fa 82 27 cb b4 fd 26
       1.6670521e-15 2.5032913e-15 3.6353744e-15 1.7604406e-15
000020 92 38 72 26 4c 76 15 27 05 22 d2 25 6f c9 85 26
       8.4037283e-16 2.0742033e-15 3.6452246e-16 9.283328e-16
000030 05 2a 16 27 ca 61 f3 26 0f 40 f4 25 be aa 96 26
       2.083946e-15 1.6888018e-15 4.237066e-16 1.0454621e-15
000040 08 5f d0 26 b4 15 0d 26 4c d9 46 26 9d 47 bd 26
       1.4458658e-15 4.8948615e-16 6.898954e-16 1.313392e-15
000050 30 a6 5c 26 09 28 c3 26 a2 c5 33 27 e8 7b 26 27
       7.655306e-16 1.3541695e-15 2.4948377e-15 2.3104297e-15
000060 55 2a 95 26 0c c2 81 27 27 30 92 27 bd bf c6 26
       1.0350426e-15 3.601508e-15 4.0575347e-15 1.3790981e-15
000070 c1 62 11 26 ca 47 f0 26 e8 9a 99 27 f6 20 3a 28
       5.0440817e-16 1.6672804e-15 4.263398e-15 1.0332221e-14
000080 73 63 87 28 fc ac 6f 28 15 81 91 27 ab bb 62 28
       1.503114e-14 1.3304675e-14 4.0385536e-15 1.2586214e-14
000090 b3 52 19 29 fc 0d 87 28 3d 8d f8 26 e3 11 3b 28
       3.4044555e-14 1.4994076e-14 1.724674e-15 1.0384464e-14
0000a0 29 ab 96 28 e3 3a 37 29 41 bf aa 29 ca 51 a9 29
       1.6727574e-14 4.068524e-14 7.582694e-14 7.519296e-14
0000b0 0c 05 17 29 22 41 83 29 ea 16 f9 29 57 4c 82 29
       3.3533113e-14 5.8288674e-14 1.1061796e-13 5.7864026e-14
0000c0 81 4e 53 28 5e 17 52 29 59 fc de 25 0d 5e 3c 26
       1.1729876e-14 4.6649635e-14 3.8681859e-16 6.5353065e-16
0000d0 23 5c 8f 26 17 5d 4c 26 78 1d 9e 26 91 0b 3b 27
       9.947592e-16 7.090288e-16 1.097144e-15 2.5957733e-15
0000e0 33 50 9c 26 17 0f d9 25 bf 93 04 26 9b fe 6a 26
       1.0846413e-15 3.7653725e-16 4.5996933e-16 8.1530113e-16
0000f0 db 49 af 26 5d f0 8c 26 0a c7 a2 26 2e 86 e6 26
       1.2163083e-15 9.779602e-16 1.1294958e-15 1.5995825e-15
000100 e9 40 f7 26 21 bc 90 26 2a f6 d2 26 ad b8 f2 26
       1.7156662e-15 1.0043e-15 1.46384e-15 1.684218e-15
000110 e0 92 83 26 f3 01 48 26 f2 f5 f7 25 26 7a 0b 26
       9.129762e-16 6.939158e-16 4.301433e-16 4.8390855e-16
000120 c7 a6 50 26 08 85 2e 26 b4 5a c6 25 6f 8f 5d 26
       7.239052e-16 6.054867e-16 3.4408988e-16 7.6869166e-16
000130 dc 9c 89 26 a0 49 1b 26 b2 ef 7a 25 c5 11 2d 26
       9.548801e-16 5.387621e-16 2.1765255e-16 6.0045514e-16
000140 73 f0 b5 29 96 23 24 2a df 0d a8 2a ef cd b0 2a
       8.079726e-14 1.4578472e-13 2.985242e-13 3.1406776e-13
000150 f6 99 55 2a 66 27 ba 2a 32 f4 b6 2a be 30 22 2a
       1.8971616e-13 3.3067575e-13 3.249914e-13 1.4405401e-13
000160 cd 93 d2 29 e7 cc 87 2a ec 3a 25 2c 0b c4 11 2c
       9.351513e-14 2.4122997e-13 2.3480618e-12 2.0714565e-12
000170 74 57 a6 2b e7 94 33 2c 0e fa 04 2d 7a b6 6f 2c
       1.1819283e-12 2.5520087e-12 7.558855e-12 3.4065238e-12
000180 8c 9e 47 2b e7 ed 21 2c 15 3c 33 2c 95 18 11 2c
       7.091903e-13 2.3011538e-12 2.5470782e-12 2.0619385e-12
000190 a9 78 05 26 22 23 55 26 3e c9 f8 26 f3 08 26 27
       4.630717e-16 7.3946834e-16 1.7263004e-15 2.304198e-15
0001a0 7e 58 bf 26 02 b8 f2 26 00 2e 02 27 72 5c 7a 26
       1.3277273e-15 1.6841999e-15 1.806606e-15 8.686146e-16
0001b0 f8 e2 1f 26 91 b5 c9 26 bd 70 b1 25 c1 37 00 26
       5.5471807e-16 1.399639e-15 3.0781e-16 4.448448e-16
0001c0 c2 fd 1e 26 b8 af 35 26 98 de 0d 26 76 13 04 26
       5.516117e-16 6.3035133e-16 4.9220873e-16 4.5823074e-16
0001d0 a3 45 d0 25 93 fa 4d 25 3c 47 19 25 a0 4b 08 26
       3.6129436e-16 1.7865813e-16 1.329477e-16 4.728697e-16
0001e0 fe bf 64 26 b9 fb a1 26 88 29 63 27 a7 00 4b 27
       7.936359e-16 1.1239849e-15 3.1525092e-15 2.8172263e-15
0001f0 6d 38 84 26 1e a2 60 27 29 95 8f 27 af 23 ff 26
       9.174634e-16 3.1174129e-15 3.9852193e-15 1.7703852e-15
000200 78 43 af 25 23 1d ee 26 1b 4e 20 27 48 3a 2b 27
       3.040338e-16 1.6522465e-15 2.2246802e-15 2.3762611e-15
000210 cf bc 33 27 37 fe 91 27 b4 af 8c 27 da 0c e8 27
       2.4943594e-15 4.0521205e-15 3.9048304e-15 6.440687e-15
000220 22 9e 9b 27 ed 0a c7 26 5d c2 22 27 7e a4 4d 27
       4.319259e-15 1.381136e-15 2.258738e-15 2.8538636e-15
000230 76 17 88 28 5d d0 b7 28 1a 92 03 29 0f f4 22 29
       1.5109208e-14 2.0407445e-14 2.9214566e-14 3.6182913e-14
000240 a2 26 fb 28 57 b8 33 29 81 41 29 29 47 70 8c 28
       2.7883352e-14 3.9905874e-14 3.7582354e-14 1.5591815e-14
000250 7f 75 7b 28 f2 cd fa 28 6e 97 36 25 77 d7 cc 25
       1.3958777e-14 2.784489e-14 1.583729e-16 3.5534364e-16
000260 95 09 3c 26 7a 28 0c 26 9c f6 26 26 74 f8 8b 26
       6.523859e-16 4.8627113e-16 5.792704e-16 9.712406e-16
000270 2e bd 2b 26 68 00 59 25 14 c1 55 25 6f 4a 1e 26
       5.958393e-16 1.8821887e-16 1.8540222e-16 5.491814e-16
000280 50 c0 cb 26 4d 10 93 26 7d ad a8 26 f8 a4 02 27
       1.4138081e-15 1.0204592e-15 1.1704366e-15 1.8130554e-15
000290 3f ac f6 26 80 f9 57 26 d2 a6 c7 26 99 01 1f 27
       1.7116366e-15 7.4931245e-16 1.3853616e-15 2.2066549e-15
0002a0 e7 e4 9c 26 fe ec 32 26 9f d3 f4 25 51 88 22 26
       1.0886719e-15 6.207734e-16 4.2470653e-16 5.6389784e-16
0002b0 28 d7 9c 26 e9 3a 82 26 fb a1 09 26 70 11 ab 26
       1.0882993e-15 9.03653e-16 4.775095e-16 1.1870235e-15
0002c0 00 62 db 26 0e 49 4e 26 45 25 38 25 a0 32 62 26
       1.5222741e-15 7.1569615e-16 1.5972083e-16 7.847811e-16
0002d0 c4 a4 99 29 2f 2b 0d 2a fe d2 8f 2a ac c1 91 2a
       6.823147e-14 1.2538298e-13 2.5548308e-13 2.589156e-13
0002e0 1f 51 31 2a db dc a0 2a 5f c9 a3 2a a9 57 12 2a
       1.5748903e-13 2.857496e-13 2.9094346e-13 1.2997818e-13
0002f0 e5 7d b1 29 02 1c 6f 2a 91 05 03 2b 2b 0d 48 2b
       7.882218e-14 2.1237181e-13 4.6548274e-13 7.107255e-13
000300 10 9c 3b 2b d7 59 35 2b 94 43 23 2b f6 27 1d 2b
       6.6652326e-13 6.4428795e-13 5.8003016e-13 5.583306e-13
000310 55 f8 6b 2b 46 83 d7 2a 92 e8 2e 2b 04 9d 54 2b
       8.38334e-13 3.828276e-13 6.2139974e-13 7.5535433e-13
000320 5b 24 16 29 62 a3 7a 29 85 eb 08 2a 60 88 31 2a
       3.3338224e-14 5.5652863e-14 1.2160939e-13 1.5768073e-13
000330 d8 f6 cf 29 22 bb ed 29 4f 05 1f 2a 3b a0 bc 29
       9.235467e-14 1.05573766e-13 1.4123879e-13 8.376673e-14
000340 12 a4 43 29 5e 13 ce 29 c2 50 1d 2b a0 1d 0e 2b
       4.3441006e-14 9.1515974e-14 5.588968e-13 5.0489647e-13
000350 e2 75 ac 2b 11 91 01 2c 82 15 94 2b df 8e 76 2b
       1.2254054e-12 1.841253e-12 1.0522002e-12 8.759503e-13
000360 02 e2 ba 2b 64 a5 85 2b 7c d1 0f 2b 3c f2 84 2b
       1.3278825e-12 9.496124e-13 5.1094524e-13 9.446398e-13
000370 f8 d4 31 2a d3 2c a6 2a 2f 43 26 2b 38 d0 20 2b
       1.5794646e-13 2.9518627e-13 5.9068283e-13 5.713238e-13
000380 b5 5d 79 2a 85 5b 19 2b 73 d7 7f 2b 74 d6 f6 2a
       2.2148154e-13 5.448353e-13 9.0893195e-13 4.3847185e-13
000390 11 d9 d4 29 7c dc b1 2a 5a 73 b2 2b 96 8b bb 2b
       9.452346e-14 3.1594508e-13 1.2679677e-12 1.3325892e-12
0003a0 22 a5 76 2c 24 73 b9 2c 2f dc 52 2c ec 84 36 2c
       3.505037e-12 5.2707994e-12 2.9965021e-12 2.5937542e-12
0003b0 f2 11 8d 2c df a8 4a 2c 22 bb bf 2b f6 e9 18 2c
       4.0094534e-12 2.8799669e-12 1.3623306e-12 2.1730374e-12
0003c0 4b fd 3a 2c f1 e4 3b 2c 98 7d de 2c f1 a1 2d 2d
       2.6572796e-12 2.6701386e-12 6.323563e-12 9.86987e-12
0003d0 b4 b9 e0 2c 71 05 b1 2c e1 de f0 2c e1 a6 c1 2c
       6.38708e-12 5.0312467e-12 6.845955e-12 5.503917e-12
0003e0 4a 73 51 2c 81 63 a0 2c 01 db 37 2b 7a ed b0 2b
       2.9764685e-12 4.5585207e-12 6.531859e-13 1.2571465e-12
0003f0 09 f0 0b 2c 49 dd e0 2b f2 8b 99 2b 91 e0 5f 2c
       1.9886334e-12 1.5977576e-12 1.0910146e-12 3.1814865e-12

exp_avg f4 [40, 10]
000000 53 9c bf b2 18 46 95 31 a2 a1 96 b2 f0 28 5c 32
       -2.2306414e-08 4.3444395e-09 -1.75358e-08 1.28149935e-08
000010 0c fa 93 32 e3 b9 3a 31 89 d3 cf b3 51 28 8e 30
       1.722676e-08 2.7172227e-09 -9.677667e-08 1.0343318e-09
000020 9f 64 e7 b3 3c 36 7c af 48 8e e9 31 91 8b 25 b0
       -1.07750786e-07 -2.2938534e-10 6.797368e-09 -6.0224986e-10
000030 07 9d 6e 30 6d 84 10 b1 c0 ee 0f b2 6e 65 b8 31
       8.6807045e-10 -2.1030033e-09 -8.377981e-09 5.366636e-09
000040 c8 09 c9 32 6d 07 45 32 c0 78 36 33 00 28 33 b2
       2.3403928e-08 1.1468598e-08 4.2485e-08 -1.0428266e-08
000050 19 6d 37 32 b9 3a 8a b0 61 92 d8 31 c8 6e de af
       1.0676808e-08 -1.0057511e-09 6.3030687e-09 -4.046028e-10
000060 80 19 48 b2 0e ba 92 31 80 93 e5 32 e7 bb 20 32
       -1.164733e-08 4.270311e-09 2.6726184e-08 9.35595e-09
000070 cf 2f 85 33 06 a4 28 b2 c7 58 47 b3 47 ee 86 32
       6.2019915e-08 -9.816182e-09 -4.641404e-08 1.570801e-08
000080 0e 4c 7a b3 c0 c5 e7 32 48 91 a0 32 a1 67 08 33
       -5.8276832e-08 2.6981866e-08 1.8692518e-08 3.1759217e-08
000090 71 cc 93 b4 0a 55 2a 33 57 48 6d b4 2b fe 0b b3
       -2.7529634e-07 3.9658552e-08 -2.2098662e-07 -3.2594624e-08
0000a0 f4 dd 35 b4 ec 28 09 33 7c d1 28 b4 ef 83 cf 33
       -1.6937685e-07 3.1935016e-08 -1.5722429e-07 9.663187e-08
0000b0 7c 10 0d 34 1b 42 56 33 63 79 47 b5 33 00 d4 32
       1.3137645e-07 4.988588e-08 -7.430992e-07 2.4680139e-08
0000c0 8b eb 50 b5 bc 4e e2 b2 9f 8c 47 b0 d5 23 6c b0
       -7.78288e-07 -2.6345667e-08 -7.2595613e-10 -8.590722e-10
0000d0 8d d8 22 b1 a5 02 d1 30 fd e4 2f b1 5b 4d 62 31
       -2.3697198e-09 1.5207503e-09 -2.5596016e-09 3.29313e-09
0000e0 c6 84 7b b2 98 a5 74 31 2d 6a 48 b1 6d 1a a6 b1
       -1.4640312e-08 3.5600802e-09 -2.9164184e-09 -4.83424e-09
0000f0 63 7b 16 b2 9b fc 99 31 14 29 89 b2 40 99 d7 31
       -8.759204e-09 4.481604e-09 -1.596758e-08 6.274746e-09
000100 0d c0 f4 31 b5 41 34 32 26 9c 4a b3 ed 8f 43 32
       7.1231683e-09 1.0492319e-08 -4.7173806e-08 1.1383219e-08
000110 00 c5 0e b3 10 d2 35 b2 cd ff 48 b2 a9 ef 06 31
       -3.3241122e-08 -1.0583349e-08 -1.16996945e-08 1.9635797e-09
000120 d8 f9 47 b2 f3 0b ed 31 1f 45 4d 32 66 94 9d 31
       -1.1640132e-08 6.8989663e-09 1.1948287e-08 4.5861723e-09
000130 0a 94 26 b3 b7 6f 25 30 35 75 3e b3 bf 5a 3b b1
       -3.8784528e-08 6.0185407e-10 -4.434442e-08 -2.7263665e-09
000140 6b 02 c5 34 43 a7 3a b3 9a eb 9d 34 1c 65 42 b4
       3.669587e-07 -4.3458623e-08 2.9414952e-07 -1.8104441e-07
000150 3a 3f b1 b4 32 6b 1b b3 83 bf c0 35 c7 50 d8 33
       -3.3014823e-07 -3.6186243e-08 1.4360852e-06 1.0072977e-07
000160 e7 2f ed 35 f2 5d 71 b3 2f f3 7c 35 dc be 6c 33
       1.7671817e-06 -5.6197628e-08 9.4231194e-07 5.5121617e-08
000170 21 37 1c 35 eb 05 49 b5 04 48 c3 b5 57 9f 10 b4
       5.819475e-07 -7.4886947e-07 -1.4549591e-06 -1.3469013e-07
000180 d7 8a f8 35 08 eb 5b 35 27 f5 21 36 16 8c a4 b4
       1.8517848e-06 8.1925873e-07 2.4133567e-06 -3.0649306e-07
000190 42 ab 9d b2 a4 bd 59 31 34 9a 6c b2 d0 d2 26 32
       -1.8355085e-08 3.1685454e-09 -1.377207e-08 9.710405e-09
0001a0 77 3f 83 32 46 8d 77 30 27 17 a8 b3 8b 65 51 b1
       1.5279268e-08 9.005884e-10 -7.827321e-08 -3.0471223e-09
0001b0 61 8d c8 b3 13 4b 4f 31 ea f0 00 32 4d 81 ca 30
       -9.3389424e-08 3.016514e-09 7.505358e-09 1.4734184e-09
0001c0 eb 4e 26 31 e4 d2 96 b1 fc 8b 2a b2 65 cb 31 31
       2.420104e-09 -4.38955e-09 -9.927131e-09 2.5872506e-09
0001d0 72 6b 88 32 59 9c 06 32 c3 c8 09 33 c6 7a d3 b1
       1.5881344e-08 7.835376e-09 3.208039e-08 -6.154866e-09
0001e0 fa cf 3b 32 88 54 cb af 84 cd dc 31 e6 99 a9 b0
       1.0932121e-08 -3.6985548e-10 6.426207e-09 -1.2340109e-09
0001f0 41 08 4c b2 b5 71 6d 31 b7 dc 01 33 b8 b9 2b 32
       -1.18762395e-08 3.4552674e-09 3.0235892e-08 9.995738e-09
000200 d7 50 85 33 89 78 39 b2 30 9f 7e b3 bb 64 ed 31
       6.208e-08 -1.0795824e-08 -5.9283764e-08 6.9090595e-09
000210 4f 82 5e b3 16 34 da 32 c0 0b 57 33 62 f8 16 32
       -5.1806918e-08 2.5402226e-08 5.0069275e-08 8.787625e-09
000220 5e 81 88 b4 cb e0 a7 b2 a0 ec a5 b4 b1 2e 5a 32
       -2.54261e-07 -1.9543583e-08 -3.0905812e-07 1.26998865e-08
000230 84 61 11 b4 1e 9f c6 32 71 c4 02 b4 2f 61 85 33
       -1.3539653e-07 2.3122592e-08 -1.2178658e-07 6.210973e-08
000240 64 a1 eb 33 71 42 c4 32 80 66 22 b5 54 c0 c4 b2
       1.0972397e-07 2.2847617e-08 -6.049886e-07 -2.2904864e-08
000250 d2 41 40 b5 bd 2b ac 32 c9 6d b0 b1 60 9a 89 b0
       -7.1621355e-07 2.0043325e-08 -5.1347553e-09 -1.0011938e-09
000260 5f b4 76 b1 3f 05 99 31 16 36 db 31 3b a6 a3 30
       -3.590024e-09 4.4534825e-09 6.3798877e-09 1.1907056e-09
000270 6d 32 58 b2 69 01 87 b1 a6 47 72 b2 b3 11 b7 b0
       -1.258432e-08 -3.9291774e-09 -1.4102545e-08 -1.3320033e-09
000280 0b 1e ca b1 ae 4e c1 31 e7 c4 7d b2 24 6f d2 31
       -5.8823892e-09 5.625984e-09 -1.4771309e-08 6.1244396e-09
000290 a9 9a 95 31 4d 23 47 32 29 c8 1a b3 43 ec 8a 32
       4.3540536e-09 1.1591351e-08 -3.6037964e-08 1.6172754e-08
0002a0 0e 30 93 b2 8a 67 73 b2 e6 71 e2 b1 79 99 b4 30
       -1.7134905e-08 -1.4168004e-08 -6.5904144e-09 1.3140343e-09
0002b0 49 e6 e9 b1 f5 a1 99 31 c0 bf 0d 32 9d 40 38 31
       -6.807373e-09 4.4712984e-09 8.250879e-09 2.6812252e-09
0002c0 0e a2 a4 b2 6a 3d a1 b0 53 a2 c3 b2 34 3a 26 b0
       -1.9165807e-08 -1.1731747e-09 -2.2774804e-08 -6.047316e-10
0002d0 43 05 a6 34 fc 9a 32 b3 7b f3 8d 34 ed 60 26 b4
       3.0923738e-07 -4.1584812e-08 2.6440452e-07 -1.5495216e-07
0002e0 ed c8 92 b4 7e 4c 4e b3 41 a7 a9 35 8d 58 8b 33
       -2.7340812e-07 -4.8032682e-08 1.2640159e-06 6.488799e-08
0002f0 bc 26 ca 35 90 3b 17 b3 1d 30 28 34 91 49 24 b4
       1.5061446e-06 -3.52116e-08 1.5663723e-07 -1.5300454e-07
000300 dd 02 dc 34 d8 5c a8 33 03 e0 14 34 70 ac 7a b4
       4.0980277e-07 7.839998e-08 1.3865069e-07 -2.3345797e-07
000310 03 02 f4 35 2d cd fa b4 1e 03 c7 35 9f de 7b 34
       1.8180002e-06 -4.6715414e-07 1.4827563e-06 2.3457186e-07
000320 4c 4f 84 b4 99 f3 2a 33 13 fc 43 b4 c7 76 0a 34
       -2.4644612e-07 3.980276e-08 -1.8252494e-07 1.2895462e-07
000330 34 2a 64 34 34 c4 33 32 05 6a 85 b5 80 72 33 b3
       2.1249508e-07 1.0463783e-08 -9.940128e-07 -4.1780822e-08
000340 f9 a8 a2 b5 b6 53 13 33 62 ae a4 b5 6f 77 e6 33
       -1.2119118e-06 3.430224e-08 -1.2269704e-06 1.07319345e-07
000350 1d 86 5d b5 de fe 22 35 5f 0c 97 35 78 f9 d5 b2
       -8.2524076e-07 6.0720583e-07 1.1253977e-06 -2.4909909e-08
000360 d6 ee 95 b6 41 98 e4 b4 b6 4d c4 b6 f6 c1 a3 34
       -4.46835e-06 -4.257909e-07 -5.850302e-06 3.050224e-07
000370 a9 00 ce 34 85 42 b6 31 1d 21 88 34 5b ff d5 b3
       3.837097e-07 5.3044595e-09 2.5356067e-07 -9.965034e-08
000380 11 90 d7 b4 c7 1a 4e 33 93 e7 8f 35 d3 d9 91 34
       -4.0151693e-07 4.7987466e-08 1.0721727e-06 2.7166843e-07
000390 ff 30 fb 35 ee 4b 6b b4 f4 f2 05 36 53 9c 5a b4
       1.8715217e-06 -2.1913704e-07 1.9959962e-06 -2.0359703e-07
0003a0 23 ef b9 35 74 73 92 b5 ce e8 f8 b5 a0 7c 40 b3
       1.3853172e-06 -1.0911449e-06 -1.8545195e-06 -4.481683e-08
0003b0 8a f2 f5 36 c4 e9 14 35 c5 73 1b 37 b0 f5 be b4
       7.3298042e-06 5.547447e-07 9.265675e-06 -3.556902e-07
0003c0 89 83 62 36 66 cc bd b4 cc e7 23 36 02 f3 e3 b5
       3.3753188e-06 -3.5352713e-07 2.4423816e-06 -1.6983543e-06
0003d0 31 6b 50 b6 2e ff f8 b3 45 a4 50 37 b1 4d 81 35
       -3.105681e-06 -1.1594817e-07 1.2436013e-05 9.63386e-07
0003e0 8b 95 85 37 1b 07 2f b5 5c 07 f9 b4 65 8f ab 31
       1.5924472e-05 -6.520292e-07 -4.638522e-07 4.993057e-09
0003f0 8a c2 85 b4 ec a8 ed 33 7d cd 0b 35 83 81 f1 b3
       -2.4914726e-07 1.1066899e-07 5.208056e-07 -1.1245995e-07

exp_avg_sq f4 [40, 10]
000000 4c 8f 0b 2b 95 3c 32 29 ce 84 6c 2a 68 29 ea 28
       4.9581584e-13 3.9576486e-14 2.1007087e-13 2.5997176e-14
000010 84 09 95 2a 26 5c f3 28 3f 8d 40 2c c2 58 1e 2b
       2.647432e-13 2.7018383e-14 2.7363248e-12 5.625605e-13
000020 ec 76 39 2c 53 c9 42 29 88 78 81 2b 3d b6 ab 29
       2.6356096e-12 4.3251274e-14 9.199455e-13 7.625539e-14
000030 28 ce d9 2a 2a d4 4c 29 cb 5b 08 2b b1 03 62 29
       3.8689993e-13 4.5481122e-14 4.8444294e-13 5.0185282e-14
000040 7f ff b2 2c 8e c2 9e 2b 13 b7 a3 2c 6e 88 b6 29
       5.08743e-12 1.1280575e-12 4.653064e-12 8.1060904e-14
000050 c4 44 0a 2a b5 98 49 27 56 48 ee 2a e2 c0 0d 27
       1.228072e-13 2.7977136e-15 4.2327486e-13 1.9672243e-15
000060 c7 36 e8 29 ba cb 56 29 65 41 02 2c 80 6b 5c 2b
       1.0312372e-13 4.769425e-14 1.8510412e-12 7.8308887e-13
000070 ad 79 04 2c d3 a7 d8 27 b0 4a da 2a 13 aa d7 28
       1.8825872e-12 6.0134e-15 3.8776404e-13 2.3943553e-14
000080 f9 66 3d 2a 31 ac 13 29 92 6a 93 2a d3 1a 92 28
       1.6822298e-13 3.278991e-14 2.6186394e-13 1.622089e-14
000090 2d 53 1b 2c bf cd c6 2a 56 f1 52 2c 13 f9 2b 29
       2.2072997e-12 3.531463e-13 2.9976763e-12 3.8185665e-14
0000a0 3a 58 f9 2c ae 58 0b 2b 84 e9 c5 2c 15 86 ca 2a
       7.0868008e-12 4.950579e-13 5.625002e-12 3.5975446e-13
0000b0 a8 e5 94 2c d7 fb 2e 2b 61 ae 5b 2e 3b 91 6e 2d
       4.23191e-12 6.2166716e-13 4.9949715e-11 1.3560981e-11
0000c0 5e 8a 65 2e 2f f6 1e 2b 64 8a 03 29 e7 19 62 26
       5.2191466e-11 5.6474524e-13 2.9207878e-14 7.8444605e-16
0000d0 88 f9 9c 29 20 ba 06 27 3e 9b d2 28 e8 08 29 28
       6.9710784e-14 1.8697134e-15 2.3382009e-14 9.383316e-15
0000e0 51 71 b7 2a 55 9a 0a 2a 62 5d be 2a b1 71 c3 26
       3.258596e-13 1.2310407e-13 3.3815577e-13 1.3561659e-15
0000f0 ee 25 84 2a 52 20 93 28 5c 4e 6a 2a 11 0e 3c 28
       2.347423e-13 1.6334295e-14 2.0810561e-13 1.0439147e-14
000100 b1 a3 15 2a ef f1 ed 28 d0 68 f4 2b b2 4d 0d 2b
       1.329065e-13 2.6417208e-14 1.7366334e-12 5.0201087e-13
000110 ea c2 ef 2b 97 ba 9b 28 99 66 fd 28 b8 a5 2b 27
       1.7036071e-12 1.7289377e-14 2.8133137e-14 2.3820853e-15
000120 ec 2b 59 28 16 36 f4 25 4b c0 9f 28 f0 71 b3 26
       1.2055444e-14 4.2363903e-16 1.773594e-14 1.2451503e-15
000130 f2 8d d1 2a 2c 97 82 2a c1 c0 dc 2a 1d a0 66 26
       3.7224352e-13 2.3197535e-13 3.92136e-13 8.0014274e-16
000140 45 f1 8d 2d 04 a5 99 2b 77 81 84 2d b6 3e 5b 2b
       1.613699e-11 1.0917105e-12 1.5064157e-11 7.789146e-13
000150 61 3f 2b 2d 7a 34 f6 2b 29 15 0d 2f ab 9f 28 2e
       9.734298e-12 1.7493916e-12 1.2831393e-10 3.834059e-11
000160 33 f2 11 2f b0 7c aa 2b ea 0d bf 2e c9 ce cf 2c
       1.327372e-10 1.2113834e-12 8.688146e-11 5.9062516e-12
000170 9b 42 80 2e 16 da 39 2d 5b e3 8b 2e 04 15 06 2d
       5.8325976e-11 1.0564457e-11 6.3613746e-11 7.6216845e-12
000180 59 ef 12 30 fb 41 03 2f 16 b3 09 30 69 09 f0 2c
       5.3454624e-10 1.1937822e-10 5.0094806e-10 6.822255e-12
000190 a2 ef 04 2b 0b e1 2c 29 8c ff 5d 2a bb 57 de 28
       4.722838e-13 3.8386866e-14 1.9717404e-13 2.4684998e-14
0001a0 cf 4b 90 2a 07 07 e0 28 dc a2 37 2c 9d 55 1a 2b
       2.563214e-13 2.4872043e-14 2.609627e-12 5.4830603e-13
0001b0 3b 7d 2b 2c 0e 03 3a 29 f1 1f 71 2b 0c a0 a3 29
       2.4370078e-12 4.1302946e-14 8.5664727e-13 7.266418e-14
0001c0 60 2b c0 2a f7 05 42 29 d6 c6 00 2b b0 cf 3a 29
       3.413615e-13 4.3081827e-14 4.5750675e-13 4.1480437e-14
0001d0 74 0c a6 2c 48 84 90 2b 66 f8 96 2c ea 83 ac 29
       4.7193863e-12 1.0268531e-12 4.290834e-12 7.661218e-14
0001e0 7d 1b 82 2a 2c e9 cc 27 67 e3 73 2b 24 6b f2 26
       2.3111713e-13 5.687418e-15 8.6646527e-13 1.6821164e-15
0001f0 e4 4c 62 2a 20 b9 ca 29 c0 92 83 2c b9 73 e3 2b
       2.0099509e-13 9.002716e-14 3.7395365e-12 1.616144e-12
000200 4b 58 82 2c 02 c6 4a 28 99 55 a3 2a 0f 8b c0 28
       3.7046247e-12 1.1256189e-14 2.9014012e-13 2.1376589e-14
000210 f9 dd 0b 2a 48 32 d6 28 6e 17 4f 2a 1f 43 86 28
       1.2422692e-13 2.3780579e-14 1.8393422e-13 1.4906098e-14
000220 5b 7e e0 2b 3d 3a a4 2a b3 33 e2 2b c7 f5 da 28
       1.5951228e-12 2.9172663e-13 1.6072615e-12 2.4309451e-14
000230 f8 6a b4 2c d5 44 d4 2a e7 26 85 2c 12 59 a1 2a
       5.1277836e-12 3.7706527e-13 3.7844064e-12 2.866115e-13
000240 10 c6 5e 2c d5 c5 e4 2a bc fe 19 2e f2 1c 29 2d
       3.1658044e-12 4.063821e-13 3.5014422e-11 9.612965e-12
000250 2e 2f 17 2e f8 04 e6 2a 50 b2 24 29 ed 2c ad 26
       3.437533e-11 4.0859655e-13 3.6569977e-14 1.2016464e-15
000260 e2 d5 d1 29 02 74 66 26 cb 0e e4 28 63 6b 61 28
       9.318567e-14 7.99545e-16 2.53195e-14 1.2513295e-14
000270 37 0c f4 2a 4f 32 39 2a 85 a4 f2 2a 80 b6 f8 26
       4.3351583e-13 1.6448755e-13 4.3101994e-13 1.7257924e-15
000280 64 73 b9 2a 05 ca d3 28 b0 7b b5 2a c0 28 79 28
       3.294267e-13 2.3513318e-14 3.2237884e-13 1.3831113e-14
000290 af 86 5a 2a 93 aa 24 29 3d 39 36 2c d6 2a 5e 2b
       1.9409017e-13 3.6563265e-14 2.589553e-12 7.892969e-13
0002a0 f1 0f 31 2c 34 6a df 28 ff 62 5c 29 7e eb a1 27
       2.5162062e-12 2.4804032e-14 4.893568e-14 4.49418e-15
0002b0 23 f3 ca 28 d4 58 5c 26 6c f3 1b 29 ac c1 43 27
       2.2531949e-14 7.644822e-16 3.462805e-14 2.7166676e-15
0002c0 60 01 3b 2b 1a fa 01 2b b9 40 41 2b 88 cb ae 26
       6.6437654e-13 4.617709e-13 6.8657195e-13 1.2128843e-15
0002d0 e9 11 88 2d 0f cc 93 2b 7e b3 8a 2d 6a 86 4a 2b
       1.5469364e-11 1.0501616e-12 1.5768494e-11 7.1951353e-13
0002e0 5e d7 29 2d 8c c9 f0 2b 22 70 0d 2f 2f 72 30 2e
       9.654359e-12 1.7108966e-12 1.2863713e-10 4.0119182e-11
0002f0 d0 39 12 2f 0c a5 a3 2b 80 b4 95 2e be f5 c7 2c
       1.3299162e-10 1.1627656e-12 6.807799e-11 5.683203e-12
000300 e3 e8 3c 2e 72 b8 81 2c ed ea 2b 2e 72 44 9e 2c
       4.2953096e-11 3.686878e-12 3.9089555e-11 4.498229e-12
000310 76 f6 f2 2f cc 0b ef 2e c0 84 e5 2f 2f 82 e8 2c
       4.4194665e-10 1.0870557e-10 4.1749182e-10 6.60829e-12
000320 e0 70 6a 2d d1 84 90 2b 37 15 e1 2c 6a 36 4c 2b
       1.3326423e-11 1.0268679e-12 6.39724e-12 7.2550874e-13
000330 6b 4d 01 2d e4 e6 5e 2b 36 f6 ac 2e 83 0a 93 2d
       7.349991e-12 7.919067e-13 7.86539e-11 1.6716633e-11
000340 50 9d ad 2e 84 06 a0 2b 10 04 31 30 6e db 57 2e
       7.8950735e-11 1.1370492e-12 6.4398e-10 4.9080233e-11
000350 5a 3a de 2f 2c 92 06 2e 10 28 bf 2f dd 3a 60 2e
       4.0423026e-10 3.05979e-11 3.4771164e-10 5.0983984e-11
000360 11 43 89 31 ba ef 84 30 8a 18 83 31 a4 bd 66 2e
       3.9948493e-09 9.672398e-10 3.8153916e-09 5.246438e-11
000370 c9 4c 80 2d bd ad e1 2a c8 61 40 2e f3 26 d0 2a
       1.4586015e-11 4.0088584e-13 4.3742593e-11 3.697525e-13
000380 96 30 52 2d af 98 ae 2c 47 22 5e 2f 93 06 b8 2e
       1.1947906e-11 4.9623287e-12 2.020296e-10 8.368519e-11
000390 e4 4c 67 2f 34 3a 83 2b 51 38 a4 2f 3d f1 aa 2d
       2.1036645e-10 9.324264e-13 2.9871441e-10 1.9433894e-11
0003a0 e7 77 95 2f a4 08 8b 2d 45 be 45 2f a9 81 05 2e
       2.7188138e-10 1.5806308e-11 1.7984643e-10 3.035586e-11
0003b0 0b 9c 1e 31 5d 04 24 30 06 25 2c 31 22 ff c0 2d
       2.3080726e-09 5.9669053e-10 2.505034e-09 2.1941175e-11
0003c0 82 a7 2d 30 3d e0 35 2e 8f ab 08 30 d4 eb 17 2e
       6.3175076e-10 4.13538e-11 4.972031e-10 3.4542882e-11
0003d0 43 77 ca 2f f6 fa 72 2e 4a a4 a5 31 04 fb 9d 30
       3.6828326e-10 5.5247328e-11 4.8208095e-09 1.1494596e-09
0003e0 b7 58 b8 31 a5 a8 42 2e 5d c3 44 2e 6b 6c 2e 2c
       5.3651905e-09 4.426028e-11 4.4738758e-11 2.4787071e-12
0003f0 8c e1 95 2e 51 62 3a 2c 91 42 10 2e 79 6d 0a 2d
       6.815801e-11 2.6486766e-12 3.2800932e-11 7.8687e-12

exp_avg f4 [40]
000000 79 a8 0f b5 f8 c1 2c 34 e9 be 80 34 ba c8 93 b5
       -5.351681e-07 1.6089314e-07 2.3980763e-07 -1.1010773e-06
000010 7d df 74 b6 47 6f 40 b3 e9 5d 16 b4 cf b9 68 b4
       -3.648892e-06 -4.480469e-08 -1.4004003e-07 -2.167428e-07
000020 cd ad 08 37 ab 09 41 37 d2 13 dc b4 9a a1 16 34
       8.146698e-06 1.1505947e-05 -4.0992614e-07 1.4028629e-07
000030 05 48 85 34 96 cc ae b5 d7 6c 4b b6 44 cf a0 b3
       2.4825582e-07 -1.3023553e-06 -3.031271e-06 -7.488282e-08
000040 f3 06 bc b3 13 87 eb b3 3d 32 dc 36 8a 43 b7 36
       -8.755696e-08 -1.096761e-07 6.5623594e-06 5.4616876e-06
000050 cb 5d be b6 d9 3d e9 b7 6a e1 0c 37 0c 89 39 38
       -5.67336e-06 -2.7804565e-05 8.397134e-06 4.4235072e-05
000060 60 3d 9d 38 e1 0d 25 b7 ef 53 fb 34 a4 ea 14 b7
       7.4977754e-05 -9.837998e-06 4.6813463e-07 -8.876119e-06
000070 c9 3f f9 37 fc 3b 22 ba bc 98 09 b5 a0 02 14 34
       2.9712815e-05 -0.0006188748 -5.1258735e-07 1.3784529e-07
000080 9c 39 8b 34 ac 0b 62 b5 54 74 54 b6 e0 c4 64 b3
       2.5932684e-07 -8.4208546e-07 -3.1658174e-06 -5.3264444e-08
000090 ab f0 2a b4 8e 05 81 b4 9b fc 18 37 cf c2 21 37
       -1.5920038e-07 -2.4032164e-07 9.11872e-06 9.641705e-06

exp_avg_sq f4 [40]
000000 ef 44 1b 2e 54 5d 7f 2e 6e cb 91 2d 28 b4 49 2e
       3.5304145e-11 5.806318e-11 1.6574932e-11 4.586212e-11
000010 89 a7 28 30 87 10 80 2c 3b 33 ae 2d 8f 30 95 2c
       6.1356126e-10 3.6398137e-12 1.980426e-11 4.240226e-12
000020 12 0f d6 30 db 48 fc 31 10 87 00 2e 70 0e 5c 2e
       1.5574833e-09 7.342448e-09 2.922379e-11 5.003503e-11
000030 c2 f1 00 2e 93 63 bf 2d ff 97 d4 2f 8e 56 8a 2c
       2.9318555e-11 2.1758406e-11 3.8670575e-10 3.9318054e-12
000040 73 27 e4 2d 3e de ec 2c 7c 5c c4 30 0f 68 a3 31
       2.5938118e-11 6.7321973e-12 1.4287163e-09 4.7557545e-09
000050 ba f8 8e 30 ac 73 4a 33 45 0c 08 31 85 fb 07 33
       1.0402552e-09 4.7136993e-08 1.979758e-09 3.1660893e-08
000060 a0 0c 97 33 9e f2 98 31 da 70 7c 2f 11 a9 aa 2f
       7.033782e-08 4.4513646e-09 2.295936e-10 3.104295e-10
000070 6c e1 62 32 94 cf ad 36 75 31 21 2e 08 b5 37 2e
       1.3206186e-08 5.179967e-06 3.665109e-11 4.177017e-11
000080 3e 93 d7 2d d3 d9 d6 2d 12 5c 09 30 f4 b9 e3 2c
       2.4508059e-11 2.4425717e-11 4.997115e-10 6.472373e-12
000090 97 b2 18 2e d3 d6 1f 2d dd 55 18 31 b5 05 9e 31
       3.471942e-11 9.085804e-12 2.2167719e-09 4.599054e-09

exp_avg f4 [40]
000000 79 a8 0f b5 f7 c1 2c 34 e6 be 80 34 ba c8 93 b5
       -5.351681e-07 1.6089312e-07 2.3980755e-07 -1.1010773e-06
000010 80 df 74 b6 42 6f 40 b3 e7 5d 16 b4 ce b9 68 b4
       -3.6488927e-06 -4.4804672e-08 -1.4004e-07 -2.1674279e-07
000020 cd ad 08 37 af 09 41 37 cf 13 dc b4 9b a1 16 34
       8.146698e-06 1.1505951e-05 -4.0992606e-07 1.402863e-07
000030 07 48 85 34 96 cc ae b5 d9 6c 4b b6 48 cf a0 b3
       2.4825587e-07 -1.3023553e-06 -3.0312715e-06 -7.488285e-08
000040 fd 06 bc b3 12 87 eb b3 41 32 dc 36 90 43 b7 36
       -8.7557034e-08 -1.09676094e-07 6.5623612e-06 5.4616903e-06
000050 cd 5d be b6 da 3d e9 b7 6b e1 0c 37 0e 89 39 38
       -5.673361e-06 -2.7804566e-05 8.3971345e-06 4.423508e-05
000060 61 3d 9d 38 e2 0d 25 b7 f8 53 fb 34 a4 ea 14 b7
       7.497776e-05 -9.837999e-06 4.6813489e-07 -8.876119e-06
000070 ca 3f f9 37 fb 3b 22 ba be 98 09 b5 9e 02 14 34
       2.9712817e-05 -0.00061887474 -5.1258746e-07 1.3784526e-07
000080 9b 39 8b 34 a9 0b 62 b5 54 74 54 b6 ee c4 64 b3
       2.593268e-07 -8.420853e-07 -3.1658174e-06 -5.3264493e-08
000090 a8 f0 2a b4 8f 05 81 b4 9e fc 18 37 d3 c2 21 37
       -1.5920034e-07 -2.4032167e-07 9.118723e-06 9.641709e-06
