logs/vanilla_lstm/version_3/checkpoints/epoch=9-step=250.ckpt (torch, 17714 bytes, 12 tensors)

lstm.lstm.weight_ih_l0 f4 [40, 10]
-0.014209726 0.049743574 -0.26004958 -0.13764049 -0.22265476 -0.1859641 -0.3322483 -0.37120673
-0.14883177 -0.13528256 0.20898756 -0.28546187 -0.26800942 -0.24116324 -0.10713488 0.06259945
0.19147807 0.059815835 0.012601961 -0.21177547 0.069785595 0.3104058 0.049738787 -0.39879882
-0.37574157 -0.15500256 -0.061432313 0.22095293 -0.23111609 -0.24394548 -0.32128704 0.095544174
-0.24908014 0.1649218 0.29157862 0.14648837 -0.20126499 0.15427485 0.03694957 0.13266228
0.2386062 0.11703179 0.11209076 0.18261723 0.2935015 0.32784396 -0.24120302 -0.3071461
0.19926402 0.026505537 -0.342582 -0.09309418 0.07027067 -0.19356804 -0.25336346 0.038417496
0.19137773 0.07467324 -0.31602737 -0.042941518 0.19580129 0.050614055 -0.04823612 -0.29634318
0.18860145 -0.32104686 0.029450944 0.21744119 0.14112711 0.044471543 -0.10399872 0.28552073
-0.1814323 0.11141646 -0.2918205 -0.06944519 -0.34309283 0.082369156 -0.049389686 -0.08898283
-0.25926277 -0.27152073 -0.19428818 0.21052791 0.34245273 0.09574001 0.09535668 -0.2875984
-0.18166295 -0.14953999 0.20421496 0.19739573 -0.017373752 0.31857866 0.04490538 -0.1327953
-0.023787163 0.2423287 -0.1110296 0.31926 -0.21369308 0.15156066 -0.11217782 -0.18412526
-0.15196446 -0.47094783 -0.2931948 -0.21328264 -0.096854955 0.07136777 -0.24974875 -0.037409786
0.09331776 -0.32405165 0.08815365 0.0026538535 0.18307847 -0.30722067 -0.34577957 -0.32378215
0.09214612 0.19700903 0.27365705 0.17949148 -0.20244437 -0.27221444 0.17794845 0.09024119
0.18188891 -0.1822605 -0.22535992 -0.14182225 -0.13144507 -0.1760283 -0.011616913 -0.26016754
-0.23507258 0.18698175 -0.05187632 0.13736822 -0.13319215 -0.2984357 -0.21804926 -0.04340693
-0.103181444 -0.06370142 0.03437201 0.036951087 0.18606071 0.13760556 0.018672505 -0.016315091
-0.21207052 0.13173029 0.14888896 -0.15461719 0.23974605 -0.17232339 -0.22905913 0.023165701
-0.28559524 -0.0045369016 0.112716235 -0.30083418 0.19343935 -0.15063724 -0.07988163 -0.21659409
0.040824972 -0.27694044 0.021943502 0.022059662 0.20459466 0.14134367 -0.1716166 -0.37026772
-0.3348133 0.10231778 -0.24664825 -0.34396902 -0.088266656 -0.3588453 0.27938032 -0.22475022
0.10902476 0.29546437 0.25897598 0.13718295 0.24690013 -0.2675818 0.20094898 0.05461991
-0.17445345 0.24416514 0.06942205 -0.14177568 0.1956619 0.26029685 -0.11023131 0.30284804
-0.1813253 -0.27546966 -0.027884424 0.09079525 0.12489019 -0.4162023 -0.26007724 -0.32876244
-0.010037405 -0.09355754 0.24919656 -0.12815785 0.18200196 0.0141315535 -0.22231203 0.04256147
0.18253197 -0.29979706 -0.08757616 0.17391083 -0.3128034 0.27123773 -0.25901884 0.050736275
-0.28567907 -0.11782443 0.032874987 -0.27808148 0.17952855 -0.11723173 0.017913336 -0.057596184
-0.16501987 0.14598683 0.20797925 0.32528687 -0.030879201 -0.30235326 -0.0056849243 -0.26111218
0.1643605 -0.25578544 0.16117829 0.023930024 -0.1253775 -0.13845977 -0.24712293 0.1891384
0.1614539 -0.051390044 -0.12528634 0.17094444 0.040806986 -0.07804883 -0.07882044 -0.104114905
00000000: e9cf 68bc ebbf 4b3d 3825 85be a1f1 0cbe
00000010: 9cff 63be 5f6d 3ebe 731c aabe cf0e bebe
00000020: 5b67 18be 8387 0abe d600 563e 0f28 92be
00000030: 8838 89be 7ff3 76be 8869 dbbd 2434 803d
00000040: d412 443e 7301 753d 7578 4e3c abdb 58be
00000050: c0eb 8e3d 82ed 9e3e e6ba 4b3d 5c2f ccbe
00000060: 3361 c0be feb8 1ebe 73a0 7bbd 7c41 623e
00000070: b2a9 6cbe d8cc 79be bc7f a4be aaac c33d
00000080: dd0e 7fbe 43e1 283e cb49 953e 0c01 163e
00000090: 6918 4ebe 3afa 1d3e 6f58 173d 9fd8 073e
000000a0: 2f55 743e 5dae ef3d d78f e53d 0300 3b3e
000000b0: d445 963e 2adb a73e edfd 76be 4142 9dbe
000000c0: de0b 4c3e 2422 d93c e866 afbe 29a8 bebd
000000d0: 12ea 8f3d b336 46be dbb8 81be aa5b 1d3d
000000e0: 86f8 433e 49ee 983d 57ce a1be 72e3 2fbd
000000f0: 2280 483e af50 4f3d 3d93 45bd 4bba 97be
00000100: bd20 413e 4160 a4be 1b43 f13c e7a8 5e3e
00000110: a083 103e cb27 363d 48fd d4bd c62f 923e
00000120: 64c9 39be 502e e43d 7f69 95be 4839 8ebd
00000130: dda9 afbe 29b1 a83d d74c 4abd a13c b6bd
00000140: 17be 84be c404 8bbe 7bf3 46be a194 573e
00000150: f755 af3e 5713 c43d 5d4a c33d 1940 93be
00000160: da05 3abe 0321 19be ba1d 513e 1b22 4a3e
00000170: 6653 8ebc be1c a33e b4ee 373d 7efb 07be
00000180: 4cdd c2bc 0425 783e 7d63 e3bd 0c76 a33e
00000190: 5cd2 5abe b832 1b3e 7cbd e5bd 558b 3cbe
000001a0: 929c 1bbe 1320 f1be a11d 96be c466 5abe
000001b0: e45b c6bd 4429 923d 23be 7fbe 013b 19bd
000001c0: 621d bf3d 19ea a5be e789 b43d 46ec 2d3b
000001d0: ec78 3b3e 074c 9dbe 050a b1be c6c6 a5be
000001e0: 1bb7 bc3d bcbc 493e c71c 8c3e 9dcc 373e
000001f0: 944d 4fbe b15f 8bbe 1e38 363e 5fd0 b83d
00000200: 1641 3a3e 7fa2 3abe c0c4 66be da39 11be
00000210: 8999 06be c340 34be dd54 3ebc ae34 85be
00000220: deb6 70be 2578 3f3e 447c 54bd 41aa 0c3e
00000230: 8663 08be 90cc 98be 4e48 5fbe 77cb 31bd
00000240: cb50 d3bd e475 82bd aac9 0c3d 065a 173d
00000250: b386 3e3e 79e8 0c3e 15f7 983c 3aa7 85bc
00000260: 0429 59be 4ee4 063e 5976 183e f853 1ebe
00000270: fd7f 753e 8b75 30be 7a8e 6abe ffc5 bd3c
00000280: 8a39 92be 4aaa 94bb c5d7 e63d f006 9abe
00000290: f714 463e a640 1abe fb98 a3bd d7ca 5dbe
000002a0: 1638 273d 23cb 8dbe dcc2 b33c 77b6 b43c
000002b0: 4381 513e 65bc 103e 43bc 2fbe bb93 bdbe
000002c0: a66c abbe fc8b d13d 5c91 7cbe b51c b0be
000002d0: 26c5 b4bd 92ba b7be f00a 8f3e ec24 66be
000002e0: 6048 df3d 1b47 973e 8098 843e b079 0c3e
000002f0: 63d3 7c3e 7b00 89be 92c5 4d3e 20b9 5f3d
00000300: eda3 32be 6d06 7a3e 262d 8e3d a52d 11be
00000310: 985b 483e a145 853e f4c0 e1bd e60e 9b3e
00000320: 57ad 39be 5c0a 8dbe e06d e4bc dcf2 b93d
00000330: 6ec6 ff3d 7818 d5be d828 85be 8d53 a8be
00000340: ee73 24bc 189b bfbd 622d 7f3e d03b 03be
00000350: b95e 3a3e 0888 673c c4a5 63be f054 2e3d
00000360: a9e9 3a3e 007f 99be 215b b3bd ae15 323e
00000370: c427 a0be acdf 8a3e 1e9e 84be d7d0 4f3d
00000380: 8744 92be ef4d f1bd eca7 063d b260 8ebe
00000390: 55d6 373e 3017 f0bd fdbe 923c fae9 6bbd
000003a0: f8fa 28be 927d 153e 83f8 543e 008c a63e
000003b0: 61f6 fcbc 0cce 9abe 9a48 babb 7fb0 85be
000003c0: 1e4e 283e 4ff6 82be ec0b 253e e608 c43c
000003d0: f662 00be 66c8 0dbe cb0d 7dbe 7fad 413e
000003e0: 2c54 253e 5e7e 52bd 104b 00be 0f0c 2f3e
000003f0: 3a25 273d 11d8 9fbd 9c6c a1bd 323a d5bd

lstm.lstm.weight_hh_l0 f4 [40, 10]
-0.06484532 -0.037049778 0.27932355 -0.15866834 0.1513559 0.028509 -0.07350946 -0.1549639
0.120797954 0.25876966 -0.17522188 -0.05600056 -0.22541982 -0.10606682 -0.060467903 -0.20328426
-0.28275213 0.3623315 0.16865107 -0.19417706 0.11339077 0.068054095 0.27224356 0.27253652
-0.31842136 0.13856606 0.08971285 0.2330339 -0.047717057 0.05425753 -0.3331137 0.30168244
-0.09323078 -0.027252307 0.18134925 0.13641053 -0.15694688 0.2253905 -0.28022757 -0.050331146
-0.33573136 0.29008898 0.020620488 0.13641435 0.14289258 0.10051702 0.13394378 0.30917713
-0.14087768 0.20577802 0.038751476 -0.1503138 -0.2191926 0.24981189 0.32184082 0.06852976
-0.25208822 0.2523817 0.1333386 -0.22002299 0.25941852 0.116709806 -0.22521602 -0.12824486
-0.18003415 -0.3490943 -0.21518666 -0.01528321 0.23903692 0.30646014 -0.12818146 0.21913147
0.03706763 -0.16449712 -0.27489465 -0.23855408 0.23141982 0.19192232 0.3565706 0.12680429
0.00017451901 0.2984926 -0.022300187 -0.28608602 0.0027631428 -0.1670995 -0.29555568 0.27324072
0.1867875 0.21033667 -0.37627986 -0.0019099207 -0.13301936 0.028840324 -0.11196007 -0.2817383
-0.48640746 0.013342644 0.1458135 -0.077268176 0.2807534 0.26564276 0.17633232 0.25554994
-0.18968119 -0.076176316 -0.29848522 0.029911807 0.12164819 -0.087727465 0.06323097 0.061061822
-0.24876468 0.2032303 0.045578673 0.29736948 0.24111548 0.029022228 -0.084063545 0.1783949
-0.18037608 -0.21147436 -0.148605 0.39682022 0.2943512 -0.4069347 -0.051525507 -0.15076132
0.23404713 0.22073987 -0.2920318 0.31031996 -0.09076061 0.09289034 0.08244996 0.0037598386
-0.3346259 -0.048021805 0.017770236 -0.20065208 0.03602068 0.19923897 0.1587038 -0.3567056
-0.20672283 0.3528972 0.2509155 -0.051640864 -0.38826805 -0.32612732 -0.046063196 0.06395218
0.08066873 0.06441613 0.11553831 0.0581365 -0.15338948 0.08516909 0.2267227 -0.07775015
0.21260963 0.07772161 0.20290865 0.15872315 -0.16534525 0.035517342 0.036378037 -0.23002173
0.26843503 0.34658858 -0.23010966 0.21413998 0.013444787 0.1663695 0.17581321 -0.19175588
0.11955656 -2.2247812e-05 0.21884991 0.43386135 -0.28648397 0.08389534 0.17280255 -0.28175306
-0.12018969 -0.09981255 -0.33321786 0.3705744 0.13646731 -0.037887715 -0.1493259 -0.10384107
0.022078404 -0.0739245 0.028108545 -0.08318601 -0.20058152 -0.0014496241 -0.35332912 -0.25979605
-0.011128173 0.14145206 0.12287826 0.42781386 -0.1373901 0.0854337 -0.34412265 -0.1987635
0.2650936 0.33640897 0.00012466086 -0.3439776 -0.12588117 0.37397668 0.04949148 -0.3490042
-0.19345975 0.027987458 0.20151474 0.08997581 0.10202343 -0.31862488 -0.051057044 0.31120616
-0.20780583 0.047487535 0.15772854 0.27352723 0.35376072 0.11930508 -0.2631873 -0.090411864
-0.067412145 -0.12348926 -0.05423169 0.06879384 -0.2974369 0.116707 0.1984261 -0.30423993
0.011953258 0.115493745 -0.08043996 0.3775814 0.1935342 0.17151186 -0.18138842 -0.03435174
0.147058 0.12516017 -0.2472019 0.04367226 -0.06044779 -0.044063743 0.07672308 -0.14455071
00000000: a0cd 84bd 82c1 17bd 7f03 8f3e f479 22be
00000010: 0bfd 1a3e b58b e93c 218c 96bd dbae 1ebe
00000020: eb64 f73d 757d 843e 5d6d 33be d860 65bd
00000030: 74d4 66be 9039 d9bd 31ad 77bd c029 50be
00000040: e3c4 90be 8483 b93e deb2 2c3e 5ad6 46be
00000050: 6c39 e83d f25f 8b3d 8263 8b3e e889 8b3e
00000060: 2008 a3be 43e4 0d3e 5fbb b73d 70a0 6e3e
00000070: f672 43bd 253d 5e3d e18d aabe 1f76 9a3e
00000080: c7ef bebd 3b40 dfbc 9eb3 393e 34af 0b3e
00000090: afb6 20be c4cc 663e fd79 8fbe 0828 4ebd
000000a0: fbe4 abbe 8b86 943e 4cec a83c 34b0 0b3e
000000b0: 6f52 123e dedb cd3d 8f28 093e 774c 9e3e
000000c0: 3d42 10be 79b7 523e deb9 1e3d dceb 19be
000000d0: 0674 60be b0ce 7f3e 52c8 a43e 5559 8c3d
000000e0: b511 81be 2d38 813e ea89 083e b54d 61be
000000f0: 81d2 843e 8d05 ef3d 079f 66be 9f52 03be
00000100: df5a 38be 7dbc b2be e459 5cbe 6e66 7abc
00000110: 18c6 743e 58e8 9c3e 0042 03be 0064 603e
00000120: 3ad4 173d ef71 28be febe 8cbe 8547 74be
00000130: 51f9 6c3e 4987 443e 6c90 b63e fcd8 013e
00000140: 17ff 3639 06d4 983e e2ae b6bc de79 92be
00000150: d815 353b 221c 2bbe 1353 97be 35e6 8b3e
00000160: 3945 3f3e 7f62 573e c1a7 c0be 4e56 faba
00000170: 3a36 08be 8b42 ec3c 524b e5bd 0140 90be
00000180: 660a f9be 1b9b 5a3c 2250 153e c73e 9ebd
00000190: e9be 8f3e 5402 883e 7690 343e 71d7 823e
000001a0: c93b 42be 5402 9cbd 0ed3 98be 9b09 f53c
000001b0: b022 f93d 75aa b3bd 3d7f 813d f61b 7a3d
000001c0: 2bbc 7ebe 9b1b 503e b4b0 3a3d d040 983e
000001d0: fae6 763e 06c0 ed3c 8229 acbd 27ad 363e
000001e0: 82b4 38be bc8c 58be e92b 18be 052c cb3e
000001f0: 33b5 963e bf59 d0be 690c 53bd 2d61 1abe
00000200: 0daa 6f3e a209 623e 3185 95be 42e2 9e3e
00000210: b3e0 b9bd 4a3d be3d 86db a83d a067 763b
00000220: 1654 abbe 83b2 44bd e392 913c bd77 4dbe
00000230: 6c8a 133d 4d05 4c3e 4083 223e 1ea2 b6be
00000240: 26af 53be f1ae b43e ff77 803e 5f85 53bd
00000250: 12cb c6be 29fa a6be c3ac 3cbd 5cf9 823d
00000260: a635 a53d 9bec 833d 599f ec3d 8a20 6e3d
00000270: 2212 1dbe 226d ae3d ff29 683e 783b 9fbd
00000280: 57b6 593e 822c 9f3d 49c7 4f3e 5288 223e
00000290: 4450 29be a27a 113d 2301 153d d18a 6bbe
000002a0: 5170 893e 0f74 b13e dea1 6bbe 8347 5b3e
000002b0: 8647 5c3c c45c 2a3e 6108 343e a75b 44be
000002c0: 12da f43d d0a0 bab7 311a 603e 1323 de3e
000002d0: 07ae 92be 52d1 ab3d 27f3 303e f041 90be
000002e0: 0326 f6bd 866a ccbd 889b aabe eebb bd3e
000002f0: 16be 0b3e 2630 1bbd e4e8 18be a0aa d4bd
00000300: c5dd b43c ba65 97bd e443 e63c 6d5d aabd
00000310: 3e65 4dbe 5001 beba 8ee7 b4be fd03 85be
00000320: f152 36bc cfd8 103e 99a7 fb3d 6b0a db3e
00000330: feaf 0cbe ddf7 ae3d d830 b0be a988 4bbe
00000340: 59ba 873e cc3d ac3e 65b7 0239 d51d b0be
00000350: fee6 00be df79 bf3e 94b7 4a3d aeb0 b2be
00000360: 501a 46be f445 e53c e159 4e3e 3d45 b83d
00000370: a9f1 d03d cd22 a3be 3121 51bd 6a56 9f3e
00000380: 0dcb 54be 4a82 423d 9783 213e c30b 8c3e
00000390: 2020 b53e 3956 f43d 7cc0 86be db29 b9bd
000003a0: 610f 8abd f0e7 fcbd 0c22 5ebd c9e3 8c3d
000003b0: a649 98be 1404 ef3d 3630 4b3e 56c5 9bbe
000003c0: 99d7 433c fc87 ec3d b5bd a4bd 5952 c13e
000003d0: d42d 463e cea0 2f3e e3bd 39be 69b4 0cbd
000003e0: 5f96 163e fd29 003e 7f22 7dbe afe1 323d
000003f0: 1a98 77bd 2f7c 34bd fd20 9d3d 1a05 14be

lstm.lstm.bias_ih_l0 f4 [40]
0.26501614 0.21982858 -0.22372368 0.2154417 -0.040394522 -0.18468288 -0.21628211 0.058123045
0.20724273 -0.43818277 0.073240474 -0.14253452 -0.3367163 0.07161407 -0.19431408 0.004314288
0.09913247 0.2636018 -0.16455749 -0.15880087 0.035914138 -0.1446654 0.24607007 0.12556078
-0.1409899 0.059208013 -0.0017475964 -0.1026368 0.032219946 0.053273518 -0.24354991 0.22614571
0.27643687 -0.3165503 0.13216414 -0.1646813 0.22538477 0.015875453 0.19420299 0.114602126
00000000: 32b0 873e be1a 613e d217 65be c09c 5c3e
00000010: ba74 25bd 821d 3dbe 0f79 5dbe 6e12 6e3d
00000020: 7037 543e 7e59 e0be 1aff 953d 92f4 11be
00000030: 1466 acbe 66aa 923d 45fa 46be df5e 8d3b
00000040: f705 cb3d d1f6 863e c281 28be b29c 22be
00000050: b41a 133d 2b23 14be cbf9 7b3e 0193 003e
00000060: a85f 10be 1a84 723d 9b0f e5ba 3e33 d2bd
00000070: 10f9 033d 5535 5a3d 2665 79be be92 673e
00000080: 2289 8d3e e212 a2be 0956 073e 37a2 28be
00000090: 44cb 663e 3d0d 823c 26dd 463e 85b4 ea3d

lstm.lstm.bias_hh_l0 f4 [40]
-0.25284848 -0.3282425 -0.18260324 -0.21788023 0.23613107 0.048037264 -0.17982924 -0.08638884
0.1276324 -0.32788223 0.14938718 0.10550453 0.28849494 -0.31221846 -0.37836075 -0.33807364
-0.013084896 -0.07814058 -0.20255361 -0.07832378 0.33113062 0.17653196 0.13773246 -0.06929575
0.11109333 0.044136304 0.10860601 -0.27046862 0.093322925 0.0590498 0.17152312 -0.31969506
-0.23998418 0.15496351 -0.15942585 -0.1994514 0.15572335 0.3048401 -0.006899433 -0.330872
00000000: 5b75 81be 670f a8be 58fc 3abe ff1b 5fbe
00000010: 58cc 713e b9c2 443d 2825 38be a2ec b0bd
00000020: 11b2 023e 2ee0 a7be f4f8 183e c212 d83d
00000030: 9cb5 933e 19db 9fbe 80b8 c1be fd17 adbe
00000040: 0862 56bc 2b08 a0bd 376a 4fbe 3868 a0bd
00000050: f489 a93e cbc4 343e bd09 0d3e eeea 8dbd
00000060: e684 e33d 45c8 343d d46c de3d dd7a 8abe
00000070: 1720 bf3d 34de 713d c2a3 2f3e 12af a3be
00000080: 6abe 75be c1ae 1e3e 8840 23be fd3c 4cbe
00000090: f175 1f3e 0014 9c3e a414 e2bb 0e68 a9be

exp_avg f4 [40, 10]
2.9787948e-08 4.0450047e-08 4.9341555e-08 5.2525497e-08 6.073318e-08 7.391614e-08 6.600225e-08 5.812738e-08
5.4721486e-08 5.7468277e-08 -3.5207887e-10 -3.7446427e-10 -4.3721277e-10 -2.8218758e-10 -1.5764265e-10 -2.6777136e-10
-2.2208965e-10 -1.3937958e-10 -2.505512e-10 -3.691413e-10 6.1907497e-09 7.629803e-09 1.0620862e-08 1.1824019e-08
1.4220503e-08 1.7452914e-08 1.5248363e-08 1.4140767e-08 1.3344449e-08 1.3668517e-08 2.1795157e-09 1.2173217e-09
3.855425e-10 -4.0798181e-10 -8.152641e-10 -1.0643005e-09 -1.3126891e-09 -9.864021e-10 -8.385173e-10 -5.1576327e-10
-2.9905913e-09 -2.4051585e-09 -2.5334785e-09 -2.427379e-09 -2.6377422e-09 -3.108142e-09 -2.0663748e-09 -2.0507125e-09
-2.0862014e-09 -2.4113131e-09 6.001417e-10 4.8910753e-10 6.3971217e-10 7.9039286e-10 9.947495e-10 1.2111997e-09
9.364812e-10 7.267935e-10 6.66252e-10 7.1505324e-10 4.0874673e-09 3.8741934e-09 3.899918e-09 2.7363485e-09
2.4360844e-09 3.166544e-09 1.73118e-09 7.0555534e-10 2.5793576e-10 6.322085e-10 1.8369082e-08 2.3725704e-08
3.0605953e-08 3.449972e-08 4.0207723e-08 4.7357428e-08 4.154913e-08 3.710808e-08 3.48619e-08 3.5826506e-08
-9.0435426e-10 6.6814054e-11 1.2600267e-11 1.7462104e-10 5.1812176e-11 -5.5906774e-10 -1.2538835e-10 1.7086409e-10
2.366044e-10 6.1398046e-11 4.9225942e-08 4.9676842e-08 5.5966474e-08 6.307058e-08 5.0460255e-08 2.6677377e-08
2.9630833e-08 4.159359e-08 4.367977e-08 3.6451162e-08 3.427763e-08 4.6519524e-08 5.8718264e-08 6.5150765e-08
7.5167854e-08 8.770501e-08 7.713586e-08 6.8764045e-08 6.435703e-08 6.605586e-08 -2.3625796e-10 -2.0617802e-10
-1.1412058e-10 -4.6862805e-11 -1.187469e-10 -1.7429552e-10 -1.1781963e-10 -2.0927327e-10 -2.8473449e-10 -3.0021616e-10
4.32262e-09 6.1121184e-09 8.672914e-09 9.707672e-09 1.1509067e-08 1.40375835e-08 1.2362307e-08 1.1274749e-08
1.0422312e-08 1.0711101e-08 1.5136697e-09 2.2491752e-10 -5.1826093e-10 -5.347713e-10 -2.1990057e-10 -1.0908775e-10
-5.9004834e-10 -5.327275e-10 -3.4997216e-10 -3.238779e-10 -1.8751707e-09 -1.7203085e-09 -1.8502696e-09 -1.4698159e-09
-1.6055439e-09 -2.4385725e-09 -2.0208655e-09 -1.6630469e-09 -1.4929447e-09 -1.7657188e-09 4.6633597e-10 4.4635512e-10
5.3425336e-10 5.4382226e-10 6.2105976e-10 8.051483e-10 6.988404e-10 5.961855e-10 5.128023e-10 5.769647e-10
4.1925023e-09 3.6186398e-09 3.0964757e-09 2.3040343e-09 2.311836e-09 3.0680716e-09 1.8183521e-09 8.120244e-10
3.0591768e-10 7.066647e-10 1.8715763e-08 2.6179192e-08 3.3484664e-08 3.7186588e-08 4.2738222e-08 4.941506e-08
4.293026e-08 3.797444e-08 3.5519474e-08 3.7105597e-08 -5.8138366e-10 -3.3543354e-10 -5.394573e-10 -1.8211944e-10
-2.1207636e-10 -5.947798e-10 -9.554743e-11 2.3475896e-10 3.1205077e-10 4.7312723e-11 2.2281258e-08 2.5520675e-08
3.3938186e-08 3.6287013e-08 2.5005718e-08 1.1372102e-08 1.515644e-08 1.9779224e-08 2.1611664e-08 2.1952983e-08
1.2601983e-07 1.693401e-07 2.1471271e-07 2.3631466e-07 2.7052522e-07 3.1896369e-07 2.833598e-07 2.529963e-07
2.3467513e-07 2.4131035e-07 1.1884846e-08 1.8595182e-08 2.8250275e-08 3.3834144e-08 4.110097e-08 4.662849e-08
3.920625e-08 3.953496e-08 4.074153e-08 4.263526e-08 2.5322473e-08 3.419654e-08 4.7297554e-08 5.254343e-08
6.2504235e-08 7.6772544e-08 6.733565e-08 6.145456e-08 5.7494617e-08 5.932362e-08 -5.78338e-08 -2.3321231e-08
-8.896389e-09 6.350148e-09 8.646365e-09 9.914885e-09 4.2244757e-08 4.630112e-08 4.0642416e-08 3.072973e-08
1.2474106e-07 1.12580615e-07 1.2048173e-07 1.1619959e-07 1.3233496e-07 1.5753545e-07 1.0890716e-07 9.073428e-08
9.0358746e-08 1.06082794e-07 1.4157345e-08 1.34188145e-08 1.546496e-08 1.537668e-08 1.8487276e-08 2.5469754e-08
00000000: 64e0 ff32 4cbb 2d33 9deb 5333 6598 6133
00000010: 6b6c 8233 d4bb 9e33 1fbd 8d33 bba7 7933
00000020: e906 6b33 0ad3 7633 b28e c1af 29dd cdaf
00000030: 3a5c f0af 5f22 9baf 7654 2daf 7835 93af
00000040: ae30 74af dd3f 19af f2bd 89af 05f0 caaf
00000050: 69b6 d431 3a14 0332 0c77 3632 9622 4b32
00000060: 6f4e 7432 5deb 9532 81fb 8232 c0ef 7232
00000070: 8241 6532 c6d2 6a32 72c6 1531 b34e a730
00000080: 48f4 d32f 564a e0af 1c19 60b0 bf46 92b0
00000090: 246a b4b0 f091 87b0 697d 66b0 9dc5 0db0
000000a0: 0a83 4db1 ff47 25b1 6d19 2eb1 e7ce 26b1
000000b0: a743 35b1 0397 55b1 0d00 0eb1 84ec 0cb1
000000c0: d85c 0fb1 45b4 25b1 38f7 2430 e271 0630
000000d0: bed7 2f30 f442 5930 a3b7 8830 4d77 a630
000000e0: 81b5 8030 8cc7 4730 5123 3730 668d 4430
000000f0: be71 8c31 c41d 8531 0b00 8631 5a0a 3c31
00000100: 0d68 2731 6e9a 5931 7bee ed30 0bf1 4130
00000110: 3bcd 8d2f b8c7 2d30 0aca 9d32 60cd cb32
00000120: 9a73 0333 d82c 1433 dcb0 2c33 0b66 4b33
00000130: c073 3233 c460 1f33 10bb 1533 a9df 1933
00000140: 4696 78b0 f8ec 922e 8faa 5d2d 74ff 3f2f
00000150: 53df 632e e5ac 19b0 afdd 09af f7dd 3b2f
00000160: 1c13 822f 0704 872e 7f6c 5333 445c 5533
00000170: ca5f 7033 6b71 8733 a3b9 5833 2c28 e532
00000180: e486 fe32 a3a4 3233 6a9a 3b33 7a8e 1c33
00000190: a738 1333 c2cc 4733 6a31 7c33 03e9 8b33
000001a0: f76b a133 5758 bc33 e3a5 a533 6fab 9333
000001b0: a734 8a33 98da 8d33 5ae2 81af f4b1 62af
000001c0: 2df4 faae d41a 4eae 4890 02af d4a3 3faf
000001d0: 478b 01af 3019 66af d188 9caf ab0b a5af
000001e0: 2b86 9431 c302 d231 e1ff 1432 cbc6 2632
000001f0: 69b9 4532 f229 7132 0062 5432 dfb2 4132
00000200: d00d 3332 ec03 3832 8509 d030 a74c 772f
00000210: 5f75 0eb0 2fff 12b0 82c8 71af f2e2 efae
00000220: f630 22b0 5d6f 12b0 3466 c0af c30d b2af
00000230: 5adc 00b1 f96f ecb0 934c feb0 8d02 cab0
00000240: 0eaa dcb0 d293 27b1 71df 0ab1 4391 e4b0
00000250: 5230 cdb0 b5ad f2b0 7a2f 0030 e662 f52f
00000260: bdda 1230 177c 1530 32b7 2a30 4651 5d30
00000270: 8518 4030 d3e0 2330 41f5 0c30 4898 1e30
00000280: a40d 9031 c9ab 7831 c7c9 5431 0055 1e31
00000290: 40de 1e31 16d6 5231 94e9 f930 2335 5f30
000002a0: 162e a82f 1c3f 4230 66c4 a032 a7e0 e032
000002b0: c7d0 0f33 16b7 1f33 2c8f 3733 6f3c 5433
000002c0: 5262 3833 5719 2333 138e 1833 095e 1f33
000002d0: 3dcf 1fb0 1368 b8af ef48 14b0 113e 48af
000002e0: 302e 69af e87d 23b0 6c1c d2ae 630f 812f
000002f0: 3e8d ab2f 6415 502e 0165 bf32 8f38 db32
00000300: 6ec3 1133 fed9 1b33 28cc d632 095f 4332
00000310: 5d31 8232 f9e6 a932 8da4 b932 1f93 bc32
00000320: 1150 0734 dad3 3534 c88b 6634 aebd 7d34
00000330: b43c 9134 093e ab34 ad20 9834 8cd3 8734
00000340: 02fb 7b34 718d 8134 1b2e 4c32 3dbb 9f32
00000350: 03ab f232 0951 1133 ff86 3033 9144 4833
00000360: ba63 2833 26cd 2933 c9fb 2e33 f71d 3733
00000370: b584 d932 7edf 1233 3624 4b33 1dac 6133
00000380: 113a 8633 27de a433 2a9a 9033 00f9 8333
00000390: 00f0 7633 03cb 7e33 f064 78b3 ee53 c8b2
000003a0: bcd6 18b2 7e30 da31 1e8b 1432 2056 2a32
000003b0: 9a70 3533 9fdc 4633 cf8e 2e33 b2fb 0333
000003c0: 90f0 0534 d9c3 f133 c45d 0134 6689 f933
000003d0: f517 0e34 0427 2934 58e0 e933 b3d9 c233
000003e0: 3f0b c233 a2cf e333 a938 7332 9288 6632
000003f0: cfd7 8432 ad15 8432 f3cd 9e32 95c8 da32

exp_avg_sq f4 [40, 10]
1.1762963e-13 3.570857e-13 3.25447e-13 1.867228e-13 1.5462513e-13 3.4810864e-13 3.1084686e-13 1.2772232e-13
3.4005839e-13 3.8400232e-13 5.7243815e-16 2.792867e-15 2.7738942e-15 1.2969792e-15 2.73459e-16 1.3982631e-15
2.1188222e-15 4.709787e-16 2.2003762e-15 3.0750206e-15 3.1985038e-14 3.6056925e-14 1.8346612e-14 1.6543492e-14
2.0147119e-14 3.797065e-14 1.9924222e-14 2.4913341e-14 4.4498466e-14 2.4492271e-14 6.5104752e-15 1.7110879e-14
8.557272e-15 1.948377e-15 4.8497795e-15 1.3776929e-14 7.620631e-15 2.6875265e-15 1.6425158e-14 1.1716256e-14
2.5976715e-14 8.909589e-14 5.9660556e-14 2.0306426e-14 1.9947538e-14 6.508821e-14 5.0650253e-14 1.237218e-14
7.908056e-14 7.4558164e-14 1.7122534e-16 3.6955714e-16 2.9536322e-16 2.628625e-16 3.067141e-16 3.3937045e-16
2.7685576e-16 1.7531366e-16 3.1354526e-16 4.0278285e-16 7.882944e-15 1.7256789e-14 1.4760588e-14 8.838389e-15
8.486957e-15 1.876257e-14 1.392798e-14 6.7339623e-15 1.5973903e-14 1.6335979e-14 3.7736378e-14 1.0295712e-13
1.02571794e-13 6.2840426e-14 5.928191e-14 1.0617953e-13 9.397226e-14 5.023736e-14 9.996651e-14 1.2238798e-13
1.0748423e-13 1.6015e-13 5.1101996e-14 2.4464483e-14 6.394966e-14 1.2144814e-13 4.592605e-14 5.679203e-14
1.7758288e-13 7.773173e-14 1.2538083e-11 1.9179439e-12 2.4406757e-12 6.7647927e-12 9.232098e-12 1.5602134e-12
9.3386115e-12 1.6315898e-11 3.54863e-12 1.7940453e-12 1.838879e-13 5.311883e-13 4.599174e-13 2.5232263e-13
2.3100917e-13 4.999874e-13 4.332558e-13 1.9300547e-13 5.0976476e-13 5.541338e-13 4.1155886e-16 2.533465e-15
3.1391973e-15 1.4974286e-15 2.246357e-16 1.3935158e-15 2.1929603e-15 4.2292022e-16 1.8528204e-15 3.2955312e-15
2.614985e-14 2.8819913e-14 1.537873e-14 1.3476967e-14 1.5940894e-14 3.10666e-14 1.6441638e-14 2.0201295e-14
3.5300196e-14 1.9973855e-14 6.751155e-15 1.9629418e-14 1.01100845e-14 1.6103841e-15 5.558189e-15 1.3957026e-14
7.8389765e-15 2.5914825e-15 1.8527972e-14 1.3949105e-14 2.5753439e-14 7.8718824e-14 4.9203107e-14 1.6055676e-14
1.7680249e-14 5.471636e-14 4.0913372e-14 1.19625625e-14 7.208154e-14 6.252915e-14 9.7762154e-17 5.2233075e-16
7.4402813e-16 2.516125e-16 1.5357231e-16 5.7518836e-16 4.967197e-16 1.1017676e-16 4.0393257e-16 7.974453e-16
9.368885e-15 2.2704925e-14 1.8614964e-14 1.0270159e-14 1.1046209e-14 2.3979477e-14 1.6632446e-14 7.5156225e-15
2.0468658e-14 2.2048447e-14 4.949369e-14 1.2475918e-13 1.2305693e-13 7.6667134e-14 7.499508e-14 1.357746e-13
1.1716962e-13 6.3908975e-14 1.2322726e-13 1.4570144e-13 1.419383e-13 2.185883e-13 6.660504e-14 2.9092732e-14
8.524644e-14 1.6126541e-13 5.980266e-14 7.3413e-14 2.409867e-13 1.0458365e-13 8.545812e-12 1.0420679e-12
1.8862373e-12 4.8024328e-12 6.1244915e-12 9.566872e-13 7.77215e-12 1.1773389e-11 2.0069708e-12 1.3213877e-12
2.6030306e-12 7.329211e-12 6.0693278e-12 3.3919046e-12 3.0984035e-12 6.7711184e-12 5.9517677e-12 2.702563e-12
7.151584e-12 7.4302205e-12 1.099036e-13 5.325572e-13 6.127467e-13 3.0550782e-13 8.190028e-14 3.0338037e-13
4.573587e-13 1.256475e-13 4.196359e-13 6.6797647e-13 3.689596e-13 3.9571547e-13 2.0572437e-13 2.0285371e-13
2.5406906e-13 4.379541e-13 2.395457e-13 3.1878815e-13 5.1958e-13 2.8600958e-13 2.059787e-12 4.5781152e-12
2.3987925e-12 1.0577333e-12 1.6846494e-12 3.6175295e-12 2.2218275e-12 1.114117e-12 4.448833e-12 3.1787507e-12
3.3608966e-12 8.95472e-12 5.791344e-12 2.4321606e-12 2.786767e-12 6.651469e-12 4.898026e-12 1.965283e-12
8.238193e-12 7.1875986e-12 1.522584e-12 4.7649723e-12 3.445114e-12 1.2846258e-12 8.6771367e-13 3.3617345e-12
00000000: 6f70 042a 7905 c92a db35 b72a 2f3b 522a
00000010: a917 2e2a bef7 c32a c1fd ae2a 74cd 0f2a
00000020: 946f bf2a 912c d82a 7bfe 2426 4e3f 4927
00000030: 51e1 4727 16ea ba26 6da3 9d25 ce82 c926
00000040: 5fad 1827 18c0 0726 c78d 1e27 1e94 5d27
00000050: 3d0c 1029 ce62 2229 6840 a528 b202 9528
00000060: 1878 b528 2e01 2b29 2176 b328 4166 e028
00000070: 3d67 4829 559b dc28 8990 ea27 001f 9a28
00000080: 7427 1a28 3665 0c27 52bb ae27 df2e 7828
00000090: f547 0928 1da8 4127 d6f1 9328 b20f 5328
000000a0: 3afa e928 49a0 c829 f857 8629 6ee7 b628
000000b0: e4ab b328 cc90 9229 c41b 6429 9ce0 5e28
000000c0: d712 b229 dbe3 a729 cd68 4525 0209 d525
000000d0: eb43 aa25 a887 9725 03cf b025 3da2 c325
000000e0: b398 9f25 761f 4a25 1dbf b425 4230 e825
000000f0: aa01 0e28 726f 9b28 99f3 8428 e037 1f28
00000100: 2ee3 1828 8aff a828 78e7 7a28 d79d f227
00000110: 50e1 8f28 3424 9328 15f3 2929 bdd6 e729
00000120: 9df8 e629 0a81 8d29 b27d 8529 5518 ef29
00000130: 529b d329 bc3f 6229 c51a e129 efcb 092a
00000140: 7108 f229 1850 342a 9724 6629 425b dc28
00000150: 7800 9029 0bbd 082a 21d5 4e29 c1c4 7f29
00000160: c8f0 472a 4b09 af29 8292 5c2d 9bf6 062c
00000170: 4ebf 2b2c d603 ee2c ac69 222d 9d94 db2b
00000180: 5e49 242d 2384 8f2d 6fb6 792c 4b7d fc2b
00000190: 140a 4f2a 2784 152b 8b74 012b 860b 8e2a
000001a0: ee0b 822a e4bb 0c2b bee6 f32a 0a4e 592a
000001b0: 6c7c 0f2b 8cf9 1b2b 5e3f ed25 2e8e 3627
000001c0: f833 6227 5dcd d726 617e 8125 a9d3 c826
000001d0: fa04 1e27 02cc f325 8182 0527 d277 6d27
000001e0: 7389 eb28 19cb 0129 f084 8a28 8ac7 7228
000001f0: 3395 8f28 5ae9 0b29 d617 9428 04f5 b528
00000200: 5bfa 1e29 93e8 b328 6a3c f327 5bce b028
00000210: 8920 3628 b014 e826 3f41 c827 6c6d 7b28
00000220: e636 0d28 6abc 3a27 98e2 a628 e448 7b28
00000230: 63f7 e728 5042 b129 5297 5d29 de9d 9028
00000240: e13f 9f28 ab6b 7629 e841 3829 957f 5728
00000250: 2e50 a229 9acd 8c29 976c e124 358d 1626
00000260: 9673 5626 730b 9125 8c0e 3125 69c9 2526
00000270: 722b 0f26 e10c fe24 edd9 e825 14d9 6526
00000280: 5bc6 2828 fe81 cc28 2fab a728 c002 3928
00000290: a6fd 4628 e9fc d728 cfcf 9528 b163 0728
000002a0: 835d b828 4298 c628 57e6 5e29 6377 0c2a
000002b0: bf8c 0a2a 98a3 ac29 b8df a829 5dde 182a
000002c0: d8eb 032a 04e9 8f29 d7bd 0a2a 950b 242a
000002d0: eece 1f2a ca1b 762a 31fb 9529 a305 0329
000002e0: 3af5 bf29 9791 352a e3a9 8629 b74f a529
000002f0: d8a9 872a 5f80 eb29 ea56 162d 74a8 922b
00000300: 6ebb 042c 78f8 a82c 847c d72c 4aa4 862b
00000310: a7ba 082d a11e 4f2d 5f3a 0d2c 02f8 b92b
00000320: 082c 372c d5ef 002d a58b d52c 1faf 6e2c
00000330: e007 5a2c d03c ee2c c268 d12c 0c2d 3e2c
00000340: be9f fb2c bdb6 022d 1d7b f729 cae6 152b
00000350: 0e79 2c2b 51fc ab2a 4c6c b829 b8c9 aa2a
00000360: 2bbc 002b 6d77 0d2a e83b ec2a c704 3c2b
00000370: afb4 cf2a 9cc4 de2a 03a0 672a 9a64 642a
00000380: 3607 8f2a d68b f62a 2cda 862a 3776 b32a
00000390: af3f 122b 5302 a12a d3f1 102c ff13 a12c
000003a0: cecc 282c dcdc 942b e417 ed2b 9e8f 7e2c
000003b0: e358 1c2c 4ccc 9c2b 8687 9c2c 48af 5f2c
000003c0: 8880 6c2c 7988 1d2d cac3 cb2c e925 2b2c
000003d0: ee19 442c 1b07 ea2c 7f55 ac2c 644b 0a2c
000003e0: 86ed 102d 22e4 fc2c df48 d62b 0ea7 a72c
000003f0: a86d 722c 86cb b42b 5c3d 742b a08f 6c2c

exp_avg f4 [40, 10]
4.4999683e-07 -1.0185443e-08 2.9097762e-07 -3.242802e-08 -3.8028567e-08 6.135856e-08 1.3130085e-07 -5.290824e-07
3.6497756e-08 -1.6043484e-09 -1.0993603e-09 1.795975e-11 -7.2420925e-10 6.0777286e-11 9.35791e-11 -1.6253296e-10
-3.9127024e-10 1.3059243e-09 -1.1908907e-10 -1.15152774e-11 1.316486e-07 -2.8469371e-09 8.453754e-08 -9.580009e-09
-1.10323555e-08 1.7314541e-08 3.714445e-08 -1.5432913e-07 9.92015e-09 -7.8770923e-10 -7.775643e-09 3.024268e-10
-4.810832e-09 6.225097e-10 5.7323213e-10 -1.036562e-09 -1.650459e-09 8.740064e-09 -3.3291392e-10 2.3134936e-10
-1.3988124e-08 1.9248886e-10 -9.304475e-09 9.531618e-10 1.2932955e-09 -1.9753756e-09 -4.6464224e-09 1.6913429e-08
-1.4562244e-09 -9.451163e-11 1.4245092e-08 -3.0238312e-10 9.074683e-09 -1.0130228e-09 -1.217242e-09 1.7530111e-09
3.921479e-09 -1.6609638e-08 9.573117e-10 -1.11701606e-10 2.6087955e-08 -5.332177e-10 1.690791e-08 -1.5830475e-09
-2.466225e-09 3.2029708e-09 8.1673255e-09 -3.0621205e-08 2.2511064e-09 1.4524647e-10 2.8358244e-07 -6.4590537e-09
1.8359772e-07 -2.0333674e-08 -2.427327e-08 3.8779532e-08 8.2807574e-08 -3.336908e-07 2.3290346e-08 -9.588068e-10
-1.1091542e-08 1.9692838e-10 -7.0694393e-09 8.5141416e-10 9.638201e-10 -1.2615146e-09 -3.0515597e-09 1.3030831e-08
-6.5402295e-10 8.8910414e-11 -1.884998e-07 5.4792846e-09 -1.09535335e-07 1.7216825e-08 1.1813281e-08 -1.383432e-08
-3.01614e-08 2.0460433e-07 7.742306e-09 1.0530425e-08 5.297486e-07 -1.2198041e-08 3.4275695e-07 -3.764631e-08
-4.5395993e-08 7.231194e-08 1.5474293e-07 -6.2263865e-07 4.3465743e-08 -1.725541e-09 -1.3368208e-09 3.1366166e-12
-8.673598e-10 1.1470606e-10 9.8655e-11 -1.8193984e-10 -3.9566916e-10 1.6164077e-09 -1.0877938e-10 7.51791e-12
1.0623299e-07 -2.3357383e-09 6.816086e-08 -7.675922e-09 -8.902821e-09 1.3945104e-08 2.9919022e-08 -1.2438943e-07
8.031211e-09 -6.2076694e-10 -6.5718164e-09 2.2787441e-10 -3.9503973e-09 3.8504316e-10 4.5415668e-10 -7.6643764e-10
-1.4215572e-09 7.194622e-09 -3.2228736e-10 1.326615e-10 -1.154041e-08 1.9034341e-10 -7.603819e-09 8.6908314e-10
9.65424e-10 -1.6207267e-09 -3.691065e-09 1.38639775e-08 -1.0973583e-09 -4.5326597e-11 1.0634005e-08 -2.165192e-10
6.7583126e-09 -7.615222e-10 -8.866298e-10 1.2998895e-09 2.9186435e-09 -1.2395354e-08 7.186049e-10 -7.5000964e-11
2.4925594e-08 -4.987289e-10 1.6205925e-08 -1.6110749e-09 -2.3366828e-09 3.0941452e-09 7.816425e-09 -2.939736e-08
2.0854947e-09 1.1716908e-10 2.8816237e-07 -6.6739396e-09 1.8666539e-07 -2.0303949e-08 -2.4838382e-08 3.952469e-08
8.461576e-08 -3.3880718e-07 2.4059938e-08 -8.1173973e-10 -7.066584e-09 1.1853114e-10 -4.5169424e-09 4.643587e-10
6.28273e-10 -7.957911e-10 -2.0523714e-09 8.270503e-09 -5.0129334e-10 3.1768622e-11 -6.6546576e-08 2.1894315e-09
-3.7932864e-08 7.468468e-09 3.6071293e-09 -3.9935655e-09 -7.8387385e-09 7.106359e-08 6.6863266e-09 5.5601195e-09
2.1393842e-06 -4.8435993e-08 1.3790348e-06 -1.522363e-07 -1.8158492e-07 2.86627e-07 6.1679424e-07 -2.5094985e-06
1.6908967e-07 -9.038645e-09 2.438154e-07 -5.0923843e-09 1.5827823e-07 -1.7741767e-08 -2.0606326e-08 3.4477956e-08
7.090172e-08 -2.8811675e-07 2.1141759e-08 -1.1089685e-09 5.908638e-07 -1.2857925e-08 3.789853e-07 -4.2764306e-08
-4.9416474e-08 7.737355e-08 1.6629649e-07 -6.918703e-07 4.4263754e-08 -3.6156396e-09 3.2957445e-07 -1.0112846e-08
2.0126924e-07 -2.6799114e-08 -2.0941844e-08 4.154561e-08 7.022989e-08 -3.7115612e-07 1.2907392e-08 -8.208474e-09
7.0894663e-07 -1.2852542e-08 4.6980637e-07 -4.803368e-08 -6.622595e-08 1.0005183e-07 2.3152153e-07 -8.5029734e-07
7.099721e-08 3.8802743e-09 2.6248026e-07 -5.3362723e-09 1.6761138e-07 -1.9236678e-08 -2.1754413e-08 3.2960152e-08
00000000: 1897 f134 0dfc 2eb2 a937 9c34 fc46 0bb3
00000010: da54 23b3 3ac4 8333 b4fb 0c34 4406 0eb5
00000020: b5c1 1c33 fe7f dcb0 4d18 97b0 c3f9 9d2d
00000030: b211 47b0 92a6 852e 5ac8 cd2e f6b4 32af
00000040: 641a d7af 207c b330 98f0 02af 3394 4aad
00000050: 4b5b 0d34 d9a3 43b1 018b b533 5395 24b2
00000060: d088 3db2 14bb 9432 c188 1f33 abb5 25b4
00000070: 486d 2a32 1c86 58b0 a495 05b2 ca42 a62f
00000080: 874c a5b1 3a1d 2b30 a091 1d30 c876 8eb0
00000090: 5dd6 e2b0 3527 1632 7805 b7af 0e5f 7e2f
000000a0: 6c50 70b2 cca4 532f 84d9 1fb2 6600 8330
000000b0: cabf b130 2dbf 07b1 5da6 9fb1 0649 9132
000000c0: 5724 c8b0 51d5 cfae 94ba 7432 a43c a6af
000000d0: e1e6 1b32 923a 8bb0 e54b a7b0 98ee f030
000000e0: b2bd 8631 fbac 8eb2 6992 8330 6aa2 f5ae
000000f0: 0518 e032 dc91 12b0 e33c 9132 8892 d9b0
00000100: 4a7a 29b1 421b 5c31 4750 0c32 5f84 03b3
00000110: e2b1 1a31 3fb3 1f2f 463f 9834 70ee ddb1
00000120: f522 4534 39aa aeb2 7c81 d0b2 8c8e 2633
00000130: f2d3 b133 1d26 b3b4 0310 c832 04c7 83b0
00000140: 1e8d 3eb2 6986 582f 72e7 f2b1 f208 6a30
00000150: 6877 8430 9961 adb0 9bb3 51b1 33de 5f32
00000160: c6c6 33b0 1d84 c32e 6e66 4ab4 4c44 bc31
00000170: b039 ebb3 33e4 9332 5cf3 4a32 fcab 6db2
00000180: cf8a 01b3 36b1 5b34 0603 0532 4de9 3432
00000190: 0c34 0e35 8d8f 51b2 2804 b834 8eb0 21b3
000001a0: 6cf9 42b3 e949 9b33 6a27 2634 6723 27b5
000001b0: 17af 3a33 1428 edb0 33bb b7b0 43b8 5c2c
000001c0: 056b 6eb0 c53d fc2e d4f1 d82e 830b 48af
000001d0: 7c85 d9af 4a28 de30 5935 efae a841 042d
000001e0: 3422 e433 be82 20b1 d45f 9233 10df 03b2
000001f0: 05f3 18b2 3793 6f32 5080 0033 e88f 05b4
00000200: a4f9 0932 97a2 2ab0 4fce e1b1 f28c 7a2f
00000210: 10bc 87b1 02ae d32f dfac f92f 41ad 52b0
00000220: 9960 c3b0 9034 f731 ea2d b1af e5dc 112f
00000230: 4343 46b2 e848 512f f3a1 02b2 4ae4 6e30
00000240: d6af 8430 40c0 deb0 e7a5 7db1 6b2e 6e32
00000250: ddd1 96b0 3659 47ae d9b0 3632 bd10 6eaf
00000260: bf36 e831 5c53 51b0 07b7 73b0 cca7 b230
00000270: 5291 4831 58f3 54b2 5387 4530 caed a4ae
00000280: f61b d632 ed16 09b0 3535 8b32 a96c ddb0
00000290: 5c93 20b1 c7a0 5431 0049 0632 7a85 fcb2
000002a0: 6950 0f31 2ad4 002f bcb4 9a34 9850 e5b1
000002b0: 316e 4834 db68 aeb2 2e5c d5b2 dbc1 2933
000002c0: 02b6 b533 4ee5 b5b4 5dac ce32 1b21 5fb0
000002d0: 55ce f2b1 8d53 022f 7233 9bb1 ad48 ff2f
000002e0: c8b2 2c30 d2be 5ab0 b309 0db1 0f16 0e32
000002f0: 62cb 09b0 4ab8 0b2e 5ee8 8eb3 e374 1631
00000300: a0eb 22b3 ab4e 0032 4ae1 7731 c637 89b1
00000310: 23ab 06b2 9f9b 9833 8dbd e531 540b bf31
00000320: 5792 0f36 f007 50b3 4617 b935 6576 23b4
00000330: aff9 42b4 b7e1 9934 c791 2535 db68 28b6
00000340: 048f 3534 6248 1bb2 bce5 8234 16f9 aeb1
00000350: 30f3 2934 8f66 98b2 ca01 b1b2 ea14 1433
00000360: a242 9833 77ae 9ab4 389b b532 5c6a 98b0
00000370: da9b 1e35 c1e5 5cb2 5877 cb34 daab 37b3
00000380: fd3d 54b3 8f28 a633 3b8f 3234 f7b8 39b5
00000390: 831c 3e33 0177 78b1 5ef0 b034 c4bc 2db2
000003a0: 781c 5834 e033 e6b2 9ae3 b3b2 e26f 3233
000003b0: 4ad1 9633 4f43 c7b4 4fbf 5d32 4005 0db2
000003c0: 714e 3e35 14ce 5cb2 b239 fc34 974d 4eb3
000003d0: 1a38 8eb3 13dc d633 2798 7834 fd3f 64b5
000003e0: 2177 9833 4153 8531 03eb 8c34 595a b7b1
000003f0: aaf8 3334 e73d a5b2 76de bab2 1290 0d33

exp_avg_sq f4 [40, 10]
2.436857e-10 1.5141818e-11 2.0866957e-10 1.479204e-11 4.655344e-11 1.4455071e-12 5.0232086e-11 4.2621598e-10
7.8644945e-11 1.2681787e-11 2.638778e-12 2.9189197e-13 2.2020738e-12 3.2067678e-13 8.8865845e-13 3.9259346e-15
2.0475509e-13 4.5869194e-12 1.7887273e-12 2.8318008e-13 4.1924658e-11 1.4386786e-12 3.7883557e-11 1.1284412e-12
4.4697427e-12 3.497778e-13 1.2857132e-11 7.466164e-11 4.7327585e-12 9.211002e-13 1.9589315e-12 2.2330258e-13
1.6077706e-12 2.4927006e-13 6.8177045e-13 2.8732677e-15 1.2734978e-13 3.3868787e-12 1.3985087e-12 2.2080477e-13
2.4402208e-11 2.7145879e-12 2.02579e-11 2.9566052e-12 8.263989e-12 3.507828e-14 1.7865325e-12 4.239811e-11
1.6709877e-11 2.6269707e-12 3.404098e-13 1.1745161e-14 3.0470136e-13 1.1843133e-14 3.6691153e-14 3.045495e-15
1.0485505e-13 6.024076e-13 4.2536528e-14 9.124654e-15 1.1449809e-11 3.8240597e-13 1.0606857e-11 2.8724774e-13
1.1856602e-12 9.3731636e-14 3.722791e-12 2.0566906e-11 1.1427333e-12 2.334341e-13 1.0960521e-10 5.0633486e-12
9.6153294e-11 4.6377615e-12 1.5645676e-11 8.119971e-13 2.850398e-11 1.9314109e-10 2.2473634e-11 3.867171e-12
1.3311074e-11 1.5487348e-12 1.0954247e-11 1.6678714e-12 4.7041273e-12 1.468565e-14 7.7374966e-13 2.324536e-11
9.691747e-12 1.5343333e-12 1.640659e-09 1.7266015e-10 1.4098622e-09 1.7093472e-10 5.02024e-10 3.736267e-12
1.7922593e-10 2.9692653e-09 1.0178463e-09 1.7680572e-10 3.672676e-10 2.0767735e-11 3.1747668e-10 1.9909244e-11
6.391506e-11 2.3692044e-12 8.288244e-11 6.444805e-10 1.0340565e-10 1.6981534e-11 2.7678033e-12 3.1143222e-13
2.3027194e-12 3.449217e-13 9.4697e-13 3.840706e-15 2.0076291e-13 4.802725e-12 1.915554e-12 3.0426207e-13
3.912681e-11 1.276516e-12 3.5687547e-11 9.83094e-13 3.966617e-12 3.312332e-13 1.2412704e-11 6.989594e-11
3.8775224e-12 7.9547355e-13 2.1363415e-12 2.4876138e-13 1.7371969e-12 2.8481118e-13 7.5991774e-13 3.0835546e-15
1.2534902e-13 3.668734e-12 1.5759737e-12 2.5098717e-13 2.0963039e-11 2.3568148e-12 1.7363359e-11 2.585451e-12
7.175661e-12 2.9113325e-14 1.4734289e-12 3.6386134e-11 1.4565378e-11 2.2982074e-12 3.8159076e-13 1.7575043e-14
3.406789e-13 1.8629883e-14 5.4345312e-14 3.023972e-15 1.0661939e-13 6.7463645e-13 7.980801e-14 1.4981353e-14
1.5387453e-11 4.935836e-13 1.4319979e-11 3.6785145e-13 1.5346096e-12 1.2734457e-13 5.1119274e-12 2.7658282e-11
1.3850115e-12 2.966072e-13 1.4772447e-10 6.316341e-12 1.3107268e-10 5.637116e-12 1.9525404e-11 1.1396165e-12
4.0674377e-11 2.615029e-10 2.6329307e-11 4.67102e-12 1.7690007e-11 2.066097e-12 1.4536254e-11 2.237155e-12
6.278573e-12 1.9550874e-14 1.0073519e-12 3.0870292e-11 1.29690165e-11 2.0563499e-12 1.119571e-09 1.2341964e-10
9.604614e-10 1.2211755e-10 3.5692846e-10 2.0783388e-12 1.0826613e-10 2.0325701e-09 7.3319145e-10 1.2815926e-10
4.426764e-09 2.831425e-10 3.7595647e-09 2.7772581e-10 8.697095e-10 2.5841416e-11 8.693062e-10 7.7310105e-09
1.4954116e-09 2.3967678e-10 5.7818467e-10 6.215848e-11 4.815681e-10 6.795043e-11 1.8914278e-10 1.0366111e-12
4.8362467e-11 1.0041353e-09 3.787251e-10 5.995793e-11 3.8909453e-10 1.3900835e-11 3.4361858e-10 1.1268135e-11
4.3245726e-11 3.2846252e-12 1.1219728e-10 6.879604e-10 4.992069e-11 9.225182e-12 5.0433957e-10 5.3731696e-11
4.1962178e-10 5.6922952e-11 1.6384855e-10 8.6795875e-13 4.2605214e-11 8.7811797e-10 3.279577e-10 5.0939357e-11
2.3514444e-09 2.4816055e-10 1.9476023e-09 2.6742913e-10 7.5596734e-10 4.656127e-12 1.9913673e-10 4.08282e-09
1.5127704e-09 2.3760052e-10 2.2233613e-09 2.2781417e-10 1.8756967e-09 2.4259114e-10 6.9338985e-10 4.617767e-12
00000000: b7f7 852f 5830 852d 436f 652f b71c 822d
00000010: 84be 4c2e e26f cb2b 4dec 5c2e 9150 ea2f
00000020: 2bf1 ac2e b119 5f2d 00b0 392c 1152 a42a
00000030: 09f5 1a2c 6586 b42a 9722 7a2b 5b72 8d27
00000040: a388 662a 4c63 a12c b1bd fb2b 8d6a 9f2a
00000050: f862 382e dc79 ca2b 189d 262e 61d0 9e2b
00000060: dd43 9d2c 4be8 c42a 602f 622d c42e a42e
00000070: e684 a62c 22a2 812b f9d8 092c 966a 7b2a
00000080: 0a46 e22b 9a53 8c2a bde6 3f2b 6f0a 4f27
00000090: 1362 0f2a 9554 6e2c 96d2 c42b a49a 782a
000000a0: e3a4 d62d ab05 3f2c bc30 b22d 770d 502c
000000b0: b361 112d 81fa 1d29 9e6e fb2b 0778 3a2e
000000c0: 4cfb 922d 4cdb 382c 39a2 bf2a ff94 5328
000000d0: 1888 ab2a d058 5528 053e 2529 7873 5b27
000000e0: d21c ec29 0b90 292b 4791 3f29 0a60 2428
000000f0: 5b6d 492d 8246 d72a 0a99 3a2d c3b4 a12a
00000100: e9dd a62b 9c10 d329 ecfb 822c 8ee8 b42d
00000110: 4ed3 a02b 6669 832a 3f06 f12e 9726 b22c
00000120: 7e71 d32e 3e2d a32c ee9e 892d 8f8e 642b
00000130: 42b9 fa2d 625c 542f 20ae c52d 6110 882c
00000140: bf2b 6a2d 0df7 d92b 8bb5 402d 66bb ea2b
00000150: 0383 a52c ce46 8428 8aca 592b e677 cc2d
00000160: c07f 2a2d 2ff0 d72b 8f7d e130 83d7 3d2f
00000170: 1ec5 c130 d9f1 3b2f ccfe 0930 4d75 832c
00000180: 9d0f 452f de0b 4c31 48e4 8b30 6366 422f
00000190: 52e8 c92f c8ac b62d df88 ae2f a21f af2d
000001a0: fb8c 8c2e cbb7 262c aa42 b62e 4927 3130
000001b0: 3564 e32e 045f 952d 50c4 422c 1d52 af2a
000001c0: 1b0a 222c 752c c22a 3146 852b 4360 8a27
000001d0: f809 622a 1afb a82c 8ecb 062c c948 ab2a
000001e0: df14 2c2e 56a7 b32b 9bf4 1c2e b25b 8a2b
000001f0: 1c90 8b2c bc77 ba2a d95d 5a2d ebb3 992e
00000200: 9e6d 882c e9e7 5f2b e854 162c 4b0a 8c2a
00000210: 1d7d f42b 9e55 a02a d8e5 552b 8b31 5e27
00000220: 6521 0d2a 0515 812c 70cc dd2b 104b 8d2a
00000230: 9164 b82d 9ad8 252c cfba 982d 58ef 352c
00000240: 9c78 fc2c 611d 0329 df5d cf2b 2507 202e
00000250: 511e 802d d3b8 212c 06d1 d62a 4a4d 9e28
00000260: 01c9 bf2a 96cd a728 e1bf 7429 70e6 5927
00000270: e515 f029 aee4 3d2b 2fb6 b329 a6f0 8628
00000280: 7759 872d 72ee 0a2b 74eb 7b2d fb14 cf2a
00000290: 23fa d72b 9360 0f2a 26dc b32c ea48 f32d
000002a0: 4cec c22b 9af9 a62a be6c 222f 8b3c de2c
000002b0: ae1d 102f a156 c62c 4dbf ab2d 0363 a02b
000002c0: 47e3 322e 43c3 8f2f 5498 e72d cf58 a42c
000002d0: 5b9a 9b2d 7f63 112c 78b9 7f2d 006d 1d2c
000002e0: 5ce8 dc2c 3f19 b028 adc5 8d2b dcc4 072e
000002f0: 4227 642d e8b3 102c 67df 9930 8ab3 072f
00000300: 3b01 8430 0945 062f 3739 c42f 0640 122c
00000310: 6a14 ee2e 5aad 0b31 c389 4930 a0e9 0c2f
00000320: 3a1a 9831 c4a8 9b2f 7b2d 8131 6fae 982f
00000330: 5e10 6f30 b24d e32d fcf3 6e30 58d1 0432
00000340: 1e87 cd30 82c3 832f 21ee 1e30 1db0 882e
00000350: 585f 0430 b16c 952e f6f6 4f2f dae3 912b
00000360: 4cb3 542e df01 8a30 d234 d02f 50d9 832e
00000370: 30e8 d52f cc8b 742d 04e8 bc2f 2b3b 462d
00000380: 5c32 3e2e 8c22 672c 74b9 f62e e91a 3d30
00000390: b38d 5b2e 874a 222d bea1 0a30 8350 6c2e
000003a0: 84b0 e62f 8c59 7a2e 4427 342f 054f 742b
000003b0: 3561 3b2e 0f60 7130 f14b b42f 9e08 602e
000003c0: 0c97 2131 7e6d 882f 95d6 0531 4e05 932f
000003d0: 79cc 4f30 aad2 a32c 02f4 5a2f dd48 8c31
000003e0: e0e9 cf30 4d9f 822f c9c9 1831 fd7b 7a2f
000003f0: 9be5 0031 ab5d 852f f998 3e30 2679 a22c

exp_avg f4 [40]
2.285417e-06 -5.625681e-09 6.62055e-07 -3.8095926e-08 -7.298566e-08 7.0727054e-08 1.3215319e-07 1.44351e-06
-5.450391e-08 -8.0401867e-07 2.6950886e-06 -6.6841235e-09 5.342472e-07 -3.114024e-08 -5.955672e-08 5.2646705e-08
1.2645715e-07 1.4690901e-06 -3.4952215e-08 -2.6682633e-07 1.0823592e-05 1.2477192e-06 2.9681858e-06 1.5723846e-06
3.6961005e-06 1.3063791e-06 1.7637134e-06 -5.3074436e-06 -1.6889699e-06 -7.433418e-05 2.7292756e-06 -5.457359e-09
5.656758e-07 -3.9603776e-08 -7.740887e-08 8.26883e-08 9.8610315e-08 1.3683095e-06 -5.7110636e-08 -6.465054e-07
00000000: 2a5f 1936 034c c1b1 13b8 3135 ea9e 23b3
00000010: 4abc 9cb3 9ce2 9733 fee5 0d34 a0be c135
00000020: af17 6ab3 bed3 57b5 45dd 3436 2caa e5b1
00000030: 3069 0f35 0ebf 05b3 4ecb 7fb3 aa1d 6233
00000040: 47c8 0734 8d2d c535 5e1e 16b3 5540 8fb4
00000050: f996 3537 4e77 a735 0b31 4736 b90a d335
00000060: 860a 7836 d856 af35 bbb8 ec35 9816 b2b6
00000070: 90b0 e2b5 dce3 9bb8 9928 3736 7083 bbb1
00000080: f2d8 1735 d018 2ab3 fa3b a6b3 6092 b133
00000090: 98c3 d333 c2a6 b735 cf49 75b3 838b 2db5

exp_avg_sq f4 [40]
4.908192e-09 6.477518e-11 7.0596307e-10 4.8521513e-11 6.005435e-10 5.710175e-12 1.8714173e-10 2.0106354e-09
3.3305764e-10 3.9188393e-08 7.1561486e-09 6.8430275e-11 6.46451e-10 5.324555e-11 5.1778937e-10 6.790458e-12
2.4836938e-10 2.6398732e-09 4.4325216e-10 2.7281889e-08 9.062208e-08 1.40682745e-08 6.779234e-09 1.2174264e-08
5.6931665e-08 5.2665378e-08 2.904914e-08 2.057198e-08 2.9984303e-08 4.7653625e-06 8.057737e-09 6.079253e-11
6.216794e-10 4.9010636e-11 6.5310546e-10 8.95824e-12 1.0789165e-10 2.0956437e-09 4.102934e-10 2.6806e-08
00000000: eaa4 a831 2f71 8e2e bc0d 4230 5e66 552e
00000010: 7e13 2530 afe8 c82c b7c3 4d2f 792b 0a31
00000020: b219 b72f 1850 2833 26e2 f531 d27a 962e
00000030: f2b1 3130 292d 6a2e 3054 0e30 02eb ee2c
00000040: e28a 882f 2469 3531 32ae f32f 8259 ea32
00000050: 049c c233 edb0 7132 c6ee e831 fb26 5132
00000060: 0785 7433 3232 6233 bc87 f932 43b6 b032
00000070: 17c8 0033 27e6 9f36 4d6e 0a32 27af 852e
00000080: cce2 2a30 128d 572e 3686 3330 5498 1d2d
00000090: 9941 ed2e f402 1031 aa8f e12f 0443 e632

exp_avg f4 [40]
2.2854163e-06 -5.6256817e-09 6.6205496e-07 -3.8095905e-08 -7.2985664e-08 7.0727054e-08 1.3215316e-07 1.44351e-06
-5.450391e-08 -8.0401867e-07 2.6950886e-06 -6.6841204e-09 5.342472e-07 -3.1140246e-08 -5.9556726e-08 5.2646698e-08
1.264572e-07 1.4690899e-06 -3.4952215e-08 -2.6682648e-07 1.0823594e-05 1.247719e-06 2.9681858e-06 1.5723851e-06
3.6961e-06 1.306379e-06 1.763714e-06 -5.307442e-06 -1.6889711e-06 -7.433422e-05 2.7292738e-06 -5.457358e-09
5.65676e-07 -3.960378e-08 -7.7408856e-08 8.2688324e-08 9.861031e-08 1.3683093e-06 -5.7110647e-08 -6.4650555e-07
00000000: 275f 1936 054c c1b1 12b8 3135 e49e 23b3
00000010: 4bbc 9cb3 9ce2 9733 fce5 0d34 a0be c135
00000020: af17 6ab3 bed3 57b5 45dd 3436 25aa e5b1
00000030: 3069 0f35 10bf 05b3 50cb 7fb3 a81d 6233
00000040: 4ac8 0734 8b2d c535 5e1e 16b3 5a40 8fb4
00000050: fb96 3537 4c77 a735 0b31 4736 be0a d335
00000060: 840a 7836 d756 af35 c0b8 ec35 9416 b2b6
00000070: 9bb0 e2b5 e1e3 9bb8 9128 3736 6e83 bbb1
00000080: f5d8 1735 d118 2ab3 f83b a6b3 6392 b133
00000090: 97c3 d333 c0a6 b735 d249 75b3 868b 2db5

exp_avg_sq f4 [40]
4.908191e-09 6.477515e-11 7.059631e-10 4.8521513e-11 6.0054345e-10 5.710175e-12 1.8714176e-10 2.0106352e-09
3.3305778e-10 3.918839e-08 7.1561495e-09 6.8430255e-11 6.4645095e-10 5.324555e-11 5.177894e-10 6.790459e-12
2.483694e-10 2.6398734e-09 4.432521e-10 2.7281892e-08 9.062207e-08 1.4068273e-08 6.779235e-09 1.2174271e-08
5.6931665e-08 5.2665374e-08 2.904914e-08 2.0571983e-08 2.998431e-08 4.7653625e-06 8.057736e-09 6.0792545e-11
6.2167943e-10 4.9010643e-11 6.5310546e-10 8.95824e-12 1.0789163e-10 2.0956439e-09 4.1029327e-10 2.6805976e-08
00000000: e8a4 a831 2b71 8e2e bd0d 4230 5e66 552e
00000010: 7d13 2530 afe8 c82c b9c3 4d2f 782b 0a31
00000020: b719 b72f 1750 2833 28e2 f531 cf7a 962e
00000030: f1b1 3130 292d 6a2e 3154 0e30 04eb ee2c
00000040: e38a 882f 2569 3531 30ae f32f 8459 ea32
00000050: 039c c233 ebb0 7132 c8ee e831 0327 5132
00000060: 0785 7433 3132 6233 bc87 f932 45b6 b032
00000070: 19c8 0033 27e6 9f36 4c6e 0a32 29af 852e
00000080: cde2 2a30 148d 572e 3686 3330 5498 1d2d
00000090: 9741 ed2e f502 1031 a58f e12f f742 e632
