logs/vanilla_lstm/version_1/checkpoints/epoch=9-step=250.ckpt (torch, 17650 bytes, 12 tensors)

lstm.lstm.weight_ih_l0 f4 [40, 10]
000000 d0 eb 55 3e dc 0a b4 be 7a 89 b4 be 0f 4a 05 be
       0.20890737 -0.35164535 -0.35261136 -0.13016532
000010 b2 cc 20 3f a6 b2 bd 3e ea eb c1 3d c1 9c 00 be
       0.6281234 0.3705036 0.09468825 -0.12559797
000020 e1 9d 36 be 6f cb f1 be 9f 8d eb bd 30 db 3b bd
       -0.17833664 -0.4722552 -0.115016215 -0.04586333
000030 46 c9 6f be f5 44 98 3e ed 57 84 3f 41 67 07 3f
       -0.23416623 0.2974011 1.0339333 0.5289193
000040 48 af 0e be e2 aa ec be 26 bb 01 bf 48 53 94 be
       -0.13934052 -0.46224123 -0.5067619 -0.2896979
000050 f2 15 aa be 81 39 36 bf 48 fa d2 bd 3a ab e5 3e
       -0.33219868 -0.71181494 -0.103016436 0.44857198
000060 0b e6 62 3f 5f cf 10 3f d3 89 53 be 6d 36 2f be
       0.8863227 0.56566423 -0.20658045 -0.17110606
000070 02 c9 2c bf 2d 1e bc be 2a 70 b7 bd 2b 5b ad bd
       -0.67494214 -0.36741772 -0.089569405 -0.084646545
000080 d9 79 82 3e e3 ee d2 3e 56 0a e3 be ca 2c 1b bf
       0.25483587 0.4119788 -0.44343823 -0.6061522
000090 cb c7 b7 bd 11 ba 0a be b8 84 10 3e 87 68 d6 3e
       -0.08973654 -0.13547541 0.14113128 0.41876623
0000a0 73 af 82 3e 1e 36 5b be f2 f1 f1 3c db 4c 15 3f
       0.25524482 -0.21407363 0.029534314 0.583204
0000b0 6b 1b b0 3e c7 d4 1c 3e 01 09 f8 be ce bb 3e bf
       0.34395918 0.15315543 -0.4844437 -0.7450532
0000c0 7a f1 2f 3e 89 3b f7 3d 4a 4f 9c 3e 88 1a dc 3d
       0.1718196 0.12071902 0.30529243 0.10747248
0000d0 98 04 29 be 84 10 31 3e a5 c9 19 3f 2f 13 e3 3e
       -0.16505659 0.17291456 0.6007331 0.44350573
0000e0 8b b3 ba 3e 1d ba 00 bf a9 4b fe be 5f 25 be be
       0.36465105 -0.50283986 -0.496671 -0.37137887
0000f0 8e d6 a6 3d 8d a3 a1 3e 09 99 e3 3d ae ff d6 3e
       0.08146392 0.31570092 0.111131735 0.41991943
000100 af a9 8e bd f0 dc 17 bf c1 fd e4 be 78 54 2a bf
       -0.06965958 -0.593215 -0.4472485 -0.6653514
000110 a5 4f 6a 3e 8c ea 1f 3f ff 7c 41 be f7 cb 26 3e
       0.22881944 0.62467265 -0.18895338 0.16288744
000120 3e c4 66 3e bd 18 fb 3e 78 30 b6 bd f1 93 2f bf
       0.22535798 0.4904231 -0.088959634 -0.68585116
000130 5a 24 54 bf 18 a9 0d bf 04 a4 bf 3d 3e 5b f6 3e
       -0.8286797 -0.5533614 0.093574554 0.48116487
000140 7b f7 f1 bd 9a 6a 86 be 8a 0e 33 3e 95 e7 c6 3e
       -0.11814781 -0.26253206 0.17486015 0.38848558
000150 d3 6b 96 be 34 e8 72 bf 66 59 1a bf 70 09 13 bf
       -0.29379138 -0.94885564 -0.6029266 -0.57436275
000160 b0 8f 98 3d 50 c0 b7 bc 37 84 8f be 56 77 9b 3d
       0.07449281 -0.022430569 -0.2803056 0.07591121
000170 d3 ed c9 3e 1a bf 59 3f 04 ac 6c 3e f9 ad 07 bf
       0.39439258 0.8505722 0.23112494 -0.52999836
000180 62 24 29 bf e8 ae 0b 3e 10 a6 8f bd 18 09 08 3f
       -0.6607114 0.1364094 -0.07014096 0.53138876
000190 3d 2b 98 3e fd 10 a1 be 40 db 24 bf 77 d4 ae be
       0.29720488 -0.31458274 -0.6439705 -0.34146473
0001a0 32 33 3c 3f 10 b5 02 3f 0b 14 da 3e 5a 82 3f be
       0.7351562 0.5105753 0.42593417 -0.18702069
0001b0 c4 ec 71 be d9 7e 39 bf b7 0b d6 be 4a 62 2b be
       -0.23625475 -0.7245918 -0.41805813 -0.16736713
0001c0 a5 86 36 3e f8 a9 39 be 8d 33 06 3f c1 50 af 3e
       0.178248 -0.18131244 0.5242241 0.34241298
0001d0 9d 5b 84 be 3a 8f 15 bf a2 fd dd be c6 2b eb bd
       -0.25851145 -0.5842167 -0.4335757 -0.114829585
0001e0 a3 50 ee be a3 93 c8 be 29 22 d3 be af a2 d6 3d
       -0.46545896 -0.39175138 -0.41237 0.10480248
0001f0 74 a2 d8 3e 54 e5 86 3e 5f 6b db 3e 6b ab 07 3e
       0.42311442 0.26346838 0.42855355 0.13248985
000200 1f f4 06 bf e2 d6 57 bf d7 c4 55 3d c0 e0 79 3e
       -0.5271625 -0.8431226 0.052189674 0.24402142
000210 fc e0 14 bd 5e ff 45 3e c0 e6 f8 be fa 2b db be
       -0.036347374 0.19335696 -0.48613548 -0.4280699
000220 65 7c c3 be de e4 e8 3e c4 b6 90 3e fb 9e 8b 3d
       -0.38180843 0.45487112 0.2826444 0.068174325
000230 74 a4 de 3e 0e be 7d be 8b 56 26 bf 9b 2b 2a bf
       0.43484843 -0.24779531 -0.64975804 -0.66472787
000240 ef 21 6d 3d 8f df 8e 3e a8 57 a5 3e a5 9a 3c 3f
       0.05789369 0.27904937 0.3229344 0.7367347
000250 0d 6b 01 3e b8 f0 b0 bd c0 04 b6 3d 26 93 9b be
       0.12638493 -0.086396635 0.08887625 -0.30385703
000260 16 a6 a2 bd fc fe cc be ee 83 c1 3d 1d 5d 69 3e
       -0.07941835 -0.40038288 0.09448992 0.22789426
000270 9a 5c 0e 3f e4 c0 01 3f 36 76 82 3d bd 8e ac be
       0.5561005 0.5068495 0.06370203 -0.3370265
000280 88 2a fa 3e 32 bd 98 3e 65 0b 90 3d f6 64 98 3e
       0.48860574 0.29831845 0.07033423 0.29764527
000290 1b 76 e5 be fa ff b6 be 68 2c eb be 2a 90 f7 3e
       -0.4481667 -0.3574217 -0.45932317 0.48352176
0002a0 ac 5b 9f 3d a8 a0 0f bd f2 07 36 bd 98 84 78 be
       0.07781157 -0.035065323 -0.04444117 -0.2426933
0002b0 ca 15 a9 be 5c ac c8 3c b9 62 17 bf ac 66 ab be
       -0.33024436 0.02449625 -0.59135014 -0.3347677
0002c0 76 8a a9 bd 2f 4b b5 3e d7 cd c9 bb df e7 a1 be
       -0.082783625 0.35408923 -0.006158571 -0.31622216
0002d0 67 8d bb be cb b4 26 be ee 0d 45 3d bb f6 80 bd
       -0.3663132 -0.16279905 0.048108988 -0.0629706
0002e0 45 3c 8e be 07 e6 1c bf eb 0f 38 bf 0a 8b fb be
       -0.27780357 -0.61288494 -0.7189929 -0.49129516
0002f0 e6 78 b3 be 16 37 83 3d a3 ac d4 be d6 ed 4d bf
       -0.35053176 0.06406991 -0.4153796 -0.80441034
000300 52 b7 c5 be e2 08 45 bd 3f 07 a7 3d ce bc 64 3f
       -0.38616425 -0.048104174 0.08155679 0.89350593
000310 e4 da 31 3f b3 b7 a4 3e 62 d3 e4 be fc 47 4b bf
       0.69474626 0.321714 -0.44692522 -0.79406714
000320 82 c4 8a 3d 34 9b 38 3d af cc d4 3e e8 b5 74 bd
       0.06775762 0.04506989 0.4156241 -0.05974379
000330 ca 9b 77 bf 95 41 fa be cf af a0 be e6 be 9b bd
       -0.9672209 -0.4887816 -0.3138413 -0.0760477
000340 1b 12 31 3e c7 61 eb 3e 50 30 44 bc a0 3f d0 bc
       0.17292063 0.45973036 -0.011974409 -0.025420964
000350 16 f3 49 3e 8e 86 0c bf dc 26 2e bf 92 f4 ba be
       0.19721636 -0.54892814 -0.68028045 -0.36514717
000360 db dc b7 3e 88 cd 06 3f d0 16 60 3f 9d 5b bc 3e
       0.35910687 0.52657366 0.8753481 0.36788645
000370 93 71 ae be 01 6e d8 bd b7 53 30 be 33 71 49 bd
       -0.34071025 -0.105678566 -0.17219435 -0.04918022
000380 87 3f bc 3e bc 06 5f 3e 7e cf 39 3e 64 09 07 bf
       0.36767218 0.21779913 0.18145558 -0.52748704
000390 78 a1 fc bd b3 56 d9 be 72 90 b0 3e aa 03 99 be
       -0.12335485 -0.4244896 0.34485203 -0.29885608
0003a0 a9 af 8f be 48 58 41 bc 12 75 4f 3f da a8 0f 3f
       -0.28063706 -0.011800833 0.8103801 0.5611702
0003b0 89 e2 46 3e 0c a8 58 be d3 70 5f be d0 16 bc be
       0.19422354 -0.21157855 -0.21820383 -0.36736155
0003c0 97 f8 8a be f3 ef 4c bd 5b 22 95 3e ab a3 5f 3c
       -0.27142784 -0.05003352 0.29127774 0.013649861
0003d0 b8 59 7d bf 63 e2 11 bf 18 d6 27 3d 3c 54 1c 3e
       -0.98965025 -0.56986064 0.04097566 0.15266508
0003e0 51 e7 c7 3e 43 76 07 3f b6 1a fb bd f9 39 a3 3e
       0.39043668 0.5291483 -0.12260954 0.31880167
0003f0 d5 07 50 3e b0 b0 1d 3e 99 e1 49 bf cf e2 31 bf
       0.20315488 0.15399432 -0.7885986 -0.6948671

lstm.lstm.weight_hh_l0 f4 [40, 10]
000000 57 d5 ea 3d da 1e 8e 3e db 46 38 bc de 47 df 3d
       0.114664726 0.27757913 -0.011247362 0.109023795
000010 3f 53 75 3e ac ea 93 3e 1f f3 94 3e ff 66 2c bd
       0.23957537 0.28889978 0.29091737 -0.042090412
000020 5b 4c 0c be 2a c0 bc be 1d 93 63 3e c2 20 87 3c
       -0.13701002 -0.3686536 0.22224088 0.016495112
000030 eb 48 a9 be 77 79 1a be dd 87 70 be 28 aa ae 3e
       -0.33063444 -0.15085398 -0.23489328 0.34114194
000040 dc 64 86 be 62 24 c8 3d c6 c3 8b 3e 78 cd 25 be
       -0.26248825 0.097725645 0.272978 -0.16191661
000050 57 04 a9 3e 98 a8 65 be 11 5b ba 3e 1b 05 d8 3d
       0.33011124 -0.22427595 0.36397603 0.10547849
000060 e1 d9 d7 bd 95 7e bf bd 10 f2 a0 bd 91 88 98 be
       -0.10539604 -0.093503155 -0.0785867 -0.29791692
000070 2c 38 e5 3e 3d 85 75 be f6 b5 e8 3d 41 29 42 bc
       0.44769418 -0.23976608 0.11362831 -0.011850656
000080 22 3e 6b 3d f3 10 16 be e1 1f a2 3c c2 e4 5b be
       0.0574323 -0.14654903 0.019790592 -0.21473983
000090 1d 48 f6 3d 92 3f 60 be 4f 3b ca 3e 8c c8 e2 3e
       0.12025473 -0.2189925 0.39498374 0.4429363
0000a0 dc d5 9b 3e 3a 33 af bd de ab 1a 3e fb 42 9d 3e
       0.304366 -0.085546926 0.15104625 0.30715165
0000b0 97 6e 82 bd 6d 9b 29 3d aa 48 43 be 2d 9e 16 3d
       -0.063687496 0.04140799 -0.19070688 0.036771942
0000c0 6a 15 c0 be 41 0d 7a 3e 25 c6 31 be 9a 7e 1d 3d
       -0.37516338 0.24419118 -0.17360742 0.038450815
0000d0 aa 33 3a be 32 5d 99 3e c7 20 be 3e c0 18 5f 3e
       -0.18183771 0.29953915 0.37134382 0.21786785
0000e0 6e 91 e2 bc a4 53 87 3e 07 31 a1 bd bd 75 5b be
       -0.027657237 0.26431 -0.07870679 -0.21431632
0000f0 08 7e ab bc ca c2 20 3e 5d 99 86 3c 32 b1 60 be
       -0.02093412 0.15699306 0.016430551 -0.21942595
000100 96 62 2a be 8d db a8 bd 03 8e 7a be f1 f4 80 be
       -0.1663917 -0.08245001 -0.24468236 -0.25186875
000110 a3 31 80 3e d4 81 88 3e 16 e4 b4 be 08 b0 03 be
       0.2503787 0.2666155 -0.35330266 -0.1286012
000120 e5 a2 33 3e b2 6e 77 3e 31 1f 2b bf 0e c9 9b 3d
       0.17542608 0.2416332 -0.6684447 0.076067075
000130 38 cb 9b bd d2 81 e0 be fc 6b 6f 3e 2a cc 7f 3e
       -0.0760712 -0.43849045 0.23381037 0.24980226
000140 ee 32 b0 be f4 73 17 3e e0 73 6a 3e 0c 45 c6 3e
       -0.34413856 0.14790326 0.22895765 0.38724554
000150 d2 01 58 bd 76 fd 8e be 19 48 8c 3c c8 bb 81 bc
       -0.05273611 -0.2792775 0.017124223 -0.015836611
000160 b0 41 64 be c6 f9 e5 3e c0 13 bc 3d 5c e4 47 be
       -0.22290683 0.44917125 0.091834545 -0.19520706
000170 97 eb 57 be bd 66 63 3e 73 b2 a0 3d 8c a2 2e be
       -0.21085964 0.2220716 0.078465365 -0.17054194
000180 16 2b c4 3b 2c cf 45 3d d5 54 11 bf d9 86 d8 bd
       0.0059865816 0.048293278 -0.5677007 -0.10572595
000190 bf 84 3c 3e 16 2a b8 3e fb de 73 be 0e 2c 77 3e
       0.18410014 0.3596961 -0.23815529 0.241379
0001a0 eb 1d 96 3d 52 fe 27 3d 9e 91 ee bd 87 a6 99 3d
       0.07329925 0.041014023 -0.11648868 0.07502466
0001b0 05 ea 47 bd 2c 3d 9d be df 13 0d 3d e0 57 41 3e
       -0.048807163 -0.30710733 0.03444278 0.18881178
0001c0 98 72 e4 3d fc 4e 35 3e f8 83 eb 3d 3b 55 31 3d
       0.111546695 0.17705911 0.114997804 0.043294173
0001d0 44 bb 48 3d f7 0e 17 bd f3 62 87 3e f1 91 6d 3e
       0.049006715 -0.036879506 0.2644268 0.23200203
0001e0 c2 97 09 3e fe 89 79 3e 2c 19 fc bc f5 f9 38 3e
       0.13436797 0.24369046 -0.030773722 0.18064101
0001f0 9a 4b 85 3d a5 f6 59 3e da 57 3e be 4e 47 44 3e
       0.065085605 0.21285494 -0.185882 0.19167826
000200 47 9d 30 be d8 04 6c be d3 f4 43 3d e3 f4 d1 3c
       -0.17247497 -0.23048723 0.047840904 0.025629466
000210 f0 6c e1 bb 85 2c 19 be 22 80 3a 3c 50 42 d9 3d
       -0.0068794414 -0.14958389 0.011383088 0.10608351
000220 46 57 cb bd 0b d8 ad be 94 8a 6c bd be 33 ab 3b
       -0.099287555 -0.3395389 -0.057749346 0.005224674
000230 96 c4 94 3e 6a 36 31 be 96 1b b5 be 9f 09 de 3e
       0.29056233 -0.17305914 -0.3537261 0.43366715
000240 8f ed 3c be 61 c1 66 3e 87 d4 be be 9f ea 63 3e
       -0.18449996 0.22534706 -0.3727152 0.2225747
000250 50 27 b4 3d 1f b1 68 bc bc 48 c2 3d e0 2c f7 3d
       0.08796561 -0.014202385 0.09486529 0.12069106
000260 92 7d 36 3e 01 9e a6 3e c8 c3 9e bd 0a 88 6f 3e
       0.17821339 0.32542422 -0.07752186 0.23391739
000270 c9 d0 99 bd 1a 9d bc 3e e1 f1 6d be e9 df 9c be
       -0.07510526 0.3683861 -0.232368 -0.3063958
000280 6b 6e a6 3e 08 38 90 3e d4 a9 04 be 17 19 51 3e
       0.32506117 0.28167748 -0.1295541 0.20419727
000290 d4 cb ba be 06 88 85 3e 43 ac e7 3d 1f 4d be bd
       -0.36483634 0.2608034 0.11312153 -0.092920534
0002a0 ba 8f 10 be 8d b1 0a bd 51 2a bb 3d c3 02 a1 3e
       -0.14117327 -0.033860732 0.091389306 0.3144742
0002b0 9a 91 2e 3e 61 5f 98 3e 8d c1 09 be ac d0 d5 3e
       0.1704773 0.29760268 -0.1345274 0.41760767
0002c0 c4 19 ff 3c e3 d6 bf ba ce a5 21 bc 03 eb 68 be
       0.031140216 -0.0014636185 -0.009866191 -0.227459
0002d0 be 79 67 bd 09 f8 f5 3d 91 d4 54 3e bd 3c 98 3d
       -0.056512587 0.120101996 0.20784213 0.0743346
0002e0 34 76 b9 bd 02 23 ad 3e 42 87 e7 be 03 d4 38 be
       -0.090557486 0.3381577 -0.4522038 -0.18049626
0002f0 78 ba f2 3d 57 43 6d 3e 41 9f f2 3d 76 70 b6 3e
       0.11851972 0.2317022 0.118467815 0.35632676
000300 82 c7 96 be fc 7f 47 3e f1 5b 7c bd 56 ce 47 3e
       -0.29449087 0.19482416 -0.06161112 0.19512305
000310 34 1c af be 3e 3e f4 be e7 4b 06 3f 68 88 a7 3d
       -0.34201205 -0.47703737 0.5245957 0.08180314
000320 b0 4a 2c be 58 8b 04 be 14 cc 3e 3e 8f 08 18 3e
       -0.16825366 -0.1294378 0.18632537 0.14847015
000330 7c 6f 74 be 2a 81 6e 3e c2 cd b9 3d bb da 8e be
       -0.23870653 0.2329146 0.09072448 -0.27901253
000340 fb 2d de bd b5 11 a6 3e 8e 86 d9 3d 95 3c 85 be
       -0.10848614 0.32435384 0.106213674 -0.26022783
000350 a1 9c 86 3e e9 ae cf be 54 cc 6d be 1c b2 55 be
       0.26291373 -0.40563133 -0.23222476 -0.20868725
000360 18 b6 ab 3e 92 81 df 3e 44 d1 8c be ad 9b 70 3d
       0.33537364 0.43653542 -0.27503407 0.058742214
000370 15 08 3b be 8a 09 77 3d e5 d1 d7 3d 5a 41 f6 bd
       -0.18264802 0.06031183 0.10538081 -0.120241836
000380 15 f1 bb 3e 37 a5 26 3e bb a7 df 3b 23 cc 08 bb
       0.36707368 0.16273962 0.006825415 -0.0020873628
000390 fd 3c 8f be c9 6b d4 be 2a b0 c1 bd 5f 02 4b 3d
       -0.27976218 -0.41488484 -0.09457429 0.049562808
0003a0 df 68 51 be 03 63 21 be cb 86 cf 3d f5 66 67 be
       -0.20450161 -0.15760426 0.101331316 -0.22597869
0003b0 d7 63 5d 3e 50 6a cb 3e 9b 22 a3 be 53 de 58 be
       0.21620117 0.39729548 -0.3186234 -0.2117856
0003c0 3f 97 97 be f6 a9 d6 bd c3 6f 1f 3e 56 59 10 bc
       -0.2960758 -0.10481636 0.15569977 -0.008810362
0003d0 34 92 ec bd c3 82 fc bd 28 f1 c5 bd 57 68 f3 3d
       -0.115513235 -0.12329628 -0.096651375 0.118851356
0003e0 9a 7b 07 3e e5 2e 9b 3e 77 58 19 bd 4d 1d 0f 3e
       0.13230744 0.30309215 -0.037437882 0.13976021
0003f0 77 c3 11 3d 64 b3 58 3e 9d ba 44 be 08 69 94 be
       0.0355868 0.21162182 -0.19211812 -0.28986382

lstm.lstm.bias_ih_l0 f4 [40]
000000 28 04 4c 3e 6e 5a 32 be b5 14 8d be 39 63 64 be
       0.1992346 -0.17417309 -0.2755486 -0.22303475
000010 33 54 89 3e 27 5e 11 3e 1f ef 1f 3d 0f 94 cf 3c
       0.2682205 0.14196073 0.039046403 0.025339155
000020 dc d0 5f be b7 dc 63 be 77 ca 53 be f9 00 42 3e
       -0.21857017 -0.22252165 -0.20682703 0.18945684
000030 66 f7 7d be b0 14 91 be 7d 6e bd be 6c bb d9 bd
       -0.24801406 -0.28336096 -0.36998358 -0.10631451
000040 78 fa b7 be b0 cd 2a be 87 41 22 be f1 b5 ff bd
       -0.3593328 -0.16680026 -0.15845309 -0.124858744
000050 18 53 4e be b4 7c fc bd be 50 28 3d ff e0 4c 3d
       -0.20148885 -0.12328473 0.041092627 0.05001926
000060 aa f0 c3 3d b0 3d 93 3d a8 39 4f 3e b2 8c 29 3e
       0.095673874 0.071895 0.20236838 0.16557577
000070 f7 ec 08 3d d2 bb 77 3e 7c d5 13 be cd b5 2a 3e
       0.033429112 0.24192742 -0.14436907 0.16670914
000080 e9 76 ba 3d 19 67 44 bc 04 52 d8 3d 82 35 df 3d
       0.091047116 -0.011987471 0.10562518 0.10898878
000090 56 38 92 3c ca b7 29 bc 13 8a 65 3e 42 bf 24 3e
       0.017849129 -0.01035876 0.22415952 0.16088584

lstm.lstm.bias_hh_l0 f4 [40]
000000 9e 10 50 3e bd 5a 95 3d 8d 8e 0c 3d eb fd 70 3e
       0.20318839 0.072926976 0.034315635 0.23534362
000010 10 1c 33 be f8 f1 76 be 24 de 87 3e 01 ad 2a be
       -0.17491174 -0.24115741 0.26536667 -0.16667558
000020 b6 d3 cb 3d 88 e2 6e be 1e 19 b5 be a4 47 9d be
       0.0995249 -0.23328602 -0.35370725 -0.3071872
000030 ae 5d ac be 52 72 53 3e 91 ed 57 bd 78 15 0b be
       -0.33665222 0.20649078 -0.052716795 -0.13582408
000040 79 73 cc bd 31 b9 4a be 59 c6 d9 3d b6 9d 38 3d
       -0.09982962 -0.19797207 0.10633535 0.04507228
000050 41 d7 c4 3c ac 47 04 be be 7d 60 bd bf ae 71 be
       0.024028422 -0.12917966 -0.054807417 -0.23601817
000060 66 80 fe bd d9 11 f9 bd 01 26 3a be 38 d3 b7 bd
       -0.12426834 -0.12161607 -0.1817856 -0.08975834
000070 27 82 eb bd 36 10 7b be 3e 6b 67 3e 20 73 3b be
       -0.11499434 -0.24517903 0.22599503 -0.18305635
000080 fb a8 c7 be 61 ac 78 3d a1 8f b5 bd 42 7d 8b be
       -0.3899611 0.06071127 -0.08865286 -0.27244002
000090 97 4f 63 be b8 c1 c8 bd 30 89 b4 39 b8 3f 94 be
       -0.2219833 -0.09802574 0.00034434488 -0.28954864

exp_avg f4 [40, 10]
000000 40 0f 0e b3 ec 9e 40 b3 cd dd 29 b3 24 55 33 b3
       -3.307582e-08 -4.4848022e-08 -3.9550105e-08 -4.175412e-08
000010 6c d1 3b b3 71 0f 0a 32 3b 5d 62 33 4f cb 03 33
       -4.37298e-08 8.036168e-09 5.2704518e-08 3.0685722e-08
000020 37 79 32 b2 bd 22 b1 b2 ab bb ec b1 50 dd a0 b1
       -1.0388525e-08 -2.0621309e-08 -6.8898394e-09 -4.681773e-09
000030 93 66 da b1 85 8c 49 b2 e7 c7 94 b1 c9 9d 8d 32
       -6.3562964e-09 -1.173169e-08 -4.330093e-09 1.6486313e-08
000040 67 9f 7f 32 5f aa 9a 30 82 e8 a1 b1 fe 29 d6 b1
       1.4879197e-08 1.1253397e-09 -4.71215e-09 -6.2329937e-09
000050 5c e7 7f b0 8c a8 7d 2e f8 7f 9b b0 87 6a 76 b1
       -9.309724e-10 5.767524e-11 -1.1314105e-09 -3.5858265e-09
000060 34 a5 6a b1 9e 76 3a 31 7e e0 98 31 fd 68 ac 2b
       -3.4145389e-09 2.7133988e-09 4.449304e-09 1.2250475e-12
000070 9c 12 6e 2f 8b 50 b2 30 64 41 92 32 91 91 00 33
       2.1652585e-10 1.2974096e-09 1.7026373e-08 2.9934714e-08
000080 19 8f cf 32 2f ed 84 32 e4 27 1f 33 94 d0 0b 33
       2.4163045e-08 1.5474681e-08 3.7056353e-08 3.255316e-08
000090 95 c1 55 b1 89 88 19 b2 bb ac 61 32 e3 7b 32 32
       -3.1105618e-09 -8.936817e-09 1.3135998e-08 1.0389132e-08
0000a0 a4 37 a8 b1 b7 5e 0a 31 78 f6 60 b0 22 cf 5f b2
       -4.895769e-09 2.0135482e-09 -8.184098e-10 -1.3027405e-08
0000b0 f9 38 2d b1 a2 44 c5 32 ba 87 81 32 9c 45 f5 b0
       -2.5207199e-09 2.2965029e-08 1.5079298e-08 -1.784588e-09
0000c0 5b 31 2f b1 27 3f 03 b1 65 9f 4a b3 bb cc 69 b3
       -2.5493907e-09 -1.9098907e-09 -4.717676e-08 -5.443574e-08
0000d0 b3 81 44 b3 93 0f 50 b3 72 aa 2e b3 b2 78 14 33
       -4.5752767e-08 -4.844294e-08 -4.066755e-08 3.4568707e-08
0000e0 18 7d ad 33 df 7a 0f 33 07 00 6c b2 dc 3c ec b2
       8.078695e-08 3.3406533e-08 -1.3737014e-08 -2.7501692e-08
0000f0 41 7d b9 b1 4d 97 5f b1 0c 03 4c b1 d2 6d f8 b1
       -5.3984484e-09 -3.2536775e-09 -2.968764e-09 -7.230235e-09
000100 aa 08 39 ae 8d 3f 6b 32 0a ab 68 32 ba 3a 92 31
       -4.2071825e-11 1.369325e-08 1.3543067e-08 4.2558357e-09
000110 ca f8 27 af a1 b3 45 b1 e6 95 34 31 4c 35 2d 32
       -1.5276949e-10 -2.876938e-09 2.6278655e-09 1.0082044e-08
000120 11 3b 7b 31 79 1c 19 b2 74 92 c6 31 5b 11 c2 32
       3.6558883e-09 -8.912246e-09 5.7792082e-09 2.2592465e-08
000130 c6 cf 10 32 f8 68 b4 b1 35 10 b4 af c3 ae 04 b1
       8.429145e-09 -5.250623e-09 -3.2753325e-10 -1.9307869e-09
000140 6f ee 69 30 d0 58 1b 32 89 40 91 31 24 cc 07 b1
       8.510374e-10 9.042381e-09 4.227392e-09 -1.9761126e-09
000150 e6 e2 16 32 02 04 89 32 89 0b 82 32 b7 90 9d 31
       8.78274e-09 1.5950722e-08 1.5139237e-08 4.5857536e-09
000160 bb b9 c4 31 6c 07 01 31 0c 48 79 33 e1 e6 d2 b3
       5.725466e-09 1.877619e-09 5.8040357e-08 -9.820884e-08
000170 e0 06 28 b5 82 8e 95 b4 b9 41 82 35 a2 03 5c 35
       -6.259488e-07 -2.78571e-07 9.704883e-07 8.1961673e-07
000180 a7 e9 43 b4 ab 39 87 b4 ee 23 19 b4 84 e8 13 b5
       -1.8245792e-07 -2.5187668e-07 -1.4262307e-07 -5.510012e-07
000190 1f d4 db b2 66 79 ee b2 6b 44 ae b2 da 4d c7 b2
       -2.5591417e-08 -2.7762052e-08 -2.0287379e-08 -2.3202052e-08
0001a0 c0 56 e8 b2 ce 3b 09 32 79 63 e6 32 3f b8 dc 31
       -2.7047804e-08 7.988048e-09 2.6820759e-08 6.423789e-09
0001b0 8b 35 78 b2 a3 80 25 b2 1c b4 1f b0 c1 df 48 30
       -1.4447674e-08 -9.633513e-09 -5.8099814e-10 7.307755e-10
0001c0 6b 04 bd b0 c0 cb e6 b1 c5 79 ac b1 9b b9 68 31
       -1.3752816e-09 -6.7170447e-09 -5.0197024e-09 3.3865948e-09
0001d0 aa c6 85 31 24 f4 10 30 0f 47 86 ae 3d 7f 76 b0
       3.893395e-09 5.273384e-10 -6.106237e-11 -8.9675095e-10
0001e0 2a 07 22 2f 0b 42 24 30 d8 c5 72 2e 73 3f 59 af
       1.473636e-10 5.9756705e-10 5.520015e-11 -1.9758577e-10
0001f0 a6 09 25 af dc 10 cc 2f 0c 52 a1 b0 68 5c 71 b0
       -1.501009e-10 3.7119363e-10 -1.1737611e-09 -8.7806606e-10
000200 93 d7 a5 30 fb 65 0d 31 4c df d4 32 58 58 26 33
       1.20666e-09 2.057617e-09 2.4781592e-08 3.8730235e-08
000210 f6 4b 0c 33 d6 59 eb 32 a4 79 23 33 9d 92 4e 32
       3.2665376e-08 2.7398453e-08 3.8062026e-08 1.2024114e-08
000220 96 6f e0 b2 d1 09 8f b2 44 59 6e 32 96 fb 9b 32
       -2.6127775e-08 -1.6651855e-08 1.387372e-08 1.8158783e-08
000230 95 0c 0e 31 03 08 ec 31 15 db 0d 32 05 4b 79 31
       2.0670872e-09 6.869415e-09 8.257094e-09 3.6276913e-09
000240 98 f9 5a 30 38 66 08 2d aa 03 f9 b1 89 fe 01 b2
       7.966263e-10 7.753402e-12 -7.2472703e-09 -7.566663e-09
000250 53 ad c7 2f fc d0 07 32 4f f9 d6 b2 e5 48 a0 b2
       3.6321043e-10 7.905552e-09 -2.5026251e-08 -1.86596e-08
000260 7a c1 15 b2 65 07 6e b2 de b1 8d b2 11 31 57 32
       -8.716933e-09 -1.3855105e-08 -1.6495445e-08 1.25258035e-08
000270 d5 18 9a 32 77 b1 24 b1 6b 90 87 b2 3f 72 ed b1
       1.7939252e-08 -2.3966018e-09 -1.5781742e-08 -6.910596e-09
000280 0d 3c c8 b0 d8 76 36 31 34 8a 5a 31 69 4f 42 2f
       -1.4568983e-09 2.655204e-09 3.1801735e-09 1.767241e-10
000290 13 d4 4e 31 1b 39 01 32 60 53 e4 30 61 1e 48 b1
       3.0097496e-09 7.5217725e-09 1.661288e-09 -2.9121099e-09
0002a0 b6 f6 d9 30 01 cc a4 31 01 b4 1d 32 16 4f 5a 32
       1.5858947e-09 4.7962208e-09 9.179531e-09 1.2707252e-08
0002b0 fc 8d 20 32 2b 2c e5 30 31 c3 e3 30 6e 21 98 b0
       9.345509e-09 1.6674496e-09 1.65719e-09 -1.1068957e-09
0002c0 c9 07 28 b2 5a f0 c5 b1 00 da d3 31 e2 16 2e 32
       -9.780657e-09 -5.7607794e-09 6.165692e-09 1.0133336e-08
0002d0 01 29 07 31 2e c8 9d 31 b6 55 ed 31 bb ce 84 31
       1.9668394e-09 4.592059e-09 6.907352e-09 3.865208e-09
0002e0 cd 77 a2 31 10 bd 03 32 2f 1f e6 31 3c f6 1c 32
       4.7284403e-09 7.668191e-09 6.697426e-09 9.136382e-09
0002f0 76 e6 65 32 55 df 1c 32 43 a4 de 34 3c 85 a8 34
       1.3381955e-08 9.131175e-09 4.1470238e-07 3.138938e-07
000300 f4 7f d4 33 3f c7 df 32 69 e4 a8 b3 ed 67 0a b5
       9.895294e-08 2.6051223e-08 -7.864657e-08 -5.156024e-07
000310 7a 04 f1 b4 c7 8a 67 b1 a7 c2 99 34 d5 2e c4 34
       -4.4893005e-07 -3.369381e-09 2.86401e-07 3.654192e-07
000320 80 d6 6d 34 62 20 f4 34 69 1f f3 34 e3 c9 e5 34
       2.215038e-07 4.5472103e-07 4.528513e-07 4.2801466e-07
000330 4b 8e 11 35 76 49 33 34 5c e7 9c b4 2a d3 65 b4
       5.4223773e-07 1.6697399e-07 -2.92256e-07 -2.1404108e-07
000340 21 58 02 34 87 2d 56 34 47 5e 0e 33 dd 32 07 33
       1.2139255e-07 1.9946866e-07 3.3147696e-08 3.1478397e-08
000350 4e a0 76 33 42 06 ea 33 e2 08 ae 33 c2 37 9e b3
       5.7422135e-08 1.08976124e-07 8.104122e-08 -7.3675906e-08
000360 e1 c8 05 b4 f9 35 56 b3 7a 8c 67 2f 94 ce fc 32
       -1.245967e-07 -4.9874846e-08 2.1059235e-10 2.9430602e-08
000370 e5 66 f1 b3 ab b7 18 b4 4f 07 8c b3 6c a3 27 31
       -1.12411534e-07 -1.4222921e-07 -6.5205874e-08 2.4394593e-09
000380 9b 40 78 b3 df be 94 32 fe 74 10 34 2f 68 80 33
       -5.7800758e-08 1.7316266e-08 1.3453607e-07 5.9794154e-08
000390 b7 ba 9c b3 73 44 3b b3 9e 8d b5 b4 7d 83 f5 b4
       -7.298279e-08 -4.3601585e-08 -3.3816917e-07 -4.5730476e-07
0003a0 c0 2d c6 b4 55 e3 bc b4 02 ec 0b b5 83 30 f8 b3
       -3.6913661e-07 -3.5183135e-07 -5.212497e-07 -1.1557224e-07
0003b0 05 4e ae 34 77 52 16 34 2d e7 58 b4 ce d6 38 b4
       3.2466792e-07 1.3999839e-07 -2.0200669e-07 -1.7214481e-07
0003c0 82 c5 d2 34 c3 35 17 35 9a 8e fc 34 24 e4 ec 34
       3.9259254e-07 5.6330117e-07 4.7042414e-07 4.412442e-07
0003d0 84 64 27 35 50 a7 c9 33 5c 1d ca b4 25 a0 04 b4
       6.235862e-07 9.390226e-08 -3.7646794e-07 -1.2351718e-07
0003e0 75 5a 92 34 26 96 67 34 0f 90 bd 34 c2 fc 3b 35
       2.7260435e-07 2.1568175e-07 3.530881e-07 7.003074e-07
0003f0 30 cb 40 35 6a d3 3c 35 c8 ea 6a 35 52 5c a2 34
       7.182125e-07 7.0343106e-07 8.7513445e-07 3.0242023e-07

exp_avg_sq f4 [40, 10]
000000 44 23 42 28 1b 67 bf 28 7b c3 13 29 c7 0a 17 29
       1.077681e-14 2.1249975e-14 3.281011e-14 3.3538083e-14
000010 d2 18 e1 28 31 4c 3a 29 78 70 3d 29 76 fb 96 28
       2.4990782e-14 4.1366382e-14 4.206398e-14 1.67624e-14
000020 f3 da 6f 28 7c e9 ff 28 cf 34 10 26 f2 b6 92 26
       1.3314642e-14 2.8411945e-14 5.0031605e-16 1.0180373e-15
000030 96 c3 c9 26 fe 84 98 26 c9 8f 5f 26 ee a7 20 27
       1.400019e-15 1.0583166e-15 7.756353e-16 2.2295495e-15
000040 8e 57 cb 26 0e b4 a2 25 e7 d8 4f 26 a3 85 ba 26
       1.4109686e-15 2.822453e-16 7.211151e-16 1.2942565e-15
000050 bc 8f 66 24 a9 83 d2 24 81 50 fa 24 33 5b fa 24
       4.9995048e-17 9.1296023e-17 1.08556596e-16 1.08574715e-16
000060 41 84 2b 25 c9 54 7a 25 5e 90 3d 25 00 f5 b7 24
       1.4876695e-16 2.171277e-16 1.644205e-16 7.9778645e-17
000070 81 80 cb 24 f9 f3 02 25 13 28 28 28 bd 86 b6 28
       8.825491e-17 1.1358364e-16 9.334563e-15 2.0264492e-14
000080 52 dc fd 28 29 4c d0 28 7e 60 c2 28 45 60 1d 29
       2.8184191e-14 2.3125668e-14 2.1580173e-14 3.4944503e-14
000090 a4 f0 e3 28 b4 4f 2b 28 f9 76 6b 28 3b 01 ff 28
       2.5306424e-14 9.50969e-15 1.3070919e-14 2.831122e-14
0000a0 4f 63 ab 26 92 05 d4 26 b6 e5 dd 26 c4 c1 85 26
       1.1892426e-15 1.4711965e-15 1.5397219e-15 9.281249e-16
0000b0 6a 86 1d 27 ba 1b ad 27 75 b0 09 27 66 06 45 26
       2.1860993e-15 4.8047207e-15 1.9108227e-15 6.8356776e-16
0000c0 6f 00 c9 26 04 e4 e8 26 dc 5a 74 28 07 be 00 29
       1.3947294e-15 1.6160038e-15 1.3564423e-14 2.8586532e-14
0000d0 66 e7 3c 29 5d 90 26 29 b5 4d c4 28 bd b3 7f 29
       4.1945092e-14 3.698462e-14 2.1794071e-14 5.6777272e-14
0000e0 85 23 94 29 7b 28 a9 28 99 0b 66 28 7a df 18 29
       6.578682e-14 1.8780325e-14 1.277008e-14 3.3944615e-14
0000f0 1e 31 61 26 8e 86 cd 26 9e 94 b2 26 bb d4 ff 25
       7.812912e-16 1.4261204e-15 1.2391514e-15 4.43796e-16
000100 18 3c 35 26 c3 3e 29 27 10 c2 db 26 db 06 a2 25
       6.287843e-16 2.3487485e-15 1.5248778e-15 2.8107166e-16
000110 6a 5d 5b 26 c7 1c d8 26 e6 93 38 26 5f 86 68 26
       7.610749e-16 1.4995811e-15 6.4038264e-16 8.0673276e-16
000120 3b 5f 84 26 b8 dc 7e 26 aa 07 7d 26 5d 80 04 27
       9.185152e-16 8.842308e-16 8.7787395e-16 1.8388266e-15
000130 99 22 56 26 df 42 50 26 97 2c 82 26 22 75 89 26
       7.4293053e-16 7.2255124e-16 9.032648e-16 9.538034e-16
000140 81 72 66 26 82 96 31 26 ab 11 b6 26 a5 22 76 27
       7.995246e-16 6.1613187e-16 1.2633576e-15 3.4158139e-15
000150 17 2b 90 26 99 39 96 26 d2 89 b8 26 03 0c 90 26
       1.0003687e-15 1.0423953e-15 1.2804921e-15 9.995263e-16
000160 16 61 a1 26 25 ca 9c 26 9d 7e 1d 2c 98 29 02 2c
       1.1197934e-15 1.0879466e-15 2.2381326e-12 1.84972e-12
000170 ba 1c 6a 2b e9 b9 2f 2c 41 07 14 2d 52 00 51 2c
       8.3173366e-13 2.4972197e-12 8.414437e-12 2.9700864e-12
000180 3f ba 6d 2b 93 25 2f 2c db 82 2b 2c 9c 49 f3 2b
       8.445778e-13 2.4889854e-12 2.43732e-12 1.7286619e-12
000190 9a 98 f0 27 42 68 68 28 dd ab c4 28 63 b5 d9 28
       6.6778832e-15 1.2901194e-14 2.1834905e-14 2.4170504e-14
0001a0 05 15 a0 28 53 c9 08 29 a6 56 d5 28 cf 40 10 28
       1.7772684e-14 3.0372687e-14 2.3685328e-14 8.007659e-15
0001b0 f8 fa 2a 28 5b 0c b1 28 89 57 39 25 35 1c d0 25
       9.491316e-15 1.9656306e-14 1.607585e-16 3.6101362e-16
0001c0 63 71 7b 26 4e b0 81 26 dd 1f 10 26 74 31 56 26
       8.7236786e-16 8.998961e-16 5.000322e-16 7.4313186e-16
0001d0 d7 88 1b 26 ff 45 4c 25 04 31 81 25 88 f1 51 26
       5.396188e-16 1.7717895e-16 2.2411147e-16 7.2838777e-16
0001e0 44 18 ee 23 8f ab 8c 24 84 b4 95 24 fb 9a 34 24
       2.5814289e-17 6.100595e-17 6.4924255e-17 3.9162552e-17
0001f0 20 76 a5 24 44 92 d2 24 78 61 38 24 41 98 08 24
       7.1757455e-17 9.1320766e-17 3.99812e-17 2.9619263e-17
000200 a8 6e 4c 24 7c 1f b5 24 10 02 3e 28 7c 46 b8 28
       4.4329178e-17 7.8549574e-17 1.0547566e-14 2.0458671e-14
000210 07 9a 07 29 51 49 e4 28 d9 c0 d6 28 b7 3c 2b 29
       3.010962e-14 2.5344881e-14 2.3842407e-14 3.802229e-14
000220 fb 04 0a 29 83 c7 64 28 cb 4e 73 28 e4 f9 05 29
       3.0646475e-14 1.2699805e-14 1.3506295e-14 2.9748678e-14
000230 2d 8b 9d 25 54 ae aa 25 54 71 2c 26 36 31 59 26
       2.7329468e-16 2.9608428e-16 5.9828076e-16 7.535369e-16
000240 32 66 0f 26 94 20 02 26 4f ee b4 25 92 37 11 26
       4.975159e-16 4.514696e-16 3.1386507e-16 5.038229e-16
000250 58 fe 9c 25 9b a8 11 26 6c d0 e8 27 a0 79 3b 28
       2.7234036e-16 5.0535484e-16 6.4618907e-15 1.04069585e-14
000260 be 20 9e 28 57 e4 af 28 dc 5e 85 28 83 8a eb 28
       1.7555723e-14 1.952793e-14 1.4807105e-14 2.6150311e-14
000270 f6 1a a0 28 b0 b6 d1 27 0c 01 0f 28 89 3a 96 28
       1.777526e-14 5.8207223e-15 7.938322e-15 1.6678731e-14
000280 0a fb 0c 26 de 08 7a 26 9c fe 8b 26 34 27 f0 25
       4.891248e-16 8.674819e-16 9.714075e-16 4.1659928e-16
000290 d1 85 76 26 3b cd f9 26 cf 01 6a 26 b0 69 9a 25
       8.552975e-16 1.7333474e-15 8.118751e-16 2.6786358e-16
0002a0 33 f7 18 26 70 fd a0 26 af 04 a4 25 40 1b 04 26
       5.307061e-16 1.1170925e-15 2.845264e-16 4.583363e-16
0002b0 04 b2 1a 26 9e 96 e2 25 69 7c 08 26 5f df 11 26
       5.367074e-16 3.9306813e-16 4.7353086e-16 5.0609705e-16
0002c0 c6 b0 50 26 67 57 2e 26 4c e1 88 25 8a 11 26 26
       7.240407e-16 6.048683e-16 2.3744906e-16 5.761659e-16
0002d0 00 11 e0 25 b6 82 06 26 c6 e8 33 26 ad f2 3e 26
       3.8869326e-16 4.6667736e-16 6.2418567e-16 6.624838e-16
0002e0 e4 35 6c 26 17 42 35 26 1d 14 c9 25 0d 57 03 26
       8.1951983e-16 6.288656e-16 3.488157e-16 4.556773e-16
0002f0 dd de e8 25 a4 d2 ec 25 b5 17 d6 2a b3 dd fa 2a
       4.0396603e-16 4.108221e-16 3.8030486e-13 4.4562756e-13
000300 c7 7f 1a 2b 2d ce 28 2b b3 dc d7 2a 17 d7 09 2b
       5.488912e-13 5.9971716e-13 3.8344813e-13 4.8970675e-13
000310 20 b4 2d 2b 76 73 ad 2a 62 27 06 2b 19 81 1c 2b
       6.171192e-13 3.081109e-13 4.766102e-13 5.560149e-13
000320 8a b3 8f 2b 3d 65 fb 2b a3 0a 5d 2c c7 fa 80 2c
       1.0210593e-12 1.7862722e-12 3.1411893e-12 3.6658207e-12
000330 3c 8d 37 2c 74 40 74 2c 59 92 6f 2c 3a df e9 2b
       2.6084265e-12 3.4710264e-12 3.4045182e-12 1.6617604e-12
000340 52 b1 bb 2b 89 84 39 2c 16 8d 89 28 2b 58 18 29
       1.3336365e-12 2.6363653e-12 1.5271242e-14 3.3827253e-14
000350 77 8f 7b 29 64 bd 68 29 5c 37 0a 29 f6 b0 a3 29
       5.5857632e-14 5.167862e-14 3.0690172e-14 7.269352e-14
000360 22 15 88 29 c2 bf 76 28 2e 6d 9c 28 b2 19 3c 29
       6.043279e-14 1.3697324e-14 1.7366828e-14 4.1766673e-14
000370 cc 78 44 2a 30 6f b6 2a 88 af bf 2a 2b 66 66 2a
       1.7450207e-13 3.2406846e-13 3.4050215e-13 2.046355e-13
000380 7c 12 cd 2a 74 e3 25 2b 1c 23 cd 2a 74 15 1d 2a
       3.642814e-13 5.893543e-13 3.6439677e-13 1.3951844e-13
000390 6b b5 8d 2a d5 4e e3 2a 1d 72 a3 2b 6b d3 1e 2c
       2.5172515e-13 4.0378e-13 1.1613519e-12 2.257051e-12
0003a0 78 a6 82 2c 30 05 88 2c da 02 4e 2c 54 a3 a9 2c
       3.713304e-12 3.8659284e-12 2.9275944e-12 4.821402e-12
0003b0 98 e8 91 2c ff f6 dc 2b 32 bb df 2b 72 d9 68 2c
       4.146971e-12 1.5700495e-12 1.589706e-12 3.308989e-12
0003c0 76 ff 95 2b f3 c4 0b 2c 7f 94 8b 2c 19 ef a3 2c
       1.0657991e-12 1.9862417e-12 3.967104e-12 4.659284e-12
0003d0 63 1a 41 2c d8 50 a0 2c c5 64 9b 2c a8 4d 01 2c
       2.7441597e-12 4.556449e-12 4.4165526e-12 1.837511e-12
0003e0 b5 1f d2 2b 34 40 60 2c cf b1 30 2c f4 89 92 2c
       1.4930198e-12 3.1867954e-12 2.5109808e-12 4.1648855e-12
0003f0 00 21 0b 2d a9 c9 2c 2d 72 51 e4 2c f1 e8 0d 2d
       7.908563e-12 9.821846e-12 6.489192e-12 8.0666454e-12

exp_avg f4 [40, 10]
000000 9a f4 dd 33 91 ed 13 34 8b 35 04 b2 fb ac d4 33
       1.0335607e-07 1.3776868e-07 -7.6955855e-09 9.903484e-08
000010 ef 43 ba 30 91 f0 0f 33 3d 3f 55 b2 d1 8e 9e b2
       1.3552589e-09 3.3513576e-08 -1.24126105e-08 -1.8458566e-08
000020 76 4e 24 33 ea c2 3a b1 6f f3 97 b2 3d ef b4 b1
       3.8255585e-08 -2.7177358e-09 -1.7689414e-08 -5.2658877e-09
000030 8d 53 70 30 94 ad 4b b2 aa 44 21 31 ac 45 df b1
       8.7430224e-10 -1.1855622e-08 2.3467615e-09 -6.498075e-09
000040 bd 9f de af 1b 11 64 31 2c 32 b7 b0 af a2 b7 b1
       -4.0495066e-10 3.318809e-09 -1.3329262e-09 -5.344496e-09
000050 05 64 60 b1 65 e2 db b0 71 b2 f0 af b0 4a a7 b1
       -3.2653145e-09 -1.5998692e-09 -4.3782536e-10 -4.8688307e-09
000060 ff 68 af 30 70 ea fc af d7 c0 90 30 28 0b f5 30
       1.2762768e-09 -4.600511e-10 1.0532187e-09 1.7829267e-09
000070 3e 0b bd b0 6f 97 f5 b0 22 75 39 b4 c1 f8 35 b4
       -1.3754755e-09 -1.7869136e-09 -1.727208e-07 -1.6947435e-07
000080 df e9 d9 31 93 4b 32 b4 67 a5 32 32 a8 a3 68 b3
       6.3421193e-09 -1.6605036e-07 1.0398572e-08 -5.4165554e-08
000090 02 8e 90 32 03 c6 23 33 88 54 55 b3 b3 e4 de b2
       1.6828384e-08 3.8131486e-08 -4.9669808e-08 -2.5948202e-08
0000a0 b3 67 c1 b2 d9 eb 29 b2 d2 36 a7 30 50 33 9a b2
       -2.2515314e-08 -9.89072e-09 1.216643e-09 -1.7951294e-08
0000b0 66 3e a3 31 a4 e6 fc b1 ba 6a 02 b0 a0 44 ee 31
       4.7510182e-09 -7.360386e-09 -4.744539e-10 6.9345134e-09
0000c0 92 c6 bb b1 eb c9 00 b2 95 08 89 33 23 ff 01 34
       -5.464991e-09 -7.496491e-09 6.381121e-08 1.210688e-07
0000d0 80 79 d8 b1 98 77 95 33 95 46 b9 31 41 df ab 32
       -6.3002403e-09 6.960107e-08 5.392233e-09 2.0008544e-08
0000e0 35 71 80 b2 ed ce 31 b2 bc 53 0f 33 ca 06 8f b2
       -1.4952642e-08 -1.03498055e-08 3.3370938e-08 -1.6650478e-08
0000f0 73 5b d0 b2 86 a1 64 b2 9d 63 07 30 5e d1 b8 b2
       -2.4255973e-08 -1.3308073e-08 4.9254273e-10 -2.1515628e-08
000100 29 fa 5b 31 e6 cd 05 b2 c2 75 9e 30 d9 a2 d2 31
       3.2010894e-09 -7.788435e-09 1.1529482e-09 6.130318e-09
000110 1d 67 95 b1 34 e8 0d b2 0a d0 3c b3 a2 f6 1a b3
       -4.3481934e-09 -8.260077e-09 -4.396137e-08 -3.608023e-08
000120 7f 03 0b 31 97 99 32 b3 4c 53 cd 31 4d 72 6d b2
       2.022915e-09 -4.1583544e-08 5.975755e-09 -1.3821205e-08
000130 fd 27 90 31 0d d0 4b 32 fa e6 5d b2 5a ac 1e b2
       4.1954977e-09 1.186346e-08 -1.2916411e-08 -9.235999e-09
000140 12 f7 80 b3 c1 c3 5a b3 de d6 e3 30 f8 2f 84 b3
       -6.005406e-08 -5.0935117e-08 1.6577493e-09 -6.1554545e-08
000150 74 14 08 32 ba c3 99 b2 1f 90 de 31 e9 6e 90 32
       7.920892e-09 -1.790055e-08 6.477435e-09 1.6814242e-08
000160 50 a3 99 b2 0d f8 86 b2 c7 42 d1 b5 ed 99 7d b5
       -1.788581e-08 -1.5712454e-08 -1.5591148e-06 -9.4473836e-07
000170 68 40 76 34 ef b5 3c b5 60 e2 f6 b3 e9 0f 4a b5
       2.2933966e-07 -7.0300206e-07 -1.1496445e-07 -7.5274016e-07
000180 bd fa 1a b4 53 3d 0c b3 02 cf 08 34 9f 62 a3 b4
       -1.4433586e-07 -3.2652064e-08 1.2741296e-07 -3.0432872e-07
000190 8e 74 c9 33 61 18 f4 33 31 e9 9c b1 e5 91 d2 33
       9.380993e-08 1.136657e-07 -4.5667083e-09 9.805425e-08
0001a0 a1 63 6e b1 f5 65 fb 32 f1 7d 75 b2 49 0d aa b2
       -3.469019e-09 2.926661e-08 -1.4289513e-08 -1.9796646e-08
0001b0 1a ef 09 33 e8 4f 03 32 67 bf ba b1 65 fe 99 b1
       3.211526e-08 7.643372e-09 -5.4350724e-09 -4.4818074e-09
0001c0 4b 1e 16 af a9 d4 f4 b1 d8 c9 19 31 ad 31 b1 b0
       -1.3653183e-10 -7.1255113e-09 2.2379165e-09 -1.2892564e-09
0001d0 24 c8 05 31 6b 4e 41 31 40 6d 62 b1 c4 0d 2b af
       1.9467814e-09 2.8129772e-09 -3.294943e-09 -1.555725e-10
0001e0 62 11 41 30 fa 36 ce 2e 90 08 3d ae d3 2d 5b 2e
       7.0237693e-10 9.377561e-11 -4.298123e-11 4.9835535e-11
0001f0 47 68 8b 2f 8b c2 be 2f 26 c1 c0 2d bf de 89 2f
       2.5358046e-10 3.469903e-10 2.1913648e-11 2.5078425e-10
000200 ea 07 b6 af 50 06 95 2e c1 45 1d b4 49 74 2e b4
       -3.311123e-10 6.776857e-11 -1.4647141e-07 -1.6247317e-07
000210 f1 a2 ee 31 dc b5 17 b4 bd 76 be 31 e9 d5 48 b3
       6.945236e-09 -1.4129131e-07 5.5432268e-09 -4.676068e-08
000220 79 d3 85 32 19 2f 01 33 7c f3 47 b3 d5 81 49 b2
       1.5579404e-08 3.0077988e-08 -4.6554746e-08 -1.172926e-08
000230 07 f5 d6 b1 1c 7b 50 b2 91 2e 01 30 8c da c8 b1
       -6.256076e-09 -1.2135185e-08 4.69961e-10 -5.845612e-09
000240 04 4d b1 2c 9a 0d f6 b0 46 07 88 2f bf bd e6 30
       5.039193e-12 -1.7902722e-09 2.4743424e-10 1.6788632e-09
000250 53 d4 b1 b1 88 90 83 31 11 43 a6 33 da a3 c8 33
       -5.1755165e-09 3.829033e-09 7.742177e-08 9.34303e-08
000260 75 3f 11 b1 97 61 c0 33 b9 df b3 b1 bf 8c c4 32
       -2.1136348e-09 8.958448e-08 -5.23502e-09 2.2881407e-08
000270 9c a8 86 b2 3f b5 98 b2 e7 f9 e0 32 ee b9 3b 32
       -1.5676328e-08 -1.777755e-08 2.6190675e-08 1.0927108e-08
000280 5c 87 58 b2 6f fb 34 b2 5b ff 02 30 56 9f 3b b2
       -1.2603632e-08 -1.0534548e-08 4.7656606e-10 -1.0921061e-08
000290 30 30 b2 30 70 48 89 b1 ef fb e1 2e 32 05 68 31
       1.29649e-09 -3.99546e-09 1.0276568e-10 3.3763397e-09
0002a0 2b ea 85 b1 61 2e 19 b1 17 ce d1 b2 ac 50 12 b3
       -3.8974313e-09 -2.2290794e-09 -2.4424521e-08 -3.4066645e-08
0002b0 5b 73 b4 ae a2 de 02 b3 77 16 4d 31 ab 01 d0 b1
       -8.2059436e-11 -3.0470467e-08 2.9844196e-09 -6.0537864e-09
0002c0 32 fd c4 31 ef 77 0e 32 1f 0f 64 b2 25 e0 a6 2f
       5.7331357e-09 8.292758e-09 -1.3274785e-08 3.0354488e-10
0002d0 db b4 85 b3 26 f4 7c b3 da 51 27 2f 02 90 8e b3
       -6.2261925e-08 -5.8895374e-08 1.5217641e-10 -6.638585e-08
0002e0 6b 4c e0 31 a2 b8 97 b2 e0 4c 04 32 7d f7 97 32
       6.5279457e-09 -1.7662675e-08 7.700891e-09 1.7691258e-08
0002f0 84 c6 af b2 5a 39 63 b2 4b 38 86 b3 1a 8d 07 b5
       -2.0462956e-08 -1.3226179e-08 -6.250101e-08 -5.049675e-07
000300 de 5f 7b b3 fc 53 fb b4 65 87 9b 33 8f 96 41 33
       -5.8527682e-08 -4.68135e-07 7.242378e-08 4.5073246e-08
000310 15 9f 40 34 ef ff f6 33 40 d0 7b b4 4f c5 da 33
       1.7939267e-07 1.1501822e-07 -2.3451958e-07 1.0187306e-07
000320 13 1e e8 b5 a6 8f fd b5 70 9b c8 33 9f fc d8 b5
       -1.72941e-06 -1.8891776e-06 9.3415e-08 -1.6166777e-06
000330 5e 9d 4e 33 a8 97 14 b5 a8 d2 1f 34 31 10 bd 34
       4.8106237e-08 -5.5354985e-07 1.4884665e-07 3.5215774e-07
000340 7d f8 12 b5 86 17 26 b4 21 92 0d 34 85 ab 86 33
       -5.4750836e-07 -1.5468513e-07 1.318481e-07 6.2710605e-08
000350 9c ca 00 32 5b 8b 22 34 e5 7f 19 b3 f4 41 17 33
       7.496649e-09 1.5138123e-07 -3.5739408e-08 3.521741e-08
000360 a0 69 d7 b2 13 27 49 b3 81 d9 12 33 31 8d 47 33
       -2.5077327e-08 -4.6834497e-08 3.4191093e-08 4.646171e-08
000370 0e c4 7c 34 aa 74 b4 34 e1 4d ef b0 f0 be a3 34
       2.3540653e-07 3.3612497e-07 -1.7411673e-09 3.050004e-07
000380 6c 58 1a b3 29 9c 8f 33 75 42 8e b3 77 d7 a2 b3
       -3.593634e-08 6.687362e-08 -6.624479e-08 -7.582906e-08
000390 c5 36 02 34 e7 a0 77 b1 9e bf 02 36 d7 42 0f 36
       1.2127119e-07 -3.6034693e-09 1.9483045e-06 2.1347566e-06
0003a0 87 50 a9 b3 bc 78 01 36 01 a3 ab b3 da ee 23 35
       -7.8843236e-08 1.9292775e-06 -7.992458e-08 6.1069807e-07
0003b0 d8 35 7c b4 1d e7 dc b4 38 9f 22 35 91 97 5c 34
       -2.3488917e-07 -4.114635e-07 6.0581397e-07 2.0544236e-07
0003c0 7f 96 1e b6 fd d3 2e b6 12 ce ba 33 c9 d0 1f b6
       -2.3631435e-06 -2.6051414e-06 8.698784e-08 -2.3814375e-06
0003d0 2b 00 f2 33 77 8c 44 b5 e8 80 9f 34 45 dc 0b 35
       1.1269034e-07 -7.3220093e-07 2.970985e-07 5.210207e-07
0003e0 7d 81 4c b5 93 11 8a b4 9d 11 57 b6 df 4d 65 b6
       -7.618435e-07 -2.571729e-07 -3.2047749e-06 -3.4168986e-06
0003f0 dc fa 22 34 ac d8 4a b6 a2 9e cf 33 9d f6 87 b5
       1.5178688e-07 -3.0226465e-06 9.668044e-08 -1.0130058e-06

exp_avg_sq f4 [40, 10]
000000 6a e1 36 2c 5e cc 77 2c 7a 28 8d 29 14 d0 cb 2b
       2.5988886e-12 3.5214258e-12 6.2686794e-14 1.4481771e-12
000010 4d c9 48 29 a2 7e 13 2b 74 07 63 29 1a cf ad 28
       4.458352e-14 5.240063e-13 5.041059e-14 1.9296674e-14
000020 24 f1 11 29 f4 0b 0d 2a bd e1 2c 2b 3a b4 80 2b
       3.2405624e-14 1.2527463e-13 6.141995e-13 9.14497e-13
000030 22 74 9a 28 56 8b 8d 2a d8 ac 5b 28 d8 02 1a 2a
       1.71478e-14 2.5143315e-13 1.2194422e-14 1.3678934e-13
000040 d1 db 0a 28 6e ad 17 26 6a ad 84 27 91 bf 1b 29
       7.708204e-15 5.262369e-16 3.6825376e-15 3.458307e-14
000050 ca b2 d8 27 d0 9b 11 28 2b bf 29 25 39 d3 60 27
       6.0145887e-15 8.082903e-15 1.4723184e-16 3.1200749e-15
000060 f9 b9 05 25 17 38 b3 26 d7 74 cc 24 fb 73 45 24
       1.1598921e-16 1.2435823e-15 8.866883e-17 4.2815805e-17
000070 70 e2 b6 24 38 d8 a6 25 f3 a5 aa 2b 1b 94 da 2b
       7.931352e-17 2.8942925e-16 1.2125287e-12 1.5530939e-12
000080 55 fb ce 28 a3 fe 9e 2b 17 6d 87 28 d3 2a 5e 2a
       2.2979592e-14 1.1297251e-12 1.5035321e-14 1.9732419e-13
000090 d1 ba 85 29 ee 87 c3 28 90 a4 09 29 63 c4 35 29
       5.938794e-14 2.1708299e-14 3.0562846e-14 4.0360412e-14
0000a0 5e 05 17 2a 78 ed 4d 2a ef c9 74 27 85 09 73 29
       1.3413356e-13 1.8290046e-13 3.397127e-15 5.3965096e-14
0000b0 b0 20 36 27 35 15 07 29 a1 0c 08 27 48 9a 34 25
       2.5275294e-15 2.9994416e-14 1.8880638e-15 1.5664784e-16
0000c0 c5 9a 78 26 24 8b f8 27 d4 87 62 2c 84 a5 96 2c
       8.6252036e-16 6.8984684e-15 3.2191931e-12 4.2816323e-12
0000d0 7d 90 a7 29 ca f4 f5 2b 1d bd 6a 29 ec cd 36 2b
       7.4413545e-14 1.747624e-12 5.2122467e-14 6.4945163e-13
0000e0 e5 ff 86 29 6e 42 c0 28 83 9e 16 29 cf cd 2d 2a
       5.995186e-14 2.1345091e-14 3.3444178e-14 1.5436891e-13
0000f0 a4 71 84 29 c1 a9 a9 29 45 59 23 26 15 a4 93 29
       5.881691e-14 7.534555e-14 5.667297e-16 6.556575e-14
000100 e6 b7 07 26 f8 8f 1f 28 7f ae a8 27 b1 55 ab 26
       4.7086763e-16 8.857491e-15 4.6818556e-15 1.1888735e-15
000110 8a 6b ad 26 55 4f dc 26 3a 42 0a 29 ac 01 19 29
       1.2033435e-15 1.528707e-15 3.0699598e-14 3.3974275e-14
000120 d3 ad ce 25 48 20 02 29 11 2c b6 25 79 cf a3 27
       3.5853091e-16 2.8893798e-14 3.1601828e-16 4.546653e-15
000130 cd fb 06 27 a5 59 3e 26 8d 4a 99 26 cc 4b 51 26
       1.8732737e-15 6.6040983e-16 1.0636715e-15 7.2614165e-16
000140 37 91 89 29 51 57 ae 29 a9 dc a9 26 72 67 1a 29
       6.109213e-14 7.742299e-14 1.1786541e-15 3.4284594e-14
000150 7f 19 a5 26 3c f3 4c 28 80 a8 e2 26 13 74 2f 26
       1.1456086e-15 1.1377018e-14 1.5727572e-15 6.087263e-16
000160 9c a7 f1 26 d2 88 56 27 12 76 ff 2e 72 91 12 2f
       1.6768165e-15 2.9772636e-15 1.1617031e-10 1.3330295e-10
000170 73 4f 4a 2c c5 e7 2a 2e 03 2a 32 2c bd d2 e4 2d
       2.875003e-12 3.8859378e-11 2.5318643e-12 2.6014186e-11
000180 59 46 fa 2b f1 d5 d1 2a de 19 47 2b d2 e0 98 2c
       1.7783094e-12 3.727431e-13 7.07349e-13 4.34506e-12
000190 3c b1 16 2c f6 cd 50 2c 27 c1 70 29 51 9a 9c 2b
       2.1414667e-12 2.967291e-12 5.3458238e-14 1.1127298e-12
0001a0 3d 0a 29 29 c9 74 fb 2a dd e3 30 29 4d af 48 28
       3.753442e-14 4.4667593e-13 3.927749e-14 1.11402425e-14
0001b0 0a 42 d2 28 0a bf ef 29 20 ad 2c 2b 65 bd 82 2b
       2.3343323e-14 1.0646872e-13 6.1346934e-13 9.289623e-13
0001c0 ce 3c 9e 28 21 ca 8c 2a ea fd 5c 28 ff f0 1c 2a
       1.7567894e-14 2.500925e-13 1.2267512e-14 1.3939196e-13
0001d0 58 fc 0e 28 70 d6 dd 25 42 91 86 27 47 4e 21 29
       7.937302e-15 3.8482697e-16 3.734996e-15 3.5817076e-14
0001e0 b7 c8 5c 27 b9 7a a0 27 2e 78 ca 24 78 1e da 26
       3.063994e-15 4.4541977e-15 8.780713e-17 1.5135047e-15
0001f0 81 c0 94 24 71 82 43 26 a3 95 5e 24 0b 35 95 23
       6.451088e-17 6.7830997e-16 4.8265324e-17 1.6177077e-17
000200 28 60 26 24 a5 3b 44 25 ec c3 c9 2b c5 51 fb 2b
       3.607696e-17 1.7020498e-16 1.4336288e-12 1.7857318e-12
000210 54 de e2 28 6c 1e c2 2b 44 3b 98 28 d2 e8 81 2a
       2.518746e-14 1.3792973e-12 1.6901092e-14 2.3076555e-13
000220 a2 f4 a0 29 a9 a6 ef 28 ad ce 16 29 9b c0 52 29
       7.1478644e-14 2.6606608e-14 3.3485953e-14 4.6796426e-14
000230 99 6e f6 29 16 b2 36 2a 09 28 5d 27 62 4b 58 29
       1.094378e-13 1.6226633e-13 3.0691614e-15 4.802702e-14
000240 67 27 32 27 7c 39 de 28 7c 10 ea 26 ef 0c a7 25
       2.4723822e-15 2.4671881e-14 1.624148e-15 2.8978646e-16
000250 3f 4e 74 26 96 f0 d9 27 fd 02 20 2c 03 86 60 2c
       8.476055e-16 6.0490443e-15 2.2739026e-12 3.1906706e-12
000260 75 2d 82 29 15 51 9a 2b f5 0f 36 29 6b d4 0a 2b
       5.781045e-14 1.0964863e-12 4.042596e-14 4.932224e-13
000270 69 02 2e 29 33 4c 05 28 e3 9a b1 28 3a c0 00 2a
       3.8637852e-14 7.399506e-15 1.9718119e-14 1.1435376e-13
000280 11 62 7d 29 75 92 ab 29 b4 d6 17 26 3a b6 9f 29
       5.6262344e-14 7.619332e-14 5.2679626e-16 7.09263e-14
000290 e7 e7 10 26 39 5b 18 28 c1 fc bc 27 8e 7f bb 26
       5.027432e-16 8.457476e-15 5.245452e-15 1.3010305e-15
0002a0 7f e0 ad 26 6a ba c6 26 34 b1 ba 28 c0 26 dc 28
       1.2065136e-15 1.3789538e-15 2.0726998e-14 2.4441712e-14
0002b0 ab 82 66 25 b0 2b fa 28 1f 9a 4f 25 58 80 2d 27
       1.9993592e-16 2.7774522e-14 1.8006606e-16 2.4078148e-15
0002c0 b2 f2 f4 26 ec 17 6b 26 14 8e 7f 26 d8 0f 0e 26
       1.6996684e-15 8.1564424e-16 8.866345e-16 4.928762e-16
0002d0 6e 83 46 29 9c 7b 8a 29 47 76 7c 26 c3 13 2f 29
       4.407883e-14 6.149874e-14 8.759036e-16 3.8874946e-14
0002e0 f5 2b 39 26 ac 4e 02 28 49 2a 01 27 e7 ed a0 26
       6.424434e-16 7.233509e-15 1.792527e-15 1.1166714e-15
0002f0 45 1f 25 27 cb 75 07 27 0a 67 78 2e 8b e0 b0 2e
       2.2915301e-15 1.879887e-15 5.648019e-11 8.04344e-11
000300 b4 ce ce 2b c5 f6 e7 2d a2 65 8d 2b cb 87 53 2d
       1.4694552e-12 2.6371247e-11 1.0046861e-12 1.20241135e-11
000310 ea 19 7f 2b 9e 6e 74 2a b0 d8 55 2b 5e d6 6a 2c
       9.063016e-13 2.1709931e-13 7.5973516e-13 3.3372398e-12
000320 d7 6e 57 2f f5 32 8d 2f 37 fd 9a 2c f4 42 0a 2f
       1.9593514e-10 2.5683958e-10 4.4050557e-12 1.2574813e-10
000330 c4 89 5c 2c 78 77 21 2e 7b 4f 9e 2c 48 cd 1f 2c
       3.1340356e-12 3.671327e-11 4.499454e-12 2.2709213e-12
000340 65 67 84 2c 81 f2 16 2d 07 f4 8c 2d 06 8f cd 2d
       3.7631447e-12 8.5803595e-12 1.6024527e-11 2.3369317e-11
000350 6a 9f f2 2a 0f 6d f1 2c 82 35 ab 2a e6 ae 76 2c
       4.309845e-13 6.86174e-12 3.041283e-13 3.505579e-12
000360 6a 5b 64 2a 73 d6 08 29 8a ac 00 2a 8d 27 74 2b
       2.0282184e-13 3.038407e-14 1.1428545e-13 8.67411e-13
000370 3e 06 33 2d 2a bb 77 2d 3e 3e 5c 2a b1 ca 18 2d
       1.0176358e-11 1.4081883e-11 1.956152e-13 8.685206e-12
000380 53 b2 3a 2a 0e f8 03 2c c9 1f 12 2b ce d4 2e 2a
       1.6581987e-13 1.8753918e-12 5.191373e-13 1.5528136e-13
000390 65 23 54 2a 2c 09 04 2b 00 ea 26 2f 13 4b 49 2f
       1.8841662e-13 4.690855e-13 1.5180746e-10 1.8307515e-10
0003a0 61 20 49 2c b5 02 03 2f 08 9b 0a 2c 3d fb e1 2d
       2.8581792e-12 1.1915342e-10 1.969704e-12 2.569111e-11
0003b0 8e fc af 2c 1c fc 26 2c 0e a0 6d 2c 0e 37 c3 2c
       5.0018384e-12 2.3729968e-12 3.3768574e-12 5.5483456e-12
0003c0 1d b6 b4 2f 6f ff f7 2f 70 8d 02 2d 30 d1 53 2f
       3.2871209e-10 4.5110535e-10 7.42105e-12 1.9264657e-10
0003d0 c6 cc c1 2c 76 8b 8f 2e 9e ff 03 2d b3 0f 3c 2c
       5.5081243e-12 6.5276604e-11 7.503246e-12 2.6725122e-12
0003e0 70 5b a4 2c fb d3 88 2d 17 5b 12 30 fd bf 3a 30
       4.671312e-12 1.5555548e-11 5.3243937e-10 6.793924e-10
0003f0 de f7 46 2d 05 c3 c6 2f 24 84 0a 2d 61 96 d3 2e
       1.13100345e-11 3.615456e-10 7.873733e-12 9.621882e-11

exp_avg f4 [40]
000000 f8 49 d5 b5 1e 52 14 34 75 38 5b 33 ad 36 25 36
       -1.5891264e-06 1.3813448e-07 5.104126e-08 2.4618741e-06
000010 0f 0c 36 34 55 22 96 b5 73 32 97 34 a4 e6 25 35
       1.6954458e-07 -1.1185863e-06 2.8162648e-07 6.1802916e-07
000020 d9 ac 7c 35 42 84 44 37 75 21 b0 b5 41 72 a6 33
       9.412884e-07 1.1713304e-05 -1.3122759e-06 7.75076e-08
000030 9f 1a d9 b0 d5 b2 01 36 99 f5 c0 33 90 7c 98 b5
       -1.5796394e-09 1.9326592e-06 8.985371e-08 -1.1361135e-06
000040 54 25 23 34 05 33 d4 34 59 d6 65 35 1e 78 9c 36
       1.5194138e-07 3.95252e-07 8.5621065e-07 4.663146e-06
000050 fd d4 d0 37 56 69 d6 b5 dd be 8b b6 54 da ef b7
       2.4894713e-05 -1.5974899e-06 -4.164742e-06 -2.8592687e-05
000060 03 19 14 38 dd 72 40 38 f3 97 8a 37 38 db d3 37
       3.5309244e-05 4.5883342e-05 1.6521639e-05 2.5255242e-05
000070 2d 4f 2e b8 ed 26 14 ba 45 78 f9 b5 b8 5b 19 34
       -4.155857e-05 -0.00056515523 -1.8586949e-06 1.4282602e-07
000080 30 3b 68 33 a9 3f 24 36 34 a0 3e 34 98 00 96 b5
       5.407054e-08 2.447496e-06 1.775341e-07 -1.1176044e-06
000090 8e ba c5 34 c0 79 27 35 6a a7 5a 35 67 34 2b 37
       3.6829846e-07 6.238952e-07 8.145495e-07 1.0204595e-05

exp_avg_sq f4 [40]
000000 33 a2 33 2f 3f 0c 08 2e 9e 9a ce 2a 86 f0 d6 2e
       1.633758e-10 3.0933697e-11 3.6700238e-13 9.774319e-11
000010 f1 51 ff 2c ac c3 57 2f e7 32 9e 2c c1 77 44 2c
       7.2566332e-12 1.9623653e-10 4.4962814e-12 2.7919752e-12
000020 61 2b a2 2c 9a 75 cf 31 ab 19 02 2f d9 4a f7 2d
       4.609133e-12 6.0378627e-09 1.183255e-10 2.8113888e-11
000030 1a 60 31 2a ee 14 ef 2e d3 b0 ba 2c cf 20 01 2f
       1.57541e-13 1.08721795e-10 5.3060694e-12 1.1744138e-10
000040 e9 60 8f 2c 09 bf 11 2c 37 90 89 2c 6d 74 48 31
       4.0750636e-12 2.0711785e-12 3.9097853e-12 2.917001e-09
000050 09 9f 74 32 34 c3 68 30 48 01 3a 30 c1 1b 52 32
       1.423883e-08 8.467851e-10 6.7668227e-10 1.2229919e-08
000060 2b 89 b8 32 a6 43 2f 33 41 23 1f 32 9a 92 14 32
       2.1482796e-08 4.080689e-08 9.263034e-09 8.648067e-09
000070 da f8 8b 32 23 45 67 36 bd d6 7f 2f 76 c6 0e 2e
       1.6294894e-08 3.4461925e-06 2.3268405e-10 3.246333e-11
000080 e2 5f d4 2a 3f da e0 2e a0 8e 04 2d 90 80 62 2f
       3.7725297e-13 1.0225109e-10 7.535e-12 2.0600255e-10
000090 ed 2c 0c 2d d4 8a 45 2c 59 6e 70 2c b7 2b 94 31
       7.968054e-12 2.8072449e-12 3.4167307e-12 4.3123367e-09

exp_avg f4 [40]
000000 01 4a d5 b5 24 52 14 34 78 38 5b 33 ab 36 25 36
       -1.5891275e-06 1.3813457e-07 5.104127e-08 2.4618737e-06
000010 19 0c 36 34 57 22 96 b5 73 32 97 34 a3 e6 25 35
       1.6954472e-07 -1.1185865e-06 2.8162648e-07 6.180291e-07
000020 de ac 7c 35 40 84 44 37 75 21 b0 b5 46 72 a6 33
       9.412887e-07 1.1713302e-05 -1.3122759e-06 7.7507636e-08
000030 82 1a d9 b0 d4 b2 01 36 99 f5 c0 33 8f 7c 98 b5
       -1.5796362e-09 1.932659e-06 8.985371e-08 -1.1361134e-06
000040 51 25 23 34 03 33 d4 34 5b d6 65 35 1b 78 9c 36
       1.5194134e-07 3.9525193e-07 8.5621076e-07 4.6631444e-06
000050 00 d5 d0 37 4d 69 d6 b5 dd be 8b b6 54 da ef b7
       2.4894718e-05 -1.5974889e-06 -4.164742e-06 -2.8592687e-05
000060 02 19 14 38 dd 72 40 38 f1 97 8a 37 3a db d3 37
       3.530924e-05 4.5883342e-05 1.6521635e-05 2.5255245e-05
000070 2d 4f 2e b8 ee 26 14 ba 45 78 f9 b5 b1 5b 19 34
       -4.155857e-05 -0.0005651553 -1.8586949e-06 1.4282593e-07
000080 30 3b 68 33 a7 3f 24 36 30 a0 3e 34 96 00 96 b5
       5.407054e-08 2.4474955e-06 1.7753405e-07 -1.1176041e-06
000090 8a ba c5 34 c0 79 27 35 67 a7 5a 35 64 34 2b 37
       3.6829834e-07 6.238952e-07 8.145493e-07 1.0204592e-05
