logs/vanilla_lstm/version_5/checkpoints/epoch=9-step=250.ckpt (torch, 6526 bytes, 12 tensors)

lstm.lstm.weight_ih_l0 f4 [4, 1]
0.3699941 -0.8691443 0.47497788 -0.21201797
00000000: de6f bd3e 3e80 5ebf 4d30 f33e 3d1b 59be

lstm.lstm.weight_hh_l0 f4 [4, 1]
-0.4820311 0.2524916 -0.8091452 -0.9289641
00000000: c8cc f6be 9446 813e 2424 4fbf 97d0 6dbf

lstm.lstm.bias_ih_l0 f4 [4]
-0.726521 0.09787405 0.38557842 0.44365963
00000000: 48fd 39bf 3172 c83d 896a c53e 5b27 e33e

lstm.lstm.bias_hh_l0 f4 [4]
0.5994431 0.50904655 -0.3865187 -0.2895314
00000000: 1a75 193f e050 023f c7e5 c5be 763d 94be

exp_avg f4 [4, 1]
8.187899e-08 2.688076e-08 -1.7923879e-06 6.7905748e-09
00000000: 73d5 af33 6be7 e632 fb91 f0b5 8752 e931

exp_avg_sq f4 [4, 1]
2.1870823e-11 3.0092734e-11 1.2687582e-09 2.6367136e-11
00000000: b760 c02d 6859 042e 7660 ae30 83ed e72d

exp_avg f4 [4, 1]
1.6397502e-09 1.1421375e-08 2.2616816e-06 9.2383e-09
00000000: 955d e130 bd37 4432 65c7 1736 79b6 1e32

exp_avg_sq f4 [4, 1]
3.5928548e-07 8.83829e-07 2.8269555e-05 5.14127e-07
00000000: d2e3 c034 4440 6d35 6824 ed37 8a02 0a35

exp_avg f4 [4]
-1.287394e-06 2.0616949e-06 0.00015759091 -1.0998997e-06
00000000: 85ca acb5 a65b 0a36 fd3e 2539 44a0 93b5

exp_avg_sq f4 [4]
5.5767837e-06 1.3044578e-05 0.0005306994 6.7596666e-06
00000000: 3520 bb36 09da 5a37 a21e 0b3a 18d1 e236

exp_avg f4 [4]
-1.287394e-06 2.0616949e-06 0.00015759096 -1.0998997e-06
00000000: 85ca acb5 a65b 0a36 003f 2539 44a0 93b5

exp_avg_sq f4 [4]
5.5767837e-06 1.3044576e-05 0.0005306994 6.7596666e-06
00000000: 3520 bb36 07da 5a37 a21e 0b3a 18d1 e236
