lightning_logs/version_1/checkpoints/epoch=9-step=250.ckpt (torch, 17778 bytes, 12 tensors)

lstm.lstm.weight_ih_l0 f4 [40, 10]
0	0xbe577e4b	-0.2104427
1	0x3e86874e	0.26275104
2	0x3d997546	0.07493071
3	0xbedcddc5	-0.43137947
4	0xbce7268e	-0.028216626
5	0x3e450658	0.19240701
6	0x3f0f3587	0.5594105
7	0xbdf885a1	-0.12134863
8	0xbe24adff	-0.16081999
9	0xbdbdcb4c	-0.092672914
10	0xbd9322c3	-0.07184365
11	0xbe30752f	-0.17232202
12	0xbef8a67d	-0.4856452
13	0x3db5d5ed	0.08878694
14	0x3f329911	0.6976481
15	0xbcd443cf	-0.02591124
16	0xbc61aeac	-0.013774555
17	0xbe862f61	-0.26208022
18	0xbf14618a	-0.5796133
19	0xbe379d7d	-0.17931171
20	0xbe6b49b7	-0.22977339
21	0xbd68151d	-0.05666076
22	0xbe2207b3	-0.1582325
23	0x3dc0b294	0.09409061
24	0xbd1c611d	-0.038178552
25	0xbed09f50	-0.40746546
26	0x3ccecf2d	0.025245273
27	0x3c96317d	0.018334145
28	0xbea7a9ab	-0.32746634
29	0xbd9e1fdb	-0.0772092
30	0xbdea4cba	-0.11440416
31	0xbf197247	-0.5994
32	0xbefc0299	-0.49220732
33	0x3f20a77a	0.6275555
34	0x3e230210	0.15918756
35	0x3e4b8373	0.19874363
36	0xbf3885c6	-0.7207912
37	0xbf3d68ff	-0.73988336
38	0xbf3ac55d	-0.729574
39	0xbee9aca9	-0.45639542
40	0xbe242145	-0.16028316
41	0xbe82cf10	-0.255486
42	0x3bf4a41e	0.0074658534
43	0xbf3ffcd1	-0.7499514
44	0x3f0bf6fe	0.54673755
45	0x3f0d996a	0.55312216
46	0x3e7308a5	0.23733766
47	0x3dabd899	0.08390922
48	0xbf15536a	-0.58330405
49	0xbe342615	-0.17592652
50	0xbe8fe069	-0.281009
51	0xbd9fcfe6	-0.07803325
52	0x3e8beefb	0.27330765
53	0x3e938aae	0.28816742
54	0xbcd1e172	-0.025620196
55	0xbe27609b	-0.16345446
56	0xbe04894d	-0.12943001
57	0xbea14504	-0.31497967
58	0x3db1c170	0.086794734
59	0x3ea4f0e9	0.3221505
60	0xbe0c0e5e	-0.13677356
61	0xbe333565	-0.17500837
62	0xbecb31d2	-0.39686447
63	0xbeb7c8e8	-0.35895467
64	0x3f1a9c72	0.60394967
65	0x3eeeeaec	0.46663606
66	0x3f253700	0.6453705
67	0x3da2df2e	0.079527244
68	0xbe7d3d1c	-0.24730343
69	0xbf11a69c	-0.5689485
70	0xbe64b94b	-0.22336309
71	0x3e91ee2f	0.28502032
72	0xbdd18bae	-0.1023172
73	0xbedfb492	-0.43692452
74	0x3ea028f6	0.3128125
75	0x3f201921	0.62538344
76	0x3f079fac	0.52978015
77	0x3d06924b	0.03285436
78	0xbd7046c2	-0.05866123
79	0xbed20912	-0.41022545
80	0x3e3f8641	0.18703558
81	0x3d292353	0.041293453
82	0xbe4afb73	-0.19822483
83	0x3e4b8059	0.1987318
84	0xbe81b197	-0.25330803
85	0xbdee99cc	-0.11650428
86	0xbee741c9	-0.45167378
87	0xbeef783e	-0.46771425
88	0xbeb846f1	-0.35991624
89	0xbe88bc69	-0.26706246
90	0xbe9e8822	-0.30963236
91	0x3db6037e	0.08887385
92	0x3e81f858	0.25384784
93	0x3eb0da46	0.3454153
94	0xbe2e8880	-0.17044258
95	0xbea0fafb	-0.31441483
96	0xbe9902f8	-0.29885077
97	0xbe4ff779	-0.20309247
98	0xbdb55125	-0.08853368
99	0x3c19460f	0.009355082
100	0x3e790100	0.24316788
101	0xbd77ad4c	-0.060468003
102	0xbf157733	-0.5838501
103	0xbcef7922	-0.029232565
104	0x3ec0bbf6	0.37643403
105	0x3df2dca2	0.118584886
106	0x3f1b818f	0.60744566
107	0x3eb37cf1	0.3505626
108	0x3e2ef95c	0.1708731
109	0xbf07f62c	-0.53110003
110	0xbec511d4	-0.38490164
111	0xbec626f5	-0.38701597
112	0xbe4e0e03	-0.20122533
113	0xbe37f2ed	-0.17963763
114	0x3e76bff9	0.2409667
115	0x3e2c87e1	0.16848709
116	0xbd65d455	-0.0561107
117	0xbed1a7df	-0.40948388
118	0xbedebc87	-0.4350321
119	0xbf01c369	-0.506888
120	0xbe9b46e8	-0.30327535
121	0xbdc500d3	-0.09619298
122	0x3e1b42ba	0.15162173
123	0xbe2ccc0c	-0.16874713
124	0xbe859fb7	-0.26098415
125	0xbeb881ce	-0.36036533
126	0xbed438fd	-0.4144973
127	0x3dc3bac9	0.09557111
128	0xbdfc04bf	-0.12305593
129	0x3e900aff	0.2813339
130	0xbe094a2d	-0.13407202
131	0xbec31812	-0.38104302
132	0xbe862e51	-0.26207212
133	0xbe1d8a48	-0.15384781
134	0x3da4d3d3	0.08048215
135	0xbef33036	-0.4749772
136	0xbf26d4e0	-0.6516857
137	0xbf8685bf	-1.0509566
138	0xbf731328	-0.94951105
139	0x3d95e068	0.07318193
140	0x3ec277d9	0.37982062
141	0x3d3d78f7	0.04625794
142	0xbeed244b	-0.46316752
143	0xbe5a4fd9	-0.21319522
144	0x3ed69acb	0.41914973
145	0x3f254954	0.64565015
146	0x3e9eb5c3	0.30998048
147	0x3eac4cfe	0.3365249
148	0x3dcaed9c	0.09908602
149	0xbe467766	-0.19381484
150	0xbd262a16	-0.04056748
151	0xbe943119	-0.2894371
152	0xbd51bf0c	-0.051207587
153	0x3e7f2f24	0.24920326
154	0x3e2ba6bf	0.16762827
155	0x3abee950	0.0014565382
156	0xbe7f827f	-0.24952124
157	0xbe6911ac	-0.22760648
158	0xbe1876af	-0.14889024
159	0xbe37f663	-0.17965083
160	0xbdeb89a5	-0.11500863
161	0x3dc6756f	0.096903674
162	0xbf299fc5	-0.66259414
163	0xbeac4878	-0.3364904
164	0x3eb932b9	0.3617151
165	0x3e95b03d	0.29236022
166	0x3f423860	0.7586727
167	0x3ebc876b	0.36822066
168	0xbeebc696	-0.46049947
169	0xbe9c84e8	-0.3057015
170	0x3e8459bf	0.2584972
171	0xbe115925	-0.14194162
172	0xbf29f469	-0.66388565
173	0xbeb4ea1b	-0.35334858
174	0x3eb7f8ba	0.3593195
175	0x3f48b00b	0.7839362
176	0x3e8ed9d8	0.27900577
177	0x3db5cc3d	0.08876846
178	0x3e190585	0.14943512
179	0xbf397a30	-0.7245207
180	0xbebff643	-0.3749257
181	0xbd0339f4	-0.03203769
182	0xbec0ca16	-0.3765418
183	0xbec01d4e	-0.37522358
184	0x3e4095db	0.18807165
185	0x3e4b28a2	0.19839719
186	0xbb31e363	-0.002714359
187	0x3e0fe4df	0.14052151
188	0x3e6258d6	0.221042
189	0xbd171691	-0.036886755
190	0xbec42374	-0.383083
191	0xbeea0eda	-0.45714456
192	0xbe025533	-0.12727813
193	0xbe3ab733	-0.18233947
194	0x3e59f360	0.21284246
195	0xbe8ac0c0	-0.27100182
196	0x3ea9ef7b	0.33190522
197	0xbe109b17	-0.14121662
198	0xbef10385	-0.47072998
199	0xbf16bc80	-0.5888138
200	0xbdec295f	-0.115313284
201	0x3e4183d6	0.18897948
202	0x3ea33003	0.31872568
203	0x3f1044dc	0.5635507
204	0x3e4c6a54	0.19962436
205	0xbf1179c5	-0.5682643
206	0xbd8875b9	-0.06663079
207	0xbea1ffb5	-0.316404
208	0xbdf4e0c9	-0.11956937
209	0x3cf465f2	0.029833768
210	0x3d9cd387	0.07657533
211	0xbeb5c5ad	-0.35502377
212	0xbedb4be8	-0.4283135
213	0x3d7f7bc6	0.0623739
214	0x3e6faeed	0.23406573
215	0x3e60756d	0.21919794
216	0x3d2a0709	0.041510615
217	0x3dd1fb07	0.10252958
218	0xbde01402	-0.10941316
219	0xbe9ada8f	-0.30244872
220	0xbe368f73	-0.17828159
221	0x3de324f5	0.11091033
222	0xbe8e2dfa	-0.27769452
223	0xbe0a072e	-0.13479301
224	0x3f0c2e3e	0.5475806
225	0x3de43194	0.11142269
226	0x3e9ceff0	0.30651808
227	0xbd143363	-0.03618182
228	0xbeb81339	-0.35952166
229	0xbec6b2ee	-0.38808388
230	0x3e6070ab	0.2191798
231	0x3e14435a	0.14478818
232	0x3f10a24a	0.56497633
233	0xbea953c3	-0.33071718
234	0xbee9a21f	-0.456315
235	0xbd22437e	-0.039615147
236	0x3ee4b264	0.4466735
237	0x3f69ce7d	0.913307
238	0x3ee85e5c	0.4538449
239	0x3e2fb34e	0.17158243
240	0x3d8e6f4c	0.06954822
241	0x3e10b335	0.14130862
242	0xbf071e95	-0.5278104
243	0xbf3d30ae	-0.73902404
244	0x3ecdf737	0.40227672
245	0x3f3f22f0	0.74662685
246	0x3ea51898	0.32245326
247	0x3e87a991	0.26496556
248	0xbee4c508	-0.44681573
249	0xbeec10d2	-0.46106583
250	0xbdb9df50	-0.090757966
251	0xbdf92b75	-0.12166492
252	0x3d28b66d	0.0411896
253	0x3ee55cb5	0.44797292
254	0x3f0651fc	0.5246885
255	0x3c0da6a4	0.008645687

lstm.lstm.weight_hh_l0 f4 [40, 10]
0	0x3eb104de	0.34574026
1	0xbe94c0a7	-0.29053232
2	0xbdc89b3b	-0.09795233
3	0x3ec907e4	0.39263833
4	0xbea8ab8d	-0.32943383
5	0x3e477a75	0.19480307
6	0xbd018b74	-0.031627133
7	0xbd05e7c1	-0.03269172
8	0xbe28ff8a	-0.1650373
9	0xbe1b5dc7	-0.15172492
10	0xbe04196c	-0.12900323
11	0xbe60ce07	-0.21953593
12	0x3e9a88f3	0.3018261
13	0xbdcc2d2b	-0.099695526
14	0x3b9485bf	0.0045325453
15	0xbdecb113	-0.11557212
16	0xbddcf31f	-0.10788559
17	0x3e070e90	0.13189149
18	0x3e84ca22	0.25935465
19	0x3e28b5d8	0.16475618
20	0x3e007f62	0.12548593
21	0x3dbd6b09	0.09248931
22	0x3e2b50f8	0.16730106
23	0x3b52854c	0.0032122908
24	0xbe5b91a0	-0.2144227
25	0xbdd6ed06	-0.104944274
26	0xbe6ef5ab	-0.23335902
27	0x3e3ee429	0.18641724
28	0xbdb438f7	-0.08799928
29	0xba942a5f	-0.0011304131
30	0xbe837ec8	-0.25682664
31	0x3cf2ed3c	0.029654138
32	0xbe0047a6	-0.12527332
33	0xbec95d13	-0.39328822
34	0xbe1319d2	-0.14365318
35	0x3e871bab	0.26388296
36	0x3ecfe242	0.4060231
37	0x3ce70f0a	0.028205413
38	0x3def439f	0.116828196
39	0x3e7cb803	0.2467957
40	0x3e223cdd	0.1584353
41	0x3dbab466	0.091164395
42	0xbe833532	-0.25626522
43	0x3ee5d365	0.44887844
44	0x3e74a7aa	0.23892084
45	0xbdf7a1da	-0.120914176
46	0xbeae33ed	-0.3402399
47	0xbe362f93	-0.17791586
48	0xbed4679d	-0.414853
49	0xbed81fb8	-0.422117
50	0x3e2b47b3	0.1672657
51	0xbd0d6e43	-0.034528982
52	0xb9e442e7	-0.00043537395
53	0xbeb36e68	-0.3504517
54	0x3e1ed0ea	0.15509382
55	0x3e21b876	0.15793023
56	0x3d71ee90	0.0590654
57	0x3ddd70da	0.1081254
58	0x3da926e5	0.08259372
59	0x3decce87	0.115628295
60	0xbd97e63e	-0.07416962
61	0xbd2340de	-0.039856784
62	0xbc674ec5	-0.014117901
63	0x3ef448a2	0.47711664
64	0xbd1864a6	-0.03720536
65	0x3cfcf0be	0.030876514
66	0xbe8df967	-0.2772934
67	0xbcfa890a	-0.030582923
68	0xbea1387d	-0.3148841
69	0x3c107054	0.008815844
70	0xbe799e1b	-0.24376719
71	0xbee050c8	-0.4381163
72	0xbe801673	-0.25017127
73	0x3ebac3f5	0.36477628
74	0xbdf33c6c	-0.11876759
75	0xbcda6de9	-0.026663737
76	0xbe113ec6	-0.14184102
77	0x3c5bce9a	0.013415957
78	0x3d86fde6	0.06591396
79	0xbdec8638	-0.11549038
80	0xbe3d86e2	-0.18508485
81	0xbe05149f	-0.12996148
82	0x3e10d557	0.14143883
83	0x3d0532bf	0.0325191
84	0xbdc1cf0b	-0.094633184
85	0xbe287a79	-0.1645297
86	0xbeaa4bc0	-0.33260918
87	0xbe98c6d9	-0.2983921
88	0x3d5a19b5	0.053247172
89	0x3eb044d4	0.34427512
90	0x3eacd2b6	0.3375451
91	0xbe8cebc3	-0.27523622
92	0xbe17d7cb	-0.14828412
93	0xbdcdebef	-0.100547664
94	0xbec45a59	-0.3835018
95	0x3e7df9ba	0.24802294
96	0xbe83682f	-0.25665423
97	0xbeed383e	-0.46331972
98	0x3c23c074	0.009994615
99	0x3d44960d	0.047994662
100	0xbd93695e	-0.071978316
101	0xbe1bd56e	-0.15218136
102	0x3e3d4bb7	0.18485914
103	0x3e933360	0.28750134
104	0xbc99716d	-0.018730843
105	0xbe82b220	-0.25526524
106	0x3e11cad2	0.14237526
107	0xbeb912cf	-0.36147162
108	0xbed2071e	-0.41021055
109	0xbe040328	-0.12891829
110	0x3e104645	0.14089306
111	0x3e838846	0.25689906
112	0x3e723a02	0.2365494
113	0xbe8879a2	-0.26655298
114	0xbe34e16e	-0.1766412
115	0x3d5c485f	0.053779956
116	0xbe589afe	-0.21152875
117	0x3cbf6532	0.023363683
118	0x3df7e3a6	0.12103967
119	0xbc7a4fde	-0.015277831
120	0x3daa0b61	0.083029516
121	0xbbe2f38e	-0.0069260066
122	0x3d90a45a	0.070625976
123	0xbe92c45a	-0.2866543
124	0xbe93d969	-0.28876808
125	0xbe08ebcb	-0.13371198
126	0xbd125d97	-0.035733785
127	0xbe7d5d10	-0.24742532
128	0x3d67c199	0.056581113
129	0xbc17a224	-0.009254966
130	0xbec0afd0	-0.37634134
131	0x3e4c26e6	0.19936714
132	0x3e96775c	0.2938794
133	0xbee77708	-0.45208
134	0x3e09a432	0.13441542
135	0x3d5c84d9	0.05383763
136	0x3dcae1e0	0.099063635
137	0x3d802cdc	0.06258556
138	0xbe41b10a	-0.18915191
139	0x3e373199	0.17890014
140	0xbe27335a	-0.16328183
141	0xbefb1bc1	-0.49044612
142	0xbd6a3faf	-0.05718964
143	0x3eb01de9	0.3439782
144	0x3dbd11d7	0.09231918
145	0xbd7d49a9	-0.061837826
146	0x3e0d31f2	0.13788584
147	0xbdd2c05e	-0.102905974
148	0xbde73e18	-0.1129114
149	0x3dfdd681	0.12394429
150	0x3e2d0635	0.16896899
151	0x3db9e8b1	0.090775855
152	0x3e8aaa0d	0.27082863
153	0x3deec8c9	0.116593905
154	0x3df3df52	0.11907829
155	0xbd06fa8a	-0.032953776
156	0x3c10dd08	0.00884176
157	0xbe2b1742	-0.16708091
158	0x3c930044	0.017944463
159	0xbdf52fbb	-0.119719945
160	0x3e5b09bf	0.21390437
161	0xbef211fa	-0.4727934
162	0x3dda9d67	0.10674553
163	0xbb848917	-0.0040446627
164	0xbe443bb9	-0.19163407
165	0xbd85fe35	-0.06542627
166	0xbeab2a28	-0.334306
167	0xbb474ef5	-0.0030412052
168	0xbc827eac	-0.015929542
169	0xbe69feef	-0.22851156
170	0x3debc52b	0.11512216
171	0x3d578169	0.05261365
172	0x3e10ea6e	0.14151928
173	0x3e9ec788	0.31011605
174	0xbc4ee407	-0.012627608
175	0xbec360e1	-0.3815985
176	0xbe83ac20	-0.25717258
177	0x3d86f081	0.06588841
178	0x3a6ffad8	0.0009154505
179	0xbdfc775e	-0.12327455
180	0x3ea89c07	0.3293154
181	0xbe3c0913	-0.18362837
182	0x3dbafa02	0.091297165
183	0xbd09689d	-0.033547033
184	0xbec8fef8	-0.39257026
185	0x3e756f48	0.23968232
186	0xbd9f1737	-0.077681
187	0x3dc81afe	0.09770773
188	0xbdc24aeb	-0.09486946
189	0x3e643f79	0.22289838
190	0x3ee423e1	0.44558623
191	0x3e07fe9c	0.1328072
192	0x3e2ac177	0.16675363
193	0xbe3827b2	-0.17983893
194	0xbd532439	-0.051548216
195	0x3bad356f	0.005285911
196	0xbea44596	-0.3208434
197	0xbdc71edc	-0.09722683
198	0x3cd746d7	0.026278896
199	0xbe286881	-0.16446115
200	0x3e3c14ba	0.18367282
201	0x3eab46a3	0.3345233
202	0xbda06d70	-0.078333735
203	0xbee6349d	-0.44962016
204	0x3e78fff4	0.24316388
205	0xbe44a6ae	-0.19204208
206	0x3e7f333e	0.24921891
207	0xbe9a8b9a	-0.30184633
208	0x3e89b270	0.2689395
209	0xbd6e96f1	-0.058249418
210	0xbeb09d91	-0.34495214
211	0x3cc8f8fd	0.02453279
212	0xbe4fc226	-0.20288906
213	0xbda06775	-0.07832233
214	0x3ead4904	0.3384477
215	0xbd8388d2	-0.06422581
216	0x3e9fdfbe	0.3122539
217	0xbde57d7d	-0.112055756
218	0xbd44eec2	-0.04807926
219	0x3d8cec16	0.06880967
220	0x3e340350	0.17579389
221	0xbe3a6a48	-0.18204606
222	0x3d5ce885	0.053932685
223	0x3e630a0d	0.22171803
224	0xbda896ea	-0.082319096
225	0x3e1e701f	0.15472458
226	0x3c3c15e7	0.011479831
227	0x3e4af3fa	0.19819632
228	0xbecad638	-0.3961656
229	0xbe90ae2f	-0.28257892
230	0x3f041b47	0.5160412
231	0xbe163a28	-0.14670622
232	0x3e8b2a64	0.2718078
233	0x3e6c6165	0.23084028
234	0xbf08684c	-0.53284144
235	0x3df0665b	0.11738273
236	0xbed5cb65	-0.4175674
237	0xbe8f51b1	-0.27992013
238	0x3e9bc5b4	0.30424273
239	0xbe578882	-0.21048167
240	0x3e062829	0.13101257
241	0xbecf4dea	-0.4048913
242	0x3dc2c7af	0.09510743
243	0x3d61b2f9	0.055102322
244	0xbe6c6550	-0.23085523
245	0xbe7cebc1	-0.24699308
246	0xbe4cca17	-0.19998966
247	0xbe0c06db	-0.1367449
248	0xbed7d39d	-0.42153636
249	0xbcdead52	-0.027182255
250	0xbed374d7	-0.4130008
251	0x3e320a73	0.17386799
252	0x3d26c94a	0.040719308
253	0x3ec74637	0.38920757
254	0xbd4deaa3	-0.050272595
255	0x3d191cff	0.03738117

lstm.lstm.bias_ih_l0 f4 [40]
0	0x3e7cb80d	0.24679585
1	0xbd99f40c	-0.07517251
2	0x3e40e335	0.18836673
3	0x3e2155df	0.15755413
4	0x3e82a474	0.25516093
5	0x3d25b893	0.040459227
6	0xbe752db0	-0.2394321
7	0xbcb80171	-0.022461625
8	0xbebb7b9b	-0.3661774
9	0xbe8c62da	-0.27419168
10	0x3e75ca3f	0.24002932
11	0xbddf287f	-0.10896396
12	0x3c186712	0.009301918
13	0xbd96c0a7	-0.07360964
14	0x3dfe6e55	0.12423388
15	0xbe740c79	-0.23832883
16	0x3e3113ce	0.17292711
17	0x3e4adacf	0.19810031
18	0x3dd46855	0.10371462
19	0x3dc4e58e	0.096140966
20	0xbec5c430	-0.38626242
21	0x3daa8256	0.08325641
22	0x3c9d75f6	0.019221287
23	0xbdfb8be1	-0.12282539
24	0x3e50d263	0.20392756
25	0xbe32b862	-0.17453149
26	0x3e1f72d9	0.15571155
27	0x3ea5353d	0.3226718
28	0xbe15f5b8	-0.14644516
29	0x3db881a1	0.090091
30	0xbe665685	-0.22493942
31	0xbdfbbd82	-0.12292005
32	0x3e3af9eb	0.18259399
33	0x3e80a5d8	0.2512653
34	0x3e2311db	0.1592478
35	0x3dbd90e3	0.092561506
36	0x3ea941dd	0.33058062
37	0xbe081fe1	-0.13293411
38	0xbe3b9b63	-0.18320994
39	0x3dafae72	0.08578195

lstm.lstm.bias_hh_l0 f4 [40]
0	0xbd7d496e	-0.061837606
1	0xbe94f8b5	-0.29095998
2	0xbdf293ec	-0.1184462
3	0x3da395a5	0.07987527
4	0xbca6e78d	-0.020374084
5	0xbec30e8b	-0.38097033
6	0x3ea886f2	0.32915455
7	0xbe534ad0	-0.20634007
8	0xbe4a7c2d	-0.19773932
9	0xbe7692ce	-0.24079439
10	0x3df37ebb	0.11889406
11	0x3e3260c8	0.17419732
12	0x3d01e1a3	0.031709325
13	0x3e8b7eb8	0.27245116
14	0xbe7e6716	-0.24844012
15	0xbe95ab88	-0.2923243
16	0x3e6f16c8	0.23348534
17	0xbd61fdc4	-0.05517365
18	0xbea6f24c	-0.32606733
19	0x3d4f4624	0.050604
20	0x3dc5f60a	0.09666069
21	0x3d843300	0.0645504
22	0xbd45bed6	-0.0482777
23	0x3cc6feeb	0.024291476
24	0x3e5d766c	0.21627206
25	0x3e6bf8ce	0.2304413
26	0x3ddbc7ef	0.10731494
27	0x3ea30061	0.31836227
28	0x3e1d9b66	0.15391311
29	0xbe3a9cde	-0.18223903
30	0x3ea0ddc6	0.314192
31	0xbea63847	-0.3246481
32	0xbe7da894	-0.24771339
33	0xbe54a146	-0.20764646
34	0x3d81da7d	0.063405015
35	0x3d824692	0.063611165
36	0xbb368002	-0.0027847295
37	0x3a8ab049	0.0010581102
38	0xbeb0b1a8	-0.3451054
39	0xbe5fdc67	-0.2186142

exp_avg f4 [40, 10]
0	0x323675ba	1.0620562e-08
1	0xb286c4ab	-1.5689087e-08
2	0xb268e219	-1.3555586e-08
3	0xb0cccbfd	-1.490093e-09
4	0xb27bc13a	-1.46540575e-08
5	0xb2d6ffe0	-2.5029237e-08
6	0x314ef36e	3.011532e-09
7	0x330bf561	3.258663e-08
8	0x32b016ef	2.0499526e-08
9	0xb1adeeb9	-5.0621023e-09
10	0xb15fceb8	-3.2568277e-09
11	0x32bfb8d6	2.231938e-08
12	0x331996bd	3.5760184e-08
13	0x32e0151e	2.6086635e-08
14	0x32164a00	8.747975e-09
15	0x3213f008	8.611103e-09
16	0x321d6efb	9.163837e-09
17	0x317bdde4	3.6651437e-09
18	0x321fcd4e	9.301699e-09
19	0x32e06c30	2.612623e-08
20	0xb17c2157	-3.6689778e-09
21	0x3286cb7c	1.5692187e-08
22	0x3208c6dc	7.961457e-09
23	0xb1eb4868	-6.847632e-09
24	0x322a2f26	9.906023e-09
25	0x32ec2501	2.7490843e-08
26	0x32fc9a7c	2.9406912e-08
27	0x3255d35f	1.2446292e-08
28	0x31335922	2.6098594e-09
29	0x31027f8e	1.8989996e-09
30	0xb0caa1a3	-1.4743374e-09
31	0x32e6f525	2.6887003e-08
32	0x33449526	4.5770456e-08
33	0x32cdacfc	2.3943805e-08
34	0x3242756d	1.1318986e-08
35	0x3336f838	4.260093e-08
36	0x3396c07d	7.019933e-08
37	0x339a4302	7.1833725e-08
38	0x338b6b37	6.492194e-08
39	0x33852346	6.199711e-08
40	0xb2af1846	-2.038372e-08
41	0xb3bbb0e8	-8.740045e-08
42	0xb395b00c	-6.970376e-08
43	0xb24e5477	-1.2009983e-08
44	0xb2e832ed	-2.7031513e-08
45	0xb33c11b0	-4.3788248e-08
46	0x326e0ac0	1.3855868e-08
47	0x3360c489	5.2332812e-08
48	0x31ad2010	5.0386078e-09
49	0xb32e4936	-4.0579117e-08
50	0x318cc408	4.0968224e-09
51	0x305651e1	7.7969103e-10
52	0xb0bfd81d	-1.3958502e-09
53	0xb1809d9c	-3.7432084e-09
54	0xb183db3a	-3.837525e-09
55	0xb1107a0e	-2.1024138e-09
56	0xb109e73b	-2.0067563e-09
57	0xafba5f83	-3.3901068e-10
58	0x304d33aa	7.4651985e-10
59	0x2ca0cf70	4.5705037e-12
60	0xb2c9591b	-2.344e-08
61	0xb3d670cd	-9.98567e-08
62	0xb3b5703c	-8.4488846e-08
63	0xb30a97e5	-3.2268776e-08
64	0xb374ce8c	-5.699853e-08
65	0xb381987c	-6.034767e-08
66	0x3301ba2a	3.020447e-08
67	0x33a3ade8	7.621912e-08
68	0x3293e8ed	1.7218975e-08
69	0xb30c0e1f	-3.2609133e-08
70	0xb35ff91c	-5.2147797e-08
71	0xb4901e62	-2.6844197e-07
72	0xb483285d	-2.443002e-07
73	0xb3bee78f	-8.889685e-08
74	0xb4225316	-1.5117652e-07
75	0xb44a1dc2	-1.8823542e-07
76	0x312e6a96	2.538092e-09
77	0x33fed915	1.1867284e-07
78	0x31572eb9	3.1313176e-09
79	0xb3e7b41e	-1.0789539e-07
80	0xb1dd1a3c	-6.434929e-09
81	0xb135e98e	-2.6471727e-09
82	0xb203aed7	-7.664958e-09
83	0xb24b1c91	-1.182265e-08
84	0xb0d2a4f8	-1.5326398e-09
85	0x32a718b1	1.9452587e-08
86	0x32ee3df9	2.7735028e-08
87	0x32374afe	1.0669053e-08
88	0xb0165485	-5.468979e-10
89	0xb189759d	-4.000596e-09
90	0x344afb4e	1.890414e-07
91	0x3431f3c2	1.6573088e-07
92	0xb4e1afdf	-4.203748e-07
93	0xb535970f	-6.7647574e-07
94	0x348f67e9	2.671143e-07
95	0x3572d565	9.0462555e-07
96	0x34274676	1.557872e-07
97	0xb41ce804	-1.4613039e-07
98	0x34106b0e	1.3449991e-07
99	0xb2b2fc1b	-2.0836572e-08
100	0x31be9b95	5.5474154e-09
101	0xb21f757b	-9.28173e-09
102	0xb20f75f4	-8.350515e-09
103	0xb1dd8c31	-6.4478844e-09
104	0xb2a50227	-1.9209507e-08
105	0xb2b66c24	-2.1236765e-08
106	0x3172f2a9	3.5353571e-09
107	0x32bea13c	2.2192232e-08
108	0x328e60e7	1.6575042e-08
109	0x32766c04	1.43436445e-08
110	0xb1fe67ce	-7.404174e-09
111	0x3148cc85	2.9220086e-09
112	0x3286d9b2	1.569865e-08
113	0x32a4835b	1.9151846e-08
114	0x324e9c26	1.2026282e-08
115	0x32558b80	1.242995e-08
116	0x327f3a21	1.48561705e-08
117	0x32822c46	1.5154125e-08
118	0x328ac617	1.6155395e-08
119	0x3297d9fe	1.7677845e-08
120	0x30664ffd	8.378718e-10
121	0x32d0556e	2.4253236e-08
122	0x32d46338	2.4725168e-08
123	0x32892a90	1.5968254e-08
124	0x32b603fb	2.1189399e-08
125	0x32cb1432	2.3641494e-08
126	0x30b2430d	1.2970262e-09
127	0xb290b3b2	-1.6845522e-08
128	0xb17e2407	-3.6982344e-09
129	0x32380462	1.0711206e-08
130	0xb3a5dace	-7.7232116e-08
131	0xb30b43ca	-3.2425113e-08
132	0x33030187	3.0502203e-08
133	0x3394424b	6.903846e-08
134	0x33bf6d4e	8.914013e-08
135	0x34025b6e	1.2140455e-07
136	0x341206db	1.3599804e-07
137	0x33d5de3a	9.959008e-08
138	0x3360d6a7	5.234929e-08
139	0x33089139	3.1797047e-08
140	0xb30f8e32	-3.3424108e-08
141	0xb3949593	-6.9189944e-08
142	0xb31bd39b	-3.6281204e-08
143	0x321d3090	9.149645e-09
144	0xb2983923	-1.7721112e-08
145	0xb332fac4	-4.1671925e-08
146	0xb193ebbe	-4.305064e-09
147	0x32ad682d	2.0187224e-08
148	0xb1d709bc	-6.25843e-09
149	0xb26a5a03	-1.3641059e-08
150	0x313f986e	2.7880804e-09
151	0xb093733b	-1.0728408e-09
152	0xb14482c2	-2.859608e-09
153	0xb122afd2	-2.3674045e-09
154	0xb0b3b404	-1.3075128e-09
155	0xb0c28f2d	-1.4156051e-09
156	0xb0d2341e	-1.5294324e-09
157	0x3092c49a	1.0678776e-09
158	0x31001a8b	1.864154e-09
159	0xaed0abb2	-9.489244e-11
160	0xb33ae8f3	-4.3518366e-08
161	0xb3b5c4c2	-8.464259e-08
162	0xb34e1c64	-4.7988934e-08
163	0x31de6fbe	6.473754e-09
164	0xb2f13cc4	-2.8083726e-08
165	0xb35f37c7	-5.1971963e-08
166	0xb204d3ef	-7.731599e-09
167	0x3253878f	1.2312639e-08
168	0xb299f893	-1.7924583e-08
169	0xb291d9e4	-1.6979307e-08
170	0xb3b185ee	-8.2665665e-08
171	0xb456c82e	-2.0003128e-07
172	0xb40dd2af	-1.3208295e-07
173	0xb26d1c97	-1.3801716e-08
174	0xb3c7bd91	-9.3011415e-08
175	0xb41fdcd5	-1.4888367e-07
176	0xb320ef28	-3.7470414e-08
177	0x32f95d5d	2.9029872e-08
178	0xb34d4a09	-4.7797617e-08
179	0xb39d6d37	-7.330748e-08
180	0xb1693d0a	-3.394066e-09
181	0x3142a494	2.8324267e-09
182	0x31f2787c	7.0568245e-09
183	0x32116bb1	8.464597e-09
184	0x31fb4a11	7.313482e-09
185	0x31b811c3	5.357124e-09
186	0xb110ea3b	-2.1087903e-09
187	0xb20114f8	-7.513556e-09
188	0xb1789c96	-3.6177759e-09
189	0x310bcc6c	2.0343363e-09
190	0x34dde136	4.132832e-07
191	0x35258559	6.1661336e-07
192	0x351eceef	5.9160715e-07
193	0x346c1e45	2.1990225e-07
194	0xb369161b	-5.4269645e-08
195	0xb5295971	-6.308756e-07
196	0xb56a9a53	-8.7396364e-07
197	0xb49fb8cc	-2.9750515e-07
198	0x34d1b6e7	3.9062363e-07
199	0x3546e312	7.409118e-07
200	0xb361c22d	-5.2563497e-08
201	0x3492e98b	2.7364544e-07
202	0x3491b7c6	2.7142067e-07
203	0x33806c86	5.980205e-08
204	0x33c616f8	9.2242715e-08
205	0x342acd1e	1.5907105e-07
206	0xb31bdbe5	-3.6288743e-08
207	0xb48c31f5	-2.611338e-07
208	0xb44f2ab2	-1.929391e-07
209	0xb295073c	-1.7349173e-08
210	0xb3e61f27	-1.0715876e-07
211	0x320c4823	8.1654745e-09
212	0x342b5d4f	1.5959561e-07
213	0x34528e93	1.9609642e-07
214	0x3408e8f1	1.275073e-07
215	0x34056d11	1.2426268e-07
216	0x3402ce86	1.2182326e-07
217	0x3388a515	6.363022e-08
218	0x3290de58	1.6864917e-08
219	0x332c3cf9	4.0102325e-08
220	0xb45d57b7	-2.061414e-07
221	0xb50dbe5c	-5.28036e-07
222	0xb4be814d	-3.5484337e-07
223	0xb257c327	-1.255902e-08
224	0xb48d7b74	-2.635312e-07
225	0xb4df8a88	-4.1637782e-07
226	0xb3dc130e	-1.0248014e-07
227	0x338860ed	6.350624e-08
228	0xb42426b7	-1.5287775e-07
229	0xb47ee70e	-2.373965e-07
230	0x349fe631	2.9783544e-07
231	0x32447bd8	1.143686e-08
232	0xb4ae7532	-3.2495296e-07
233	0xb4ea8410	-4.3681985e-07
234	0xb4d75982	-4.0111996e-07
235	0xb5001a8f	-4.7722364e-07
236	0xb4fa49e3	-4.6619888e-07
237	0xb460b788	-2.0928394e-07
238	0xb2574790	-1.25309185e-08
239	0xb33500b1	-4.2142975e-08
240	0xb43cd97a	-1.7587982e-07
241	0xb51f6aed	-5.9387713e-07
242	0xb4dc8e06	-4.108153e-07
243	0x330866cb	3.1758457e-08
244	0xb3cc4ad5	-9.513102e-08
245	0xb497540c	-2.8187094e-07
246	0xb2ad5601	-2.017896e-08
247	0x3463096f	2.1144454e-07
248	0xb1b8f750	-5.383221e-09
249	0xb4606124	-2.0896965e-07
250	0xb2acfe43	-2.013906e-08
251	0x33f781b2	1.1525425e-07
252	0x340595c9	1.2441082e-07
253	0xb1f3e3c2	-7.098124e-09
254	0xb3e408f5	-1.06187066e-07
255	0x32eed705	2.7804626e-08

exp_avg_sq f4 [40, 10]
0	0x297cbb0a	5.611747e-14
1	0x29273c7c	3.713391e-14
2	0x29129b8c	3.2553428e-14
3	0x293292e0	3.9651333e-14
4	0x28f7a7e1	2.7495315e-14
5	0x28f240e5	2.689554e-14
6	0x29302300	3.9110208e-14
7	0x295e1c71	4.931857e-14
8	0x293dfd30	4.2186035e-14
9	0x28f2c6ef	2.6953671e-14
10	0x27ff20c8	7.081226e-15
11	0x286c24b3	1.31085896e-14
12	0x285d44cf	1.2282885e-14
13	0x27f8174e	6.8859095e-15
14	0x284400f1	1.088039e-14
15	0x28820620	1.4435556e-14
16	0x28248d6e	9.1344965e-15
17	0x27c11cb6	5.359939e-15
18	0x284960a6	1.1178699e-14
19	0x289246f5	1.6240029e-14
20	0x2a998eb3	2.7277277e-13
21	0x2a2a4898	1.5124219e-13
22	0x2908e757	3.039872e-14
23	0x29321a06	3.954651e-14
24	0x28ceda9e	2.2965404e-14
25	0x29ba5ba5	8.275957e-14
26	0x2a64b685	2.0313792e-13
27	0x2a9f0eb0	2.8254265e-13
28	0x2a6a9766	2.0835902e-13
29	0x293f1745	4.2430703e-14
30	0x2884152c	1.4664126e-14
31	0x285b0b7b	1.21594315e-14
32	0x2816e6c3	8.376711e-15
33	0x2829d6d4	9.427968e-15
34	0x289dba9f	1.7511435e-14
35	0x28c40d2d	2.1766085e-14
36	0x28983697	1.6899065e-14
37	0x2884c303	1.4739517e-14
38	0x2891f408	1.6204066e-14
39	0x289aa95f	1.7170888e-14
40	0x294b23f6	4.5106246e-14
41	0x295a59d4	4.8483637e-14
42	0x298559e8	5.921983e-14
43	0x29594462	4.8242992e-14
44	0x293fd942	4.259896e-14
45	0x29b7bab0	8.1592177e-14
46	0x29beaaa1	8.4672944e-14
47	0x2970f4aa	5.3502917e-14
48	0x29395d14	4.1158984e-14
49	0x2986761c	5.971284e-14
50	0x289e6d78	1.7588998e-14
51	0x27a42877	4.5563016e-15
52	0x26f266f8	1.6820033e-15
53	0x27171245	2.0965364e-15
54	0x274cc311	2.8416433e-15
55	0x286b3b61	1.3057996e-14
56	0x28c974a5	2.236607e-14
57	0x28c0b809	2.1396095e-14
58	0x280e4941	7.898468e-15
59	0x269e341c	1.0977577e-15
60	0x29f2f632	1.0789667e-13
61	0x29f301bd	1.07916693e-13
62	0x2a156ff8	1.3272705e-13
63	0x2a0fedf3	1.2783507e-13
64	0x2a19cac4	1.3659478e-13
65	0x2a688ee0	2.0655309e-13
66	0x2a61ff85	2.0072666e-13
67	0x2a16f689	1.340821e-13
68	0x29d9bde3	9.669676e-14
69	0x2a26c058	1.4810494e-13
70	0x2b34f1cc	6.4284407e-13
71	0x2b1d4658	5.5875226e-13
72	0x2b32d458	6.353299e-13
73	0x2b1fc58b	5.6762293e-13
74	0x2b293e91	6.012769e-13
75	0x2b9995f2	1.0912922e-12
76	0x2b9792d7	1.0769952e-12
77	0x2b48e162	7.1367055e-13
78	0x2b257156	5.877706e-13
79	0x2b476084	7.0832945e-13
80	0x28a9f392	1.8868401e-14
81	0x287bca90	1.3977223e-14
82	0x278df8c4	3.9405074e-15
83	0x26b003b4	1.2213457e-15
84	0x27ead79e	6.518182e-15
85	0x289907f3	1.698986e-14
86	0x28a0ea22	1.7865107e-14
87	0x28a64465	1.8459364e-14
88	0x288fc750	1.5962627e-14
89	0x27db3a4b	6.084791e-15
90	0x2d22ed22	9.261288e-12
91	0x2cd4fba5	6.0533406e-12
92	0x2c3faedb	2.7239797e-12
93	0x2d1840b7	8.654569e-12
94	0x2e08ed3f	3.1133537e-11
95	0x2df02dda	2.7305203e-11
96	0x2d351bdc	1.0294845e-11
97	0x2d2ac56a	9.707216e-12
98	0x2d139821	8.389762e-12
99	0x2ca91daf	4.8065644e-12
100	0x29047bd2	2.9417285e-14
101	0x28d9214b	2.4106278e-14
102	0x290d48b0	3.1371336e-14
103	0x290d25c5	3.134105e-14
104	0x28db7748	2.4365614e-14
105	0x29319002	3.9426802e-14
106	0x2977f4ec	5.5057453e-14
107	0x2930c36c	3.9249352e-14
108	0x28cbb84e	2.2617457e-14
109	0x29141566	3.2881162e-14
110	0x27fff757	7.1044884e-15
111	0x28104266	8.008004e-15
112	0x2817f1dc	8.434629e-15
113	0x27df5025	6.1981826e-15
114	0x281e3d6f	8.784083e-15
115	0x285f6244	1.2400295e-14
116	0x28186bf3	8.461103e-15
117	0x27c3af95	5.431374e-15
118	0x27ec0a87	6.5514572e-15
119	0x283a27b8	1.0333687e-14
120	0x29d71b69	9.552673e-14
121	0x293dfaad	4.2183857e-14
122	0x295af688	4.8619556e-14
123	0x2918238f	3.3781622e-14
124	0x2a31dafd	1.5796735e-13
125	0x2ad00ead	3.6958406e-13
126	0x2ac2cb6e	3.460248e-13
127	0x2a20c936	1.4280664e-13
128	0x2926f1c4	3.7069103e-14
129	0x296f3804	5.3117246e-14
130	0x28e57612	2.5475312e-14
131	0x28fa7461	2.7806047e-14
132	0x28935174	1.6355603e-14
133	0x287577d9	1.362622e-14
134	0x29220d0a	3.5982536e-14
135	0x295d481e	4.913441e-14
136	0x2911406e	3.225235e-14
137	0x288ddd01	1.574999e-14
138	0x28c6c61c	2.2068332e-14
139	0x28fa2ca1	2.777493e-14
140	0x292bf9c6	3.818627e-14
141	0x292d2fa3	3.8455035e-14
142	0x298ffaf1	6.394007e-14
143	0x29991bcd	6.7993876e-14
144	0x29656766	5.09379e-14
145	0x29b1ef1e	7.901859e-14
146	0x29ccbc9b	9.092138e-14
147	0x29831445	5.821085e-14
148	0x291680dd	3.3418462e-14
149	0x2982c729	5.8077085e-14
150	0x2728f315	2.3446459e-15
151	0x26bd3205	1.3128067e-15
152	0x26dd71a5	1.5365759e-15
153	0x2759c138	3.0219544e-15
154	0x27da33d7	6.056336e-15
155	0x2813646a	8.181913e-15
156	0x27ff5900	7.087321e-15
157	0x2764bf09	3.1744917e-15
158	0x26b5e601	1.2621741e-15
159	0x26c2d935	1.3520328e-15
160	0x29d348e4	9.382927e-14
161	0x29edf558	1.05674746e-13
162	0x2a40546c	1.7082315e-13
163	0x2a3a513c	1.6548302e-13
164	0x2a18b69a	1.3563665e-13
165	0x2a803e3a	2.2780546e-13
166	0x2a8769d9	2.4054264e-13
167	0x2a1bf795	1.3852663e-13
168	0x29cf7ffc	9.2148484e-14
169	0x2a377e45	1.6297474e-13
170	0x2ab97273	3.2942017e-13
171	0x2aa5f9af	2.948314e-13
172	0x2ae5c335	4.0814024e-13
173	0x2b0177d3	4.5996296e-13
174	0x2b0005ad	4.548261e-13
175	0x2b3c929b	6.6994473e-13
176	0x2b3ab3f2	6.63302e-13
177	0x2afd1eca	4.4963192e-13
178	0x2abd2c95	3.360408e-13
179	0x2afd230b	4.4966144e-13
180	0x27fa3ef0	6.9457176e-15
181	0x2773e11b	3.3845054e-15
182	0x271c9512	2.173016e-15
183	0x271ee40d	2.2050531e-15
184	0x279dbcbf	4.3780893e-15
185	0x282882a1	9.354199e-15
186	0x284e3c85	1.144842e-14
187	0x281220af	8.111715e-15
188	0x2792e894	4.07753e-15
189	0x273bcdda	2.6063056e-15
190	0x2ca9ee17	4.829702e-12
191	0x2c722e22	3.4415877e-12
192	0x2c06de32	1.9165888e-12
193	0x2d4828ff	1.1377787e-11
194	0x2dd4df9f	2.4200917e-11
195	0x2d9362d1	1.6755848e-11
196	0x2d196d6c	8.72134e-12
197	0x2cb54faf	5.153176e-12
198	0x2ca07ef8	4.56157e-12
199	0x2c7a8f34	3.560663e-12
200	0x2c414879	2.746718e-12
201	0x2c258adb	2.352499e-12
202	0x2c1cdc10	2.2291093e-12
203	0x2bd567c2	1.5163359e-12
204	0x2b9cf6c8	1.1152962e-12
205	0x2c0ffc11	2.0461447e-12
206	0x2c5172fc	2.9764516e-12
207	0x2c4da32d	2.9222833e-12
208	0x2c3c5af2	2.6766892e-12
209	0x2c2cae0f	2.4539292e-12
210	0x2b898764	9.772014e-13
211	0x2b41712f	6.872445e-13
212	0x2aab91a9	3.0476774e-13
213	0x2a62bac5	2.0137631e-13
214	0x2b019465	4.6035945e-13
215	0x2b8925fd	9.744979e-13
216	0x2b8ca100	9.992285e-13
217	0x2b8244ef	9.256188e-13
218	0x2b61c3ee	8.0207965e-13
219	0x2b0b11de	4.9407516e-13
220	0x2d2f1709	9.952713e-12
221	0x2cf40038	6.9349214e-12
222	0x2c93a8ee	4.1967462e-12
223	0x2c6b95f8	3.3478758e-12
224	0x2d0ff047	8.181961e-12
225	0x2d91f9c8	1.6595517e-11
226	0x2d79bbb0	1.4195686e-11
227	0x2d370807	1.0404128e-11
228	0x2d13b854	8.396912e-12
229	0x2cd2998f	5.9856074e-12
230	0x2b92017d	1.0374337e-12
231	0x2b7b198e	8.920858e-13
232	0x2b170808	5.365712e-13
233	0x2b118fd0	5.171393e-13
234	0x2bacee9d	1.2287564e-12
235	0x2befb088	1.7030969e-12
236	0x2b9481df	1.0552079e-12
237	0x2b3b5589	6.655445e-13
238	0x2b86a59f	9.567242e-13
239	0x2b84e508	9.442733e-13
240	0x2c0b0dbd	1.9760714e-12
241	0x2c0a2ad6	1.9634758e-12
242	0x2c2ebac3	2.483056e-12
243	0x2c10fef3	2.0605156e-12
244	0x2be47a61	1.6234341e-12
245	0x2c56e04e	3.0535743e-12
246	0x2c742ba7	3.4698717e-12
247	0x2c2e3007	2.4753548e-12
248	0x2c038f97	1.8695928e-12
249	0x2c2afd8e	2.4299204e-12
250	0x2b84a20d	9.424142e-13
251	0x2b3d825f	6.7327215e-13
252	0x2aa4cc98	2.9274218e-13
253	0x2a7f490f	2.2673897e-13
254	0x2adec19c	3.9569465e-13
255	0x2b18f59b	5.4342094e-13

exp_avg f4 [40, 10]
0	0xb3b3d07b	-8.3732594e-08
1	0x3358d517	5.0485223e-08
2	0xb303c712	-3.0681868e-08
3	0xb42540f2	-1.539045e-07
4	0x33e6a0b0	1.07394385e-07
5	0x301bcff6	5.66842e-10
6	0x34027950	1.2151327e-07
7	0x340f0dd8	1.3322949e-07
8	0xb19e5016	-4.60751e-09
9	0xb25d277f	-1.2872873e-08
10	0x32f18f63	2.8121297e-08
11	0x339932c0	7.133849e-08
12	0xb334db6c	-4.210908e-08
13	0xb4b2a767	-3.3276885e-07
14	0x32656007	1.3351388e-08
15	0xb2d0a5c8	-2.4289776e-08
16	0x330a91cd	3.2263234e-08
17	0x335b0d29	5.100188e-08
18	0xb222ea88	-9.482967e-09
19	0x31c99ab6	5.8674585e-09
20	0x324897b9	1.167603e-08
21	0x32e2c0bf	2.6397514e-08
22	0xb2e496ab	-2.661121e-08
23	0xb40546d0	-1.2412352e-07
24	0x3237cc91	1.0698515e-08
25	0xb2a80f2d	-1.9564675e-08
26	0xb1a5b874	-4.823102e-09
27	0x32c5e6c6	2.3038762e-08
28	0xb1e891cf	-6.768665e-09
29	0xb2830e3f	-1.5256886e-08
30	0xb06e47a3	-8.66857e-10
31	0x347ef807	2.3745825e-07
32	0xb43d6376	-1.763818e-07
33	0xb58d5646	-1.0530428e-06
34	0x342c06ec	1.6021266e-07
35	0xb3d85b4d	-1.0074891e-07
36	0x342f861c	1.6346934e-07
37	0x349423c8	2.7593182e-07
38	0xb328d74d	-3.9311363e-08
39	0xb344baad	-4.5804587e-08
40	0xb42d92d1	-1.6165292e-07
41	0x32c80e12	2.3289463e-08
42	0xb1585366	-3.1479543e-09
43	0x333a5abd	4.3389026e-08
44	0x342c4a1e	1.6045712e-07
45	0x32b7db19	2.1403638e-08
46	0x3443796f	1.8204967e-07
47	0x34334f75	1.669958e-07
48	0x31d37da3	6.1551915e-09
49	0xb2c0667c	-2.2398346e-08
50	0x3277820f	1.4406864e-08
51	0xb283c55a	-1.5340152e-08
52	0x31c4ab6c	5.723839e-09
53	0x3355bfbf	4.976732e-08
54	0xb2c97235	-2.3451415e-08
55	0x2fb695b4	3.3211978e-10
56	0xb2eacf0e	-2.7335343e-08
57	0xb3017acb	-3.0146833e-08
58	0x2f0b24ce	1.2655052e-10
59	0x2ffeb6d4	4.6332238e-10
60	0xb49ca9f4	-2.9180922e-07
61	0x33b0daff	8.235474e-08
62	0xb3234755	-3.801627e-08
63	0xb3c02c23	-8.948725e-08
64	0x34af14d1	3.2611436e-07
65	0x32c896fc	2.3351724e-08
66	0x34bf4904	3.5629648e-07
67	0x34c266ae	3.6210025e-07
68	0x30d26985	1.5309501e-09
69	0xb33cb028	-4.3932374e-08
70	0xb5238443	-6.09147e-07
71	0xb2b8c2d7	-2.1509022e-08
72	0x3371ff1a	5.63442e-08
73	0x352f4bda	6.530296e-07
74	0x351451d9	5.52534e-07
75	0x3405e38d	1.2469373e-07
76	0x3524ac37	6.1345366e-07
77	0x350e6631	5.304783e-07
78	0x330958e5	3.1978647e-08
79	0xb3759420	-5.7178227e-08
80	0xb224e84f	-9.598877e-09
81	0xaf93d3fc	-2.6889768e-10
82	0xb1c34b5a	-5.6838134e-09
83	0x32532309	1.22897825e-08
84	0x321a4063	8.97862e-09
85	0xb1aac9dc	-4.9706e-09
86	0xb0f631e2	-1.7913033e-09
87	0x3214ef53	8.66915e-09
88	0xb0ef2f44	-1.7402972e-09
89	0xb27aae90	-1.4591606e-08
90	0xb5968547	-1.121466e-06
91	0x34a48cf1	3.064993e-07
92	0xb478bdb1	-2.3165809e-07
93	0xb4211a3e	-1.500384e-07
94	0x35cb7a35	1.5160246e-06
95	0xb4357921	-1.6901005e-07
96	0x3596c1f6	1.1232321e-06
97	0x35d401be	1.5795738e-06
98	0x324233e3	1.1304084e-08
99	0xb51a44ab	-5.7469396e-07
100	0xb3bf2928	-8.901617e-08
101	0x33674795	5.3848982e-08
102	0xb3075c19	-3.15159e-08
103	0xb43476e5	-1.680706e-07
104	0x33f148fd	1.12357135e-07
105	0x309a6105	1.1232549e-09
106	0x34085caf	1.2699705e-07
107	0x34154e27	1.3905138e-07
108	0xb1b0026e	-5.1225504e-09
109	0xb264bdcc	-1.33145015e-08
110	0xb2bf3c46	-2.2262736e-08
111	0x33a86556	7.8415425e-08
112	0xb3479544	-4.6469054e-08
113	0xb4abfaa4	-3.2033597e-07
114	0x339f5e7e	7.4212025e-08
115	0xb2b8edca	-2.1528553e-08
116	0x33aa29d3	7.92385e-08
117	0x33eab44a	1.09292685e-07
118	0xb2076cc7	-7.882767e-09
119	0xb24298ac	-1.1327e-08
120	0x3052451c	7.6495765e-10
121	0x334e8ce5	4.8091255e-08
122	0xb2a88a95	-1.9620794e-08
123	0xb454fec0	-1.9836716e-07
124	0x330c9390	3.2730497e-08
125	0xb2181247	-8.85172e-09
126	0x332c4a0e	4.0114223e-08
127	0x336a54fc	5.4559663e-08
128	0xb1100027	-2.0954845e-09
129	0x31a78fff	4.87671e-09
130	0xb486efa3	-2.5133804e-07
131	0x34e9a4bf	4.35195e-07
132	0xb484f19c	-2.476271e-07
133	0xb5dc21c3	-1.6401103e-06
134	0x3511d778	5.433026e-07
135	0xb3e5f8f8	-1.07089306e-07
136	0x35119473	5.423273e-07
137	0x354205f1	7.227928e-07
138	0xb30d7a1e	-3.2940186e-08
139	0xb3e4a505	-1.0647094e-07
140	0xb44a2064	-1.88245e-07
141	0x33932c41	6.853271e-08
142	0xb23bb182	-1.0925193e-08
143	0xb3ea48e0	-1.090973e-07
144	0x3465bca7	2.1395918e-07
145	0x32cb8b22	2.369558e-08
146	0x348b328b	2.5927542e-07
147	0x34815aff	2.409433e-07
148	0x32127c4e	8.526582e-09
149	0xb218409c	-8.862255e-09
150	0x32046b48	7.707804e-09
151	0xb2064c59	-7.817186e-09
152	0x30fcde59	1.8398608e-09
153	0x32cc2ce2	2.3769136e-08
154	0xb2427310	-1.1318448e-08
155	0xb07fa003	-9.299585e-10
156	0xb27aa5be	-1.4589601e-08
157	0xb28102eb	-1.5018903e-08
158	0xaf474d12	-1.8126325e-10
159	0xb03ccfa4	-6.8689077e-10
160	0xb484d507	-2.4741914e-07
161	0x3399b1fb	7.156992e-08
162	0x31265cb7	2.4208882e-09
163	0xb36e45ef	-5.5477297e-08
164	0x348d502f	2.6321638e-07
165	0x3331d14a	4.140137e-08
166	0x34b2081e	3.316099e-07
167	0x349d5b79	2.9310084e-07
168	0x32770cf7	1.438024e-08
169	0xb179c3f1	-3.6345649e-09
170	0xb4ffd967	-4.7655632e-07
171	0x3183c5e8	3.835101e-09
172	0x33af3af8	8.159799e-08
173	0x34fe65ed	4.7385348e-07
174	0x34e1826d	4.2004413e-07
175	0x340320a6	1.2212203e-07
176	0x351092fb	5.3858065e-07
177	0x34df4c4c	4.15925e-07
178	0x333099cd	4.1118074e-08
179	0x311b3f1a	2.2591338e-09
180	0xb1c7d25a	-5.8155765e-09
181	0x3257af2e	1.2554478e-08
182	0xafe3bd07	-4.1425371e-10
183	0xb3361d05	-4.240157e-08
184	0x32559a62	1.2433334e-08
185	0x30e95d37	1.6979474e-09
186	0x32a68cf0	1.9389034e-08
187	0x3299734c	1.7863975e-08
188	0x30bcac13	1.3727707e-09
189	0x3186f58d	3.927829e-09
190	0x34883eb2	2.537759e-07
191	0x351ffabd	5.959699e-07
192	0xb4abf02e	-3.2025986e-07
193	0xb64a6f8c	-3.0165274e-06
194	0x34b0488f	3.2835348e-07
195	0xb3465276	-4.6175465e-08
196	0x34eac735	4.373084e-07
197	0x352929de	6.301833e-07
198	0xb3d41fa0	-9.877772e-08
199	0x34ce68c0	3.8446706e-07
200	0x3566c6ad	8.597079e-07
201	0xb4e99bf2	-4.3513097e-07
202	0x348c5e37	2.6145582e-07
203	0x35ab0202	1.2741077e-06
204	0xb58fef61	-1.0723999e-06
205	0x31f902ce	7.2471726e-09
206	0xb5994aed	-1.1421195e-06
207	0xb5a7652f	-1.2471918e-06
208	0x32f4ffca	2.8521658e-08
209	0x34439216	1.8213936e-07
210	0x33dae3f1	1.01928784e-07
211	0x34daf80c	4.0786142e-07
212	0xb4577dfe	-2.0069271e-07
213	0xb5f0fb53	-1.7954538e-06
214	0x33e94c95	1.0863838e-07
215	0xb405091b	-1.2389903e-07
216	0x348013d0	2.3856273e-07
217	0x34a69ba8	3.1033164e-07
218	0xb2f94df0	-2.9022857e-08
219	0x321e1695	9.201945e-09
220	0xb58d06c8	-1.0507292e-06
221	0xb41820fb	-1.4168101e-07
222	0x34a41b63	3.0567307e-07
223	0x35e4c17b	1.7043634e-06
224	0x355bb629	8.1848935e-07
225	0x34beb4c0	3.552177e-07
226	0x3592cb15	1.0936952e-06
227	0x3544cca8	7.3313504e-07
228	0x33f82bcc	1.15563665e-07
229	0x3372aafb	5.650052e-08
230	0xb448ec05	-1.8712315e-07
231	0xb5977121	-1.1283302e-06
232	0x351f6a71	5.938701e-07
233	0x36a4ca2f	4.911118e-06
234	0xb4e14d76	-4.1965876e-07
235	0x34d230d8	3.9151087e-07
236	0xb533801d	-6.6869126e-07
237	0xb57e1a5e	-9.4660743e-07
238	0x33b4a616	8.412114e-08
239	0x33c479f9	9.149148e-08
240	0xb5a6e145	-1.2433526e-06
241	0x349f3d00	2.966044e-07
242	0x32339f1f	1.0455351e-08
243	0xb3d5079d	-9.91997e-08
244	0x35af21f5	1.3048399e-06
245	0x3454dc6f	1.9824232e-07
246	0x35d303e4	1.5721857e-06
247	0x35bc0381	1.4008111e-06
248	0x33a15c7e	7.513971e-08
249	0xb3a825d5	-7.829991e-08
250	0x34676b7d	2.1552655e-07
251	0x3389b58b	6.412582e-08
252	0xb3e65140	-1.0724989e-07
253	0xb50427d1	-4.923177e-07
254	0xb443c05b	-1.8230769e-07
255	0xb3b62964	-8.482564e-08

exp_avg_sq f4 [40, 10]
0	0x2f762843	2.2387873e-10
1	0x2e64b890	5.2005122e-11
2	0x2e252176	3.7546376e-11
3	0x2e1e937f	3.6056044e-11
4	0x2f620ada	2.0558436e-10
5	0x2d5c2d32	1.25155875e-11
6	0x2fd98b82	3.9571196e-10
7	0x2f816a33	2.3540422e-10
8	0x2c55bde6	3.0374535e-12
9	0x2e05f84e	3.0461238e-11
10	0x2d772966	1.4049517e-11
11	0x2c95be66	4.255973e-12
12	0x2d3d79a7	1.0770418e-11
13	0x2d160c71	8.529275e-12
14	0x2d7daba7	1.44194994e-11
15	0x2ca4d853	4.685177e-12
16	0x2df5a0c1	2.7924664e-11
17	0x2dacf1b6	1.9661477e-11
18	0x2bc7244f	1.4149878e-12
19	0x2d910db9	1.6490686e-11
20	0x2f825c57	2.3712474e-10
21	0x2e50aacd	4.7445426e-11
22	0x308667da	9.7793e-10
23	0x300060c6	4.670365e-10
24	0x30086796	4.9623716e-10
25	0x2fec0912	4.2934595e-10
26	0x304d1678	7.4610496e-10
27	0x3082ae0b	9.508211e-10
28	0x2f0d3e65	1.2846042e-10
29	0x30c4ed67	1.4328351e-09
30	0x2ca8d9b0	4.7990154e-12
31	0x2c1fa48e	2.2686605e-12
32	0x2da2bd8a	1.850144e-11
33	0x2d98cc91	1.7371245e-11
34	0x2d35702f	1.0313569e-11
35	0x2d120408	8.300034e-12
36	0x2d95f36e	1.7047443e-11
37	0x2db0f070	2.011566e-11
38	0x2c32f346	2.5430365e-12
39	0x2e01bd5b	2.9499386e-11
40	0x2f1d415a	1.4302284e-10
41	0x2e116026	3.305458e-11
42	0x2e5183f7	4.7638306e-11
43	0x2e169e2e	3.4246543e-11
44	0x2f1b19e9	1.4106373e-10
45	0x2da0af00	1.826761e-11
46	0x2f9559da	2.7166785e-10
47	0x2f41695c	1.7590679e-10
48	0x2caae10f	4.856677e-12
49	0x2e5f0c16	5.0715064e-11
50	0x2d959305	1.7004629e-11
51	0x2ca292b3	4.620604e-12
52	0x2ed2bb86	9.583005e-11
53	0x2e559ef0	4.8571758e-11
54	0x2e360b5d	4.13921e-11
55	0x2e3b2b5c	4.2557388e-11
56	0x2e83cf37	5.993999e-11
57	0x2eb74cfe	8.335553e-11
58	0x2d630c08	1.29061276e-11
59	0x2f1ffb89	1.4550329e-10
60	0x3005c20c	4.8660875e-10
61	0x2ee5ce52	1.0450364e-10
62	0x2f8dadeb	2.5771327e-10
63	0x2f1e1a72	1.4379412e-10
64	0x300db125	5.154724e-10
65	0x2ee33602	1.03323586e-10
66	0x3085557c	9.70132e-10
67	0x303ce2d6	6.8716355e-10
68	0x2df65edd	2.800909e-11
69	0x2fa3583a	2.9712216e-10
70	0x3105c000	1.9463187e-09
71	0x2fd05a7d	3.7899275e-10
72	0x31137302	2.145669e-09
73	0x308f039e	1.0405647e-09
74	0x312765f8	2.435966e-09
75	0x3077dfef	9.0176305e-10
76	0x319368af	4.2901642e-09
77	0x317b93b8	3.6609276e-09
78	0x2f8ce48a	2.5628238e-10
79	0x313e3ab0	2.7682e-09
80	0x2de7b52b	2.6342114e-11
81	0x2ce01e25	6.3698096e-12
82	0x2f14e4de	1.3541832e-10
83	0x2e93dc83	6.723957e-11
84	0x2e877a78	6.160844e-11
85	0x2e8433c1	6.0118584e-11
86	0x2ec73ad1	9.05992e-11
87	0x2f068f3e	1.2238119e-10
88	0x2d9f465d	1.8107455e-11
89	0x2f602679	2.038635e-10
90	0x32f28140	2.8231284e-08
91	0x31e1eb33	6.575101e-09
92	0x33f5ceb2	1.1446299e-07
93	0x337342de	5.663866e-08
94	0x3376417f	5.7335907e-08
95	0x335a0d9b	5.0769454e-08
96	0x33c06838	8.959654e-08
97	0x33ed3fd3	1.1047782e-07
98	0x3281b170	1.5098266e-08
99	0x3438079c	1.7139104e-07
100	0x3000283a	4.6623294e-10
101	0x2efca1c6	1.148837e-10
102	0x2e92d558	6.677209e-11
103	0x2eab2681	7.7830194e-11
104	0x2fe37ecf	4.1381162e-10
105	0x2dbd99c2	2.1555095e-11
106	0x306388b9	8.2776414e-10
107	0x3001b909	4.719288e-10
108	0x2caf7172	4.986394e-12
109	0x2e6478fe	5.194866e-11
110	0x2d7ddfca	1.4431076e-11
111	0x2c9cce72	4.4567067e-12
112	0x2d31c967	1.01060054e-11
113	0x2d1069cb	8.208943e-12
114	0x2d7c5fc7	1.4345808e-11
115	0x2c996a49	4.3603216e-12
116	0x2dfab303	2.8501207e-11
117	0x2da9c18c	1.9299028e-11
118	0x2bb7f9f1	1.3072305e-12
119	0x2d881d4b	1.5474419e-11
120	0x2fc824c5	3.6405914e-10
121	0x2eb3a275	8.168836e-11
122	0x30e8f506	1.6949862e-09
123	0x30613aeb	8.193825e-10
124	0x3059de97	7.926046e-10
125	0x304de2c6	7.490083e-10
126	0x30a9d848	1.2357839e-09
127	0x30d91b6a	1.579662e-09
128	0x2f745e9f	2.2225287e-10
129	0x312ddd91	2.530076e-09
130	0x2cc26ea5	5.5260956e-12
131	0x2c703fba	3.4141427e-12
132	0x2dd4dca7	2.4199599e-11
133	0x2e055f8b	3.0325558e-11
134	0x2d6dadf9	1.351052e-11
135	0x2d3eb3d1	1.0840177e-11
136	0x2dc7e44b	2.2725063e-11
137	0x2df17b74	2.7453352e-11
138	0x2c677dfc	3.289701e-12
139	0x2e2964b5	3.8515597e-11
140	0x2f8c1085	2.547759e-10
141	0x2e8952f8	6.244777e-11
142	0x2e872014	6.1447875e-11
143	0x2e71d0ba	5.4982442e-11
144	0x2f836d99	2.3906635e-10
145	0x2dc80588	2.2739824e-11
146	0x3002f36d	4.7639653e-10
147	0x2f9e69b7	2.8815147e-10
148	0x2cce1d2d	5.8581113e-12
149	0x2e890754	6.2313404e-11
150	0x2d3d943e	1.07763225e-11
151	0x2c613df4	3.2008814e-12
152	0x2e8ee891	6.4987245e-11
153	0x2e116326	3.3057244e-11
154	0x2dec5304	2.686696e-11
155	0x2dff55eb	2.9028299e-11
156	0x2e32806a	4.058657e-11
157	0x2e74a29b	5.56236e-11
158	0x2d199c5a	8.73176e-12
159	0x2edc320a	1.00133304e-10
160	0x304fc803	7.5590395e-10
161	0x2f42d524	1.771992e-10
162	0x2fa966ba	3.0813913e-10
163	0x2f5d0677	2.010213e-10
164	0x304e5fe2	7.507862e-10
165	0x2f052427	1.2109123e-10
166	0x30cdf20b	1.4984506e-09
167	0x308680b4	9.786363e-10
168	0x2e0c0e5f	3.184508e-11
169	0x2fbd337f	3.441549e-10
170	0x30f533a9	1.7840779e-09
171	0x2fce9b58	3.758156e-10
172	0x30d76212	1.5671182e-09
173	0x305c9738	8.025043e-10
174	0x310e402e	2.0700202e-09
175	0x30337453	6.528513e-10
176	0x3184617e	3.852789e-09
177	0x314fb352	3.0224396e-09
178	0x2f488910	1.8238588e-10
179	0x3108aee2	1.9890014e-09
180	0x2d8b68c8	1.5849003e-11
181	0x2c93ba9f	4.1987104e-12
182	0x2ec010d7	8.7341405e-11
183	0x2e3ff83c	4.364885e-11
184	0x2e26ca0f	3.7923494e-11
185	0x2e2af813	3.887386e-11
186	0x2e7c8150	5.741302e-11
187	0x2ea9d635	7.723281e-11
188	0x2d4d2706	1.1661566e-11
189	0x2f126270	1.3313595e-10
190	0x32d53de2	2.4824605e-08
191	0x31d8346a	6.292386e-09
192	0x33fdbf8b	1.1816072e-07
193	0x337adcbc	5.8408418e-08
194	0x33686a1b	5.411321e-08
195	0x33620eed	5.26333e-08
196	0x33ba9a74	8.689395e-08
197	0x33ea668f	1.09151294e-07
198	0x3285b033	1.5563364e-08
199	0x344136e1	1.799449e-07
200	0x3245e156	1.1518145e-08
201	0x31185c0a	2.217123e-09
202	0x3201af0c	7.548589e-09
203	0x316a0215	3.4052665e-09
204	0x325c1371	1.2810106e-08
205	0x31505f15	3.0322032e-09
206	0x32c6e433	2.3154007e-08
207	0x3296b0d0	1.7542703e-08
208	0x30623a8f	8.230154e-10
209	0x3212a7e3	8.5364915e-09
210	0x309c3de0	1.136808e-09
211	0x2f947590	2.7004576e-10
212	0x3198c2ab	4.4459134e-09
213	0x311a583f	2.2460112e-09
214	0x311c975f	2.2787032e-09
215	0x3106fd35	1.9643498e-09
216	0x316c287a	3.4365528e-09
217	0x31939949	4.2956896e-09
218	0x3022a22e	5.916573e-10
219	0x31e32141	6.61035e-09
220	0x32cc59e6	2.3789607e-08
221	0x319a34b6	4.4879824e-09
222	0x33b8f890	8.613381e-08
223	0x332f15af	4.0765084e-08
224	0x33495ab2	4.6881446e-08
225	0x33226ce3	3.7817596e-08
226	0x3399a463	7.1545195e-08
227	0x33bc3d66	8.7656005e-08
228	0x3240eada	1.122927e-08
229	0x34062c58	1.2495855e-07
230	0x2fc8319e	3.6415043e-10
231	0x2f107820	1.31394e-10
232	0x30d1f93c	1.5277588e-09
233	0x30955c1b	1.0867355e-09
234	0x3058c363	7.8858003e-10
235	0x303bc72d	6.831325e-10
236	0x30ad9721	1.263036e-09
237	0x30d4fff5	1.5497778e-09
238	0x2f6319d5	2.0654707e-10
239	0x312301f6	2.3720736e-09
240	0x31d1b964	6.103777e-09
241	0x30aeac1f	1.2709086e-09
242	0x3198cd17	4.4470982e-09
243	0x311b720b	2.2620295e-09
244	0x31ec0a0a	6.8696453e-09
245	0x30fa9652	1.8232618e-09
246	0x32591cf5	1.26376465e-08
247	0x32252993	9.613717e-09
248	0x300af678	5.055436e-10
249	0x31b908ee	5.385224e-09
250	0x309f54b1	1.1592843e-09
251	0x2f88bf47	2.4874167e-10
252	0x31b48b36	5.254516e-09
253	0x31306cea	2.5673281e-09
254	0x31302293	2.5631024e-09
255	0x311f881d	2.3214917e-09

exp_avg f4 [40]
0	0x349b75bd	2.8956666e-07
1	0x348c525a	2.613695e-07
2	0x348abcb8	2.5841814e-07
3	0x35dd8fdb	1.6507651e-06
4	0xb4c78838	-3.716575e-07
5	0xb428db51	-1.5726006e-07
6	0x359168dc	1.083386e-06
7	0xb418d206	-1.4232509e-07
8	0x32a742b9	1.94717e-08
9	0x37bbbb41	2.2379334e-05
10	0x356490a8	8.514712e-07
11	0x352fd87e	6.550762e-07
12	0x34af388b	3.263743e-07
13	0x368a83d6	4.128068e-06
14	0x35a16e13	1.2027471e-06
15	0xb3ad4f96	-8.070417e-08
16	0x35bec0a3	1.4212168e-06
17	0x35f8dc07	1.8541476e-06
18	0x33ae977b	8.1300605e-08
19	0x36f8aba3	7.410957e-06
20	0xb6653b10	-3.4158038e-06
21	0x3520a76d	5.984828e-07
22	0xb608b9f7	-2.0373825e-06
23	0xb621bba1	-2.4100084e-06
24	0x35305871	6.569381e-07
25	0x3499c948	2.8644922e-07
26	0xb5813456	-9.626481e-07
27	0xb5e2d063	-1.6898961e-06
28	0xb6338765	-2.6751889e-06
29	0xb9b3d453	-0.00034299734
30	0x347a2016	2.3294737e-07
31	0x349ec38c	2.9572072e-07
32	0x34968705	2.8037917e-07
33	0x362dcca5	2.5898128e-06
34	0xb4cd8f40	-3.8288454e-07
35	0xb40ed7b0	-1.3303247e-07
36	0x358eca01	1.0638615e-06
37	0x3501662d	4.820493e-07
38	0x325d3359	1.2875568e-08
39	0x37a0a198	1.9148734e-05

exp_avg_sq f4 [40]
0	0x319312c9	4.2803987e-09
1	0x30104d73	5.2496957e-10
2	0x33304168	4.103768e-08
3	0x305e440e	8.085984e-10
4	0x3184d1fd	3.8655785e-09
5	0x31818002	3.768947e-09
6	0x328cdf3b	1.6399659e-08
7	0x33f692b6	1.1481954e-07
8	0x31bdc03c	5.5224785e-09
9	0x3699017b	4.5599277e-06
10	0x31fde456	7.389228e-09
11	0x3000444e	4.6663196e-10
12	0x33876b3f	6.305935e-08
13	0x308fef45	1.0472624e-09
14	0x31b248ff	5.1887805e-09
15	0x31201db4	2.3299949e-09
16	0x32aca6cb	2.0099284e-08
17	0x33ad0b03	8.057943e-08
18	0x315bff47	3.2013803e-09
19	0x3690d049	4.315782e-06
20	0x34ff78de	4.7585394e-07
21	0x3449c514	1.879128e-07
22	0x36774c2d	3.6850208e-06
23	0x338aa531	6.456174e-08
24	0x348d822e	2.6358015e-07
25	0x346dfa6b	2.2163447e-07
26	0x354631b1	7.383306e-07
27	0x3568b05d	8.668338e-07
28	0x34ce029c	3.837239e-07
29	0x38c056be	9.1714304e-05
30	0x31967db8	4.379867e-09
31	0x3023328e	5.9370897e-10
32	0x33740d1f	5.682261e-08
33	0x3093e570	1.0760868e-09
34	0x319e4ae0	4.6069175e-09
35	0x314d9203	2.9914424e-09
36	0x326d64b7	1.38181155e-08
37	0x340df41d	1.3220456e-07
38	0x31c92a55	5.8546825e-09
39	0x366aab8b	3.4968568e-06

exp_avg f4 [40]
0	0x349b75be	2.8956669e-07
1	0x348c525c	2.6136956e-07
2	0x348abcbd	2.5841828e-07
3	0x35dd8fd1	1.6507639e-06
4	0xb4c78827	-3.7165702e-07
5	0xb428db4f	-1.5726003e-07
6	0x359168dd	1.0833861e-06
7	0xb418d273	-1.4232664e-07
8	0x32a742b1	1.9471686e-08
9	0x37bbbb40	2.2379332e-05
10	0x356490a8	8.514712e-07
11	0x352fd886	6.5507663e-07
12	0x34af3895	3.263746e-07
13	0x368a83d6	4.128068e-06
14	0x35a16e0d	1.2027464e-06
15	0xb3ad4f97	-8.0704176e-08
16	0x35bec09e	1.4212162e-06
17	0x35f8dbeb	1.8541444e-06
18	0x33ae977a	8.13006e-08
19	0x36f8ab9f	7.4109553e-06
20	0xb6653b10	-3.4158038e-06
21	0x3520a792	5.984849e-07
22	0xb608b9ef	-2.0373807e-06
23	0xb621bba9	-2.4100102e-06
24	0x3530587e	6.569388e-07
25	0x3499c940	2.86449e-07
26	0xb581343e	-9.626453e-07
27	0xb5e2d063	-1.6898961e-06
28	0xb6338776	-2.6751927e-06
29	0xb9b3d452	-0.00034299731
30	0x347a2014	2.3294734e-07
31	0x349ec39b	2.9572115e-07
32	0x34968702	2.8037908e-07
33	0x362dcca2	2.589812e-06
34	0xb4cd8f51	-3.8288502e-07
35	0xb40ed7b2	-1.330325e-07
36	0x358ec9fe	1.0638612e-06
37	0x3501663e	4.8205027e-07
38	0x325d3328	1.2875525e-08
39	0x37a0a197	1.9148732e-05

exp_avg_sq f4 [40]
0	0x319312c9	4.2803987e-09
1	0x30104d71	5.2496946e-10
2	0x33304165	4.103767e-08
3	0x305e440d	8.0859835e-10
4	0x3184d1fd	3.8655785e-09
5	0x31818003	3.7689474e-09
6	0x328cdf3b	1.6399659e-08
7	0x33f692b4	1.1481953e-07
8	0x31bdc03c	5.5224785e-09
9	0x3699017d	4.5599286e-06
10	0x31fde456	7.389228e-09
11	0x3000444e	4.6663196e-10
12	0x33876b3f	6.305935e-08
13	0x308fef46	1.0472625e-09
14	0x31b248fe	5.18878e-09
15	0x31201db5	2.329995e-09
16	0x32aca6cb	2.0099284e-08
17	0x33ad0b04	8.057944e-08
18	0x315bff45	3.2013798e-09
19	0x3690d04b	4.315783e-06
20	0x34ff78dc	4.7585388e-07
21	0x3449c512	1.8791278e-07
22	0x36774c2f	3.6850213e-06
23	0x338aa530	6.456173e-08
24	0x348d822d	2.6358012e-07
25	0x346dfa6a	2.2163445e-07
26	0x354631ae	7.383304e-07
27	0x3568b05d	8.668338e-07
28	0x34ce029c	3.837239e-07
29	0x38c056bf	9.171431e-05
30	0x31967db8	4.379867e-09
31	0x3023328d	5.937089e-10
32	0x33740d1b	5.6822596e-08
33	0x3093e572	1.076087e-09
34	0x319e4ae0	4.6069175e-09
35	0x314d9204	2.9914426e-09
36	0x326d64b7	1.38181155e-08
37	0x340df41d	1.3220456e-07
38	0x31c92a55	5.8546825e-09
39	0x366aab8d	3.4968573e-06
