logs/vanilla_lstm/version_2/checkpoints/epoch=9-step=250.ckpt (torch, 17650 bytes, 12 tensors)

lstm.lstm.weight_ih_l0 f4 [40, 10]
000000 30 c9 d7 3e 7f 5f a1 be b7 54 21 bf 8e 56 17 be
       0.4214568 -0.3151817 -0.6301989 -0.14779112
000010 3a 09 49 3f dc a6 0e 3f 26 d0 29 3e 3d 78 e8 be
       0.78529704 0.5572336 0.16583309 -0.45404235
000020 b8 9b 1e bf 9e 4a 2d bf 63 f8 0c 3e 6b 12 76 bd
       -0.6195636 -0.6769198 0.13766627 -0.06007616
000030 5d e3 d3 3e f5 31 14 3f f8 7d 80 be 21 20 44 bf
       0.41384402 0.5788873 -0.25096107 -0.76611525
000040 55 78 5c bf fc d1 c8 be 27 c7 96 3d 10 2f 07 3f
       -0.8612111 -0.39222705 0.07362204 0.52806187
000050 e3 64 d0 bd 30 b4 91 3e 62 09 a0 3e ab 94 ca 3e
       -0.101754926 0.28457785 0.3125716 0.3956655
000060 d6 92 40 be a4 3a ae be b2 b9 1a bf 50 32 8b be
       -0.18806013 -0.34029114 -0.604396 -0.27186823
000070 15 60 d1 3d d9 d3 40 3f 79 4b a5 3e f8 90 2f be
       0.10223404 0.75323254 0.32284144 -0.17145145
000080 9f 29 08 be 1e 02 05 3e 4d 26 fa 3e f9 15 39 3e
       -0.13297127 0.12989089 0.48857346 0.18074788
000090 56 16 50 3e a1 96 d8 be 57 9d 66 bd 4a 24 f0 3c
       0.2032102 -0.4230242 -0.056302395 0.029314179
0000a0 7f 98 a1 be 84 ee 93 be 32 ca 1f 3f 1e 9b b6 3e
       -0.31561658 -0.2889291 0.624179 0.3566522
0000b0 1e fc cb be 7d 73 69 bf 58 9f 15 bf fb 1e 01 bf
       -0.39840788 -0.91191846 -0.58446264 -0.504379
0000c0 d0 64 c6 3d 96 b5 f7 3e bd 9e 6c 3e 36 e2 82 3e
       0.09687197 0.48380727 0.23107429 0.2556321
0000d0 1c 4b e4 be ba 83 07 bd 40 e3 ea 3e d2 4c 9c 3e
       -0.44588554 -0.03308461 0.45876503 0.3052736
0000e0 c4 40 32 be 04 46 5b bd d6 c8 b3 be 38 1a 0d bf
       -0.17407519 -0.05353357 -0.35114163 -0.5511813
0000f0 b2 8c fc 3e 2a fc bd 3c 4a 4a 49 3d e9 18 ac be
       0.49326092 0.02319153 0.049143113 -0.33612755
000100 eb 64 ec 3e e8 58 53 3f 3a 8f 31 3e bd 89 6f 3e
       0.46170744 0.82557535 0.17339793 0.23392387
000110 5c bd 01 be f4 9c 06 bf d1 d7 fa be b6 9e 45 be
       -0.12669891 -0.5258324 -0.4899278 -0.19298825
000120 88 ef ab bc 17 62 f3 3b f9 1c 45 3e ad e5 4d 3e
       -0.02098824 0.0074274647 0.19249333 0.20107146
000130 07 56 8e 3e a9 ee 59 3e 1c 1e 33 be d3 00 0d bf
       0.2780001 0.21282448 -0.17491955 -0.5507938
000140 59 15 9b bc 31 0b 9d 3e 0c a6 8f 3e 09 64 b5 3e
       -0.018931078 0.306726 0.2805637 0.35427883
000150 50 cc 1d be 30 03 36 bf cb 64 23 bf eb 4f cd be
       -0.1540997 -0.71098614 -0.6382567 -0.40100035
000160 3a b3 fd 3d 41 c1 24 3f cb 5c 9a be 26 72 76 3e
       0.123877004 0.6435738 -0.3014892 0.24066982
000170 6a 59 01 3f 51 29 64 3f a3 79 e3 3d 32 b1 06 bf
       0.5052706 0.89125544 0.11107185 -0.5261413
000180 6b 7b f2 be a1 5c be bd 9a ae a3 be 77 2f 18 3e
       -0.47359785 -0.09295011 -0.31969148 0.14861856
000190 6f ce c7 3e eb 82 d4 be 43 92 02 bf 0e fe ca be
       0.39024684 -0.41506132 -0.5100443 -0.39646953
0001a0 50 9b 4a 3f e0 94 07 3f 51 05 6b 3e f3 e4 0d 3e
       0.7914324 0.5296154 0.22951247 0.13856868
0001b0 20 61 9d be 88 b9 2f bf 29 8e 11 3e 38 f0 f0 3c
       -0.30738163 -0.68642473 0.14214386 0.02941142
0001c0 62 fa 63 bb 4a 10 81 3e ab 35 09 bf a5 2a 23 bf
       -0.003478669 0.2520774 -0.53597516 -0.63736945
0001d0 15 2c 46 3d 93 48 be 3e a3 ec d2 3e 5b b5 a7 3d
       0.048381884 0.37164745 0.41196164 0.08188888
0001e0 d6 ad d1 be 2d bd 0e bc e1 ea 87 3e d3 07 00 3e
       -0.4095294 -0.008712095 0.26546386 0.12502985
0001f0 dc 03 14 bf 53 57 88 be 5a b0 97 be 0f 49 8d 3d
       -0.5781839 -0.26629123 -0.29626733 0.068987004
000200 97 23 14 3e 78 ba ce 3e 97 e5 9c 3e 5d ee bf be
       0.14466701 0.4037664 0.30643913 -0.37486544
000210 8a d7 f9 bd ed 83 b9 be 6a 41 15 3e 72 3e 00 3f
       -0.12199314 -0.36233464 0.14575735 0.50095284
000220 0d 34 ed 3e e5 ac b0 3e 04 46 16 bd 4a f8 3a bd
       0.46328774 0.34506908 -0.036687866 -0.045646943
000230 d5 b3 4c bd 64 a4 5e be 87 c6 d0 3e ed 93 f9 3c
       -0.04997619 -0.21742398 0.40776464 0.030466044
000240 ca 33 1e bf a0 97 55 bf ad a6 08 bf ee 96 00 be
       -0.61797774 -0.83434486 -0.5337933 -0.12557575
000250 20 bf 96 3e e1 64 2c 3f 6d 64 eb 3c da fd 44 3d
       0.29442692 0.6734143 0.02873441 0.048093654
000260 f2 5b 31 be e6 5e 04 bf 31 77 5b 3e c5 70 7c 3e
       -0.1732023 -0.51707304 0.21432187 0.24652393
000270 8e 3f b6 3d 8e b6 1e ba 1e a8 83 3e 49 22 aa be
       0.08898841 -0.00060544244 0.257142 -0.33229282
000280 31 98 13 3f e7 77 18 be 6f 8f 1a bd 1f 20 2a be
       0.576541 -0.14889489 -0.037734445 -0.16613816
000290 0c 90 a0 3e 5b a3 ff 3e c3 84 c1 3e 56 f4 bd bd
       0.313599 0.49929318 0.37796602 -0.09275119
0002a0 fb 3e 1f be 7d 1c 2a be 4e e4 82 be 34 04 d1 be
       -0.15551369 -0.1661243 -0.25564808 -0.4082352
0002b0 a6 de ca be b6 9e 71 be 04 69 06 3e 3f 11 32 be
       -0.39622992 -0.235957 0.13125998 -0.17389391
0002c0 37 ed f9 3e 51 9f 54 3e d7 c4 05 bf 28 82 75 be
       0.48813793 0.207639 -0.5225348 -0.23975432
0002d0 ec 22 85 be 96 05 09 3e c7 ae 7c 3e 3b 4e 88 3e
       -0.26003206 0.13381037 0.24676047 0.26622185
0002e0 f1 e2 22 bf e6 86 2c bf 6b 57 c1 be 92 74 99 3e
       -0.63627535 -0.6739334 -0.37762007 0.2997175
0002f0 46 56 2e 3f e5 04 4b 3e b2 55 b3 be 17 a9 eb be
       0.6810039 0.19826086 -0.35026318 -0.46027443
000300 68 00 74 bf dd 7e 6d 3e ca 88 b7 3e e7 1c ee 3e
       -0.9531312 0.23192926 0.3584655 0.46506426
000310 d6 89 9c 3f 2c 88 5d be 39 75 9f be ce 15 ac bf
       1.2229564 -0.21633977 -0.3114412 -1.3444154
000320 44 5d 44 3d c9 13 2d be 5f 10 58 3e 68 71 95 3d
       0.047940508 -0.16902079 0.21099995 0.07297021
000330 e2 ce 12 bf c2 c5 0a bf 45 80 77 be 7a 2b f4 3e
       -0.5734693 -0.54208004 -0.24170025 0.4768942
000340 fd 49 06 3f 38 d1 09 3f c2 65 03 bd da 8d 80 be
       0.5245665 0.5383487 -0.032079466 -0.25108224
000350 21 05 82 be 96 0d 27 be b6 3c 25 3f d0 4c b1 3e
       -0.25394538 -0.16313776 0.6454576 0.34628916
000360 cc 7b 02 3f d6 ad 71 bd a2 19 fc be 04 47 3a bf
       0.5097015 -0.059003673 -0.49238306 -0.7276461
000370 bf fd ae 3e 4a 88 ba 3d d9 6e db be 13 92 f7 bd
       0.34177968 0.09108026 -0.42858008 -0.12088408
000380 f8 74 51 3f 82 35 3f 3f ce 4c 67 3e 21 9c 10 3e
       0.81819105 0.7469102 0.22587892 0.14122058
000390 55 a6 a3 be 9d 7d 1a bf 31 e0 ac 3e b6 39 9a 3d
       -0.3196284 -0.6034792 0.33764794 0.07530539
0003a0 6a ed a8 be 0d 78 98 be c9 aa c5 3e 71 bd b1 3e
       -0.32993633 -0.2977909 0.3860686 0.34714845
0003b0 59 d4 f4 3e b9 ee 4f 3e b0 b2 23 be d6 42 e3 be
       0.47818258 0.20305909 -0.15986133 -0.4438693
0003c0 de 54 8e be 01 34 a7 3e 66 bf b8 3e a3 d7 22 3f
       -0.27799124 0.32656863 0.36083525 0.63610286
0003d0 83 c7 2c bf 0c ba 2b bf 47 51 8d be c8 e3 a0 3c
       -0.6749193 -0.6708076 -0.27601072 0.019639865
0003e0 d9 74 ff 3e b4 b9 3b 3e 78 9f 2f be ef 00 2d be
       0.49893835 0.18332559 -0.17150676 -0.16894887
0003f0 98 80 30 3c c9 fe 5a be 80 56 33 3f 28 43 e4 3e
       0.010772847 -0.21386255 0.70053864 0.44582486

lstm.lstm.weight_hh_l0 f4 [40, 10]
000000 3c 04 6d be 09 e9 ab 3d 1e 57 a6 be f6 7f 30 be
       -0.23146147 0.08394057 -0.3248834 -0.17236313
000010 04 79 6b 3e f3 e4 20 be db 7a a6 3e 94 4f 87 be
       0.22995383 -0.15712337 0.32515606 -0.264279
000020 55 01 11 3e 35 74 6c be 2d 82 aa be 4c ee c8 3d
       0.14160664 -0.23091204 -0.3330244 0.098110765
000030 bd 54 33 3e 48 3b 2c 3e f6 df 44 3e 4c 1b 8b 3e
       0.17512794 0.16819489 0.1922606 0.27169263
000040 ff 45 7e be 0a 4d d3 bd 3f fe 41 3e dd d7 83 bd
       -0.24831389 -0.103174284 0.18944643 -0.06437657
000050 61 3b 5e be ed f8 56 3e 24 1d a9 3e a3 56 60 be
       -0.21702339 0.20993395 0.33030045 -0.2190805
000060 65 d7 85 be 2f dd 4d be e8 37 8a be 04 db ae 3e
       -0.26140895 -0.20103906 -0.26995778 0.3415147
000070 58 98 06 3e f6 17 0a be 61 8a da bd 60 6e 82 3a
       0.13144052 -0.13485703 -0.10670925 0.0009951107
000080 bf eb 59 be 2b ee 28 be 2f e2 02 be bb aa 8e bc
       -0.21281336 -0.16497104 -0.12781595 -0.017415395
000090 12 dc d8 bd 7a df 46 3e da ea 92 3e 1e 5c b4 bd
       -0.1058885 0.19421187 0.28694803 -0.088066325
0000a0 38 9e 91 3c cf 96 a6 3e f1 43 bc bb c6 d2 57 be
       0.01777564 0.32536933 -0.005745404 -0.21076497
0000b0 dd ba 91 bd ec 88 ac 3e ef 4c 64 be 3c c9 ed bd
       -0.071157195 0.33698213 -0.22294973 -0.11610648
0000c0 5c 69 8c 3e 8f 39 20 3e cf 6e e7 bd 40 4a d6 bd
       0.27424133 0.15646957 -0.11300432 -0.10463381
0000d0 06 83 58 3e 29 0c 85 bc 62 a8 ca be 05 74 88 3e
       0.21143731 -0.01624115 -0.3958159 0.26651016
0000e0 be f3 a3 bd 31 e4 4b 3c 8c 67 45 be f0 d7 82 be
       -0.080054745 0.012444542 -0.19277781 -0.25555372
0000f0 ea fc b1 bb 14 1e 72 bd ac 02 86 3e e9 fd 49 be
       -0.005431761 -0.059110716 0.26173913 -0.19725765
000100 a2 cb 8b bd fd 3d 81 be cc c0 e1 3d 81 65 f9 3c
       -0.06825949 -0.25242606 0.11023101 0.030443909
000110 b0 97 31 3d 14 96 59 be a9 ff 63 be d0 c0 a2 3e
       0.04335755 -0.21248657 -0.22265495 0.3178773
000120 cf 0b 6e 3d 49 2c 3d 3e b6 37 58 bd 16 3d ca 3e
       0.05811673 0.18473925 -0.052787505 0.3949973
000130 76 32 d6 3c 2f 0e 33 3d 1e b3 77 bd 12 e2 d8 be
       0.026147109 0.0437147 -0.060473554 -0.42359978
000140 5b 1a 82 3d cb 5a 31 be 7e 61 12 3d 45 9a 94 bd
       0.06352683 -0.17319791 0.035737507 -0.07255987
000150 9b 77 87 be 76 ea 9d 3d 7c 00 00 be 12 85 13 3e
       -0.2645844 0.077107355 -0.12500185 0.14406231
000160 aa a3 49 3e b2 43 db 3e d6 9a a4 3e a0 78 df bd
       0.19691339 0.42825085 0.3214938 -0.10911679
000170 d0 8a 26 3e 15 9d dc 3c 3d 45 98 3d 9d 0e 2d 3e
       0.1626389 0.026930371 0.07435081 0.16900106
000180 53 46 3f bd 87 7b 94 3d 05 87 d8 bd c5 6b 8c 3e
       -0.046697926 0.072501235 -0.10572628 0.27425972
000190 2a b7 a1 3e 41 b0 18 be 14 c4 a5 be 90 28 24 3c
       0.31585056 -0.14910986 -0.32376158 0.0100194365
0001a0 8d 84 48 be 5b f3 87 bc 06 41 29 be 96 bf fe bd
       -0.19581814 -0.016595533 -0.1652871 -0.12438886
0001b0 cb 31 91 3e 6d ae f1 bd 67 de 54 bd f8 44 14 3d
       0.28358302 -0.11800847 -0.051969912 0.036198586
0001c0 c0 1b 0c 3d 57 1b c4 bc f0 00 4c 3d a0 44 19 bc
       0.034206152 -0.023938818 0.04980558 -0.00935474
0001d0 9b cf 38 3e ab 52 8a 3e bb 0a 26 bd a3 20 bb 3e
       0.18047945 0.27016196 -0.040537577 0.36548337
0001e0 12 ed 1d 3d 33 8f 17 be ea d2 ce bd 96 6f 23 3e
       0.038556166 -0.1480072 -0.100988224 0.15960535
0001f0 0d 35 10 be 6f a7 0c be 27 f9 32 be 56 48 54 be
       -0.14082737 -0.13735746 -0.17477857 -0.20730719
000200 b8 8a 55 3d 02 10 c6 3c 95 ef 09 3e 9c 64 03 3d
       0.052134246 0.024177555 0.134703 0.03207837
000210 da 19 57 bd b9 7e 8c be 0a 94 a6 be df 5b df 3c
       -0.05251489 -0.27440432 -0.3253482 0.027265487
000220 5b 93 1c be 7e bc 6c bd f6 f1 20 3e 7f 30 d6 be
       -0.15290587 -0.057796948 0.15717301 -0.41833875
000230 cc 9d 26 3e 7d da 90 3d 02 92 4a be 52 38 85 3e
       0.16271132 0.07072923 -0.1978226 0.2601953
000240 b8 c7 ce bc e3 94 1c be 75 95 6b bd 68 17 76 3e
       -0.025241718 -0.15291171 -0.05751558 0.24032366
000250 6c 29 b1 3e 33 8f 99 bd 17 06 79 3e 18 6e 3f 3e
       0.34601915 -0.07498016 0.2431873 0.18694341
000260 c3 0c 99 3e ef f5 a2 bd 7d c1 b8 be b0 9c 8c 3e
       0.2989255 -0.07957064 -0.3608512 0.27463293
000270 1f d4 77 3e 80 4f 3b 3e d2 f1 21 be 17 a0 2b 3c
       0.24202012 0.18292046 -0.15814903 0.01047518
000280 ed 29 78 3e 17 b6 82 3e 1f 04 9f be 64 d8 f7 bd
       0.24234743 0.2552955 -0.31057832 -0.1210182
000290 3d 2d 72 be bf 86 28 3a 13 dc 93 3e 77 0d d3 3d
       -0.2365007 0.000642877 0.2887884 0.103053026
0002a0 09 65 70 3e 2f 0c d1 be 7e 5a 87 3e b0 cc 4d be
       0.23476042 -0.40829608 0.26436228 -0.20097613
0002b0 19 08 13 3e ac 75 42 3e fe 04 77 be 4c ec 71 3e
       0.14358558 0.18990201 -0.24122998 0.23625296
0002c0 a0 80 4a be 82 53 51 be 54 2d 3e 3e 60 49 ab bd
       -0.19775629 -0.20442012 0.18571979 -0.083636045
0002d0 12 7e 29 3e 0e 4d 6b be b6 fd 72 3e e3 13 8b be
       0.16551998 -0.22978613 0.23729596 -0.2716361
0002e0 35 13 8a bc df fd 8b 3e 61 cc ad bd 50 6e a0 3d
       -0.016854862 0.27342126 -0.08486248 0.078335404
0002f0 44 b6 b5 3b 33 26 95 bd fd 0a 3a 3e 41 29 da 3d
       0.0055454094 -0.072826765 0.18168254 0.106524
000300 84 34 e6 3d e0 7f 38 3e 87 39 4a be 32 ea d8 3d
       0.11240485 0.1801753 -0.19748507 0.10591544
000310 05 50 a9 3e 1d b5 8b 3d 4b 7b cb 3e de e7 91 3e
       0.33068863 0.06821654 0.39742503 0.28497213
000320 55 71 af be cd 8b 37 3c 0e d7 07 bd 0c e0 f3 3c
       -0.34266153 0.011202765 -0.033164077 0.02976992
000330 c0 63 37 3e 12 4a de 3d 55 87 30 3e 50 d5 74 be
       0.17909145 0.108539715 0.17239125 -0.23909497
000340 cc 30 6a bd d7 90 26 3e 46 d1 84 3e 57 ce 02 3d
       -0.057175443 0.1626619 0.25940913 0.031935062
000350 b7 cc a3 be 01 c7 a8 bd d2 68 58 3e 44 77 44 be
       -0.31992123 -0.08241082 0.21133736 -0.19186121
000360 13 2c 6c 3e 9e f4 11 3d b6 03 21 bd 9e 6c b3 3c
       0.23063688 0.035633676 -0.03931018 0.021902379
000370 10 b9 a0 be c7 b4 af 3d e0 8b da 3b 40 03 0b be
       -0.3139119 0.085794024 0.0066695064 -0.13575459
000380 e8 5e 14 3e e1 8c 53 be 65 e3 3b be fa 3a 88 3e
       0.14489329 -0.2065921 -0.18348463 0.26607496
000390 7d 03 0e be 75 1a 9e be 8f 36 5f 3e 08 cc 7c bd
       -0.13868518 -0.3087956 0.21798156 -0.061718017
0003a0 02 ec 31 be 04 30 3d 3d 7d f7 db bd ae a4 12 be
       -0.17375186 0.04618837 -0.10740564 -0.14320633
0003b0 b8 1d af bd b3 cb 10 bd 6c 9d 98 be 2d 29 2a be
       -0.0855059 -0.035350513 -0.29807603 -0.1661727
0003c0 f1 62 9d be 7b ef 7b 3e fa 16 1f be 05 92 4d be
       -0.3073955 0.24603073 -0.15536109 -0.20075233
0003d0 c8 f9 00 3e c6 af 61 be f3 40 86 3e b0 d3 77 bd
       0.12595284 -0.22039708 0.26221427 -0.060504615
0003e0 24 fb 8a 3e ed a3 e5 3e c3 2f 61 be 0e fd 38 bd
       0.2714473 0.44851628 -0.21990876 -0.045163207
0003f0 43 7f 4a 3c f0 f7 fd 3b 62 f0 61 3d f8 42 11 3e
       0.012359443 0.0077505037 0.055160888 0.14185703

lstm.lstm.bias_ih_l0 f4 [40]
000000 1a a1 0f be 0e c4 82 be 46 a1 94 be 9b 4e 3f bd
       -0.14026299 -0.25540203 -0.29029292 -0.046705823
000010 95 50 e9 3d cb 3e 98 bc f7 5b 9f be 1e 17 47 bd
       0.11392323 -0.01858463 -0.3112485 -0.04860603
000020 72 c0 90 3c ac cc 45 be b5 91 49 3d 63 01 99 be
       0.01766989 -0.19316357 0.049211223 -0.2988387
000030 da c4 ff 3d d7 41 46 3d f1 85 e1 bc e5 42 97 be
       0.12488718 0.048402634 -0.027529689 -0.29543224
000040 32 a3 2d 3e f8 f6 b7 be 7e 75 08 be c3 7e 97 be
       0.16956785 -0.3593061 -0.1332607 -0.295889
000050 b8 b8 5b be 6f 35 5b 3e a1 c6 e4 3b ed ae 20 be
       -0.21457183 0.21407102 0.006981686 -0.15691729
000060 46 c0 77 3e 29 16 9c bc 42 62 50 3b 14 fa 36 be
       0.2419444 -0.019053536 0.0031796847 -0.17868835
000070 bf af 7f be 01 b0 4d 3e 9f 66 4d be 82 66 23 be
       -0.24969386 0.20086671 -0.20058678 -0.15957072
000080 b7 cb b3 be b3 8d e8 bb 90 98 a8 be f5 2f c3 be
       -0.3511636 -0.00709697 -0.32928896 -0.38122526
000090 fd bb 0c be 4c 63 0f be 42 b3 5a be 71 e0 93 be
       -0.13743587 -0.14002723 -0.21357444 -0.28882173

lstm.lstm.bias_hh_l0 f4 [40]
000000 8d 97 0c be f2 d5 60 3b 65 9f 81 be 6a 62 59 be
       -0.13729687 0.003430721 -0.2531692 -0.21228948
000010 75 be 17 3d fc 4b 25 3e 16 11 30 be 42 c3 8c be
       0.03704687 0.16142267 -0.17194018 -0.2749272
000020 50 2b 02 3e 71 8b 84 be 4b d4 85 be 6b e4 a0 be
       0.12711835 -0.25887635 -0.2613853 -0.3142427
000030 e9 a0 94 bd 4e 34 58 bd ea ea ca bd cb db 71 3d
       -0.07257254 -0.052784257 -0.099080876 0.0590475
000040 39 f8 40 bd 3e 7c b3 3d da f6 b7 3d 17 6a 91 3c
       -0.047111724 0.08763932 0.0898263 0.017750783
000050 8b 1f 78 bd 11 8b 83 be 59 c1 20 be 81 a8 85 3e
       -0.060576957 -0.25692037 -0.15698756 0.2610512
000060 9a 4e c2 3d 27 89 84 3c e2 7f a1 be e9 ef 72 3e
       0.09487648 0.01617868 -0.3154288 0.23724331
000070 6c 2d c0 3d ff ed 51 be 76 9a 0f 3e e6 c6 89 3e
       0.093836635 -0.20500945 0.14023766 0.2690956
000080 d2 0b 50 be 8f 1d ee 3d c7 a1 60 3e 2c 8d af bd
       -0.20317009 0.116267316 0.21936713 -0.08571848
000090 3b e1 3a be 76 aa b3 be 4f c5 68 be 3a 3a 3a 3e
       -0.18249981 -0.3509099 -0.22731517 0.18186274

exp_avg f4 [40, 10]
000000 61 ef 9d b3 4a 37 b2 b3 fb 2d 6b b3 cc f0 36 b3
       -7.354425e-08 -8.298828e-08 -5.475702e-08 -4.259418e-08
000010 3e b5 ad b3 a2 eb 6f 31 5e db cc 33 e5 7e 06 33
       -8.088908e-08 3.491302e-09 9.539393e-08 3.1314716e-08
000020 78 b0 1d b3 df 7a d2 b2 93 73 74 b2 6f 23 f0 31
       -3.671491e-08 -2.4503093e-08 -1.4228948e-08 6.9889476e-09
000030 54 ac 40 31 66 e1 a7 b2 a2 a0 cf b1 cc b1 03 33
       2.8037634e-09 -1.9543858e-08 -6.0427547e-09 3.066252e-08
000040 ab 93 5c 33 7d 2b a4 32 86 b7 84 b1 ff 09 29 b2
       5.1357045e-08 1.9111889e-08 -3.86257e-09 -9.8393675e-09
000050 4c bb 94 b1 e6 da af 31 e0 c6 c4 31 bd a2 9e 30
       -4.32866e-09 5.118056e-09 5.7269602e-09 1.1542266e-09
000060 d3 ee 5f 32 3e 0d bf 32 72 c4 3b 32 7e 04 6e 30
       1.3034611e-08 2.2241348e-08 1.0929499e-08 8.659028e-10
000070 cb 71 9c af 72 51 80 b1 a5 36 f5 b2 fb 24 44 b3
       -2.845709e-10 -3.7345496e-09 -2.8546603e-08 -4.566844e-08
000080 89 bf 33 b3 dd 18 25 b3 d7 6a 32 b3 38 8d 2b 31
       -4.1850885e-08 -3.843967e-08 -4.1541025e-08 2.4964049e-09
000090 f0 92 7e 33 d2 72 28 33 ec 15 b5 b1 6f dc bb b2
       5.9272622e-08 3.9219977e-08 -5.2702855e-09 -2.1869907e-08
0000a0 4a e8 c0 32 30 0f b8 33 f5 67 a6 33 46 d5 1f 33
       2.2457375e-08 8.57093e-08 7.748887e-08 3.7214043e-08
0000b0 ed 5e aa 33 24 0c b0 33 ed 41 1e 32 a5 05 4a b2
       7.933509e-08 8.197847e-08 9.2118e-09 -1.1759231e-08
0000c0 bf ec db 32 d5 c2 b3 32 68 2c e5 b1 57 95 98 b1
       2.5602615e-08 2.0926942e-08 -6.6698256e-09 -4.44076e-09
0000d0 b8 81 8d b1 a6 ed fd b1 d0 6f 9a b1 89 70 38 32
       -4.1183874e-09 -7.3902866e-09 -4.4947015e-09 1.0735797e-08
0000e0 a3 93 2d 32 cf 87 04 b0 b2 9b 5c b1 8b 7c b4 af
       1.0103494e-08 -4.8214316e-10 -3.2102716e-09 -3.2830302e-10
0000f0 e6 f9 35 b3 2a 73 f9 b3 57 45 02 b4 20 ae dc b3
       -4.2369628e-08 -1.1615914e-07 -1.2132419e-07 -1.02762215e-07
000100 38 00 09 b4 8f 56 78 b3 08 43 b3 33 92 63 aa 33
       -1.2759199e-07 -5.7820724e-08 8.34753e-08 7.9343536e-08
000110 39 c6 d0 b1 1b 60 2d b3 c8 42 8d 31 19 2a c4 31
       -6.076132e-09 -4.036711e-08 4.1112322e-09 5.7091367e-09
000120 25 f6 36 31 9e e5 89 b0 3b 99 ed 30 cc 78 fd 30
       2.6624403e-09 -1.0033323e-09 1.728757e-09 1.8442505e-09
000130 16 03 6a b1 1f 7a bd b0 47 95 7b 31 df d9 1b 31
       -3.4053236e-09 -1.3786269e-09 3.6610162e-09 2.2679314e-09
000140 9c d9 13 32 be 05 cd 32 65 52 84 32 29 53 01 b0
       8.606005e-09 2.3867752e-08 1.5404291e-08 -4.7048104e-10
000150 f8 f4 d2 32 07 ba 1d 33 83 36 6f 32 91 e6 d2 30
       2.4558616e-08 3.6723602e-08 1.39240255e-08 1.5345042e-09
000160 30 3f 04 32 68 83 7b b1 2a c2 c8 33 c5 f8 f7 b3
       7.697778e-09 -3.6600003e-09 9.348544e-08 -1.1547085e-07
000170 ee c8 34 b5 2e 7f d7 b4 5a c6 6c 35 fe 72 88 35
       -6.7347617e-07 -4.0139406e-07 8.820549e-07 1.0166257e-06
000180 3c a9 b5 b3 06 b7 49 b4 b5 3b cb b3 5e c9 07 b5
       -8.459253e-08 -1.8786167e-07 -9.463785e-08 -5.0584447e-07
000190 7c 56 22 b3 76 11 56 b3 4a 5d ed b2 04 03 46 b2
       -3.779722e-08 -4.984164e-08 -2.7632854e-08 -1.15258025e-08
0001a0 08 8e 2e b3 ef f3 6a b2 f7 9f b1 32 ad 7b 46 31
       -4.064171e-08 -1.3676057e-08 2.0678256e-08 2.8883094e-09
0001b0 2f 33 b7 b2 5f e9 80 b1 64 8f b3 30 9b c9 bc 32
       -2.132728e-08 -3.7518215e-09 1.3064718e-09 2.197776e-08
0001c0 56 05 af 32 cc 29 2e 32 36 75 64 32 ac 0d 96 32
       2.0375108e-08 1.01376365e-08 1.3297997e-08 1.7468516e-08
0001d0 9c ad f5 b1 f8 b9 c0 b2 1b 90 88 b1 e4 6c 3e 32
       -7.1501756e-09 -2.243631e-08 -3.974504e-09 1.1084214e-08
0001e0 1f ee 4c 31 79 a4 62 32 a8 4d 7c 32 97 56 48 32
       2.9821263e-09 1.3192328e-08 1.46859875e-08 1.166122e-08
0001f0 13 ba 63 32 65 11 d8 31 b8 95 0f b2 ae e2 2f b2
       1.3255447e-08 6.288405e-09 -8.357738e-09 -1.0237882e-08
000200 7e 9a f6 b0 dc 3d 85 31 21 20 c7 b2 d6 fe e6 b2
       -1.7942765e-09 3.877842e-09 -2.318126e-08 -2.689141e-08
000210 60 0c 97 b2 05 10 7a b2 0f 3e bc b2 cb 89 5f 31
       -1.7584341e-08 -1.4555558e-08 -2.1914301e-08 3.2529097e-09
000220 f2 ad dd 32 c7 38 27 32 e9 1a 32 b2 2c 43 11 b2
       2.5806887e-08 9.733589e-09 -1.0367082e-08 -8.455384e-09
000230 8c aa ef 32 8a 6e de 33 89 c0 d8 33 30 82 8b 33
       2.7900818e-08 1.03577875e-07 1.0093306e-07 6.496373e-08
000240 e5 50 c4 33 80 f0 98 33 50 5c bc b2 0d a9 29 b3
       9.141676e-08 7.121798e-08 -2.192806e-08 -3.950213e-08
000250 43 4f a2 32 c3 8a 19 33 d4 d4 f9 b0 43 1d 68 b0
       1.8895326e-08 3.574929e-08 -1.8177624e-09 -8.444269e-10
000260 64 ca 82 af a2 e4 69 b0 c5 1c dd b0 60 a8 01 30
       -2.379067e-10 -8.5089813e-10 -1.6088043e-09 4.71692e-10
000270 ad 73 a8 b0 53 48 42 b1 77 13 7b b0 eb fe 1c 31
       -1.2256486e-09 -2.8271827e-09 -9.134093e-10 2.2845892e-09
000280 4c 77 1f b3 f4 a6 b4 b3 51 97 a7 b3 c4 08 87 b3
       -3.7128572e-08 -8.412272e-08 -7.804068e-08 -6.288022e-08
000290 87 69 ba b3 1d 62 3b b3 15 18 35 33 9a 61 2f 33
       -8.680495e-08 -4.3628564e-08 4.216425e-08 4.083413e-08
0002a0 07 30 82 b2 b0 92 05 b3 a5 e0 35 31 ba a2 52 31
       -1.5155832e-08 -3.1099887e-08 2.6466662e-09 3.0651521e-09
0002b0 8a ed a9 30 cb 71 fe af ad 15 48 30 39 71 51 2d
       1.2363881e-09 -4.6283186e-10 7.279038e-10 1.1905415e-11
0002c0 2b 47 e0 b0 82 82 5b 30 df 6a 42 31 d0 e6 ce 30
       -1.6318372e-09 7.98572e-10 2.8291465e-09 1.5054074e-09
0002d0 4b fa 68 32 f2 99 1f 33 7c 99 11 33 30 1c a1 32
       1.3561087e-08 3.7160085e-08 3.3900037e-08 1.8755685e-08
0002e0 4d c1 05 33 c4 50 bb 32 4d 93 40 b2 a9 1e 5c b2
       3.114228e-08 2.1806393e-08 -1.1209363e-08 -1.2812657e-08
0002f0 97 91 17 32 4c 30 5c 32 5a b4 c8 34 e5 d0 9f 34
       8.82246e-09 1.2816667e-08 3.7384126e-07 2.976805e-07
000300 05 4e 41 34 c3 fd a5 33 6e 7b 86 b3 91 1c 13 b5
       1.8002909e-07 7.72957e-08 -6.262313e-08 -5.4803337e-07
000310 af cb dc b4 83 57 3c 33 0f 2e a4 34 4a 0f d3 34
       -4.1126393e-07 4.3851752e-08 3.0580892e-07 3.9312937e-07
000320 dd 78 d0 34 f2 52 24 35 40 5f d7 34 59 f6 60 34
       3.883096e-07 6.121546e-07 4.0116174e-07 2.0951246e-07
000330 1e a3 07 35 e2 59 57 34 37 73 e0 b4 11 94 98 b4
       5.0528786e-07 2.0056135e-07 -4.180708e-07 -2.841994e-07
000340 1c be 1d 34 ba 1c 1d 34 44 48 ed b4 d3 6c 44 b5
       1.4690926e-07 1.4632215e-07 -4.419727e-07 -7.317405e-07
000350 d3 32 05 b5 6f f7 6e b4 54 09 18 b5 5e 91 9c b4
       -4.962032e-07 -2.2255493e-07 -5.6637987e-07 -2.9163033e-07
000360 01 09 be 34 23 cd 5e 34 aa 1f 83 b4 70 26 3e b4
       3.539681e-07 2.074999e-07 -2.442369e-07 -1.7709112e-07
000370 bb f7 ea b3 0b 74 56 b4 6b 0d 3d b4 fd 1c 1d b4
       -1.0941536e-07 -1.9972519e-07 -1.7606878e-07 -1.463231e-07
000380 80 f6 82 b4 cf d1 d4 b3 ec 06 fb 33 7c 95 86 33
       -2.439374e-07 -9.910183e-08 1.16893574e-07 6.267052e-08
000390 e0 bc 78 b3 0a 04 3a b3 63 7a 84 b4 48 09 00 b5
       -5.791378e-08 -4.3310173e-08 -2.4675964e-07 -4.769722e-07
0003a0 a4 23 dc b4 ab dd a0 b4 2c f7 01 b5 59 55 58 b4
       -4.1004125e-07 -2.9963607e-07 -4.841593e-07 -2.0147617e-07
0003b0 56 dc 95 34 9d c3 44 34 5e 6f f3 b3 98 9a 05 b4
       2.7913728e-07 1.8325086e-07 -1.1335827e-07 -1.2442831e-07
0003c0 42 4e 8d 34 65 bc 24 35 23 ac 0e 35 c0 02 b0 34
       2.6320237e-07 6.136891e-07 5.3149614e-07 3.2784556e-07
0003d0 ee 75 14 35 45 2d c6 34 bd d2 52 b4 40 97 36 b4
       5.5305907e-07 3.6913312e-07 -1.963444e-07 -1.7005095e-07
0003e0 aa 5d 3d 34 c6 a5 3c 34 4f 63 2c b4 22 9b 29 b4
       1.7636071e-07 1.7569172e-07 -1.6054877e-07 -1.5795788e-07
0003f0 46 48 d9 b3 62 9a df b3 a8 95 2e b4 76 8f 65 33
       -1.01179964e-07 -1.0412329e-07 -1.6259457e-07 5.3448694e-08

exp_avg_sq f4 [40, 10]
000000 b5 2b 15 29 bb 48 ac 29 3a 09 0a 2a 3d 53 e8 29
       3.3122556e-14 7.650951e-14 1.2260063e-13 1.0317309e-13
000010 0b 73 c9 29 23 0b 4d 2a c5 dd 25 2a 12 22 3f 29
       8.94615e-14 1.8211521e-13 1.4731886e-13 4.244007e-14
000020 92 74 43 29 08 d8 e3 29 4d 74 cd 27 aa f6 05 28
       4.3399807e-14 1.01183005e-13 5.7025024e-15 7.43647e-15
000030 c2 1c 0d 28 42 a8 ac 27 de 10 84 27 38 a9 4f 28
       7.833308e-15 4.7922016e-15 3.6655647e-15 1.1527502e-14
000040 52 ab 43 28 ff dd 61 27 64 37 cd 27 2c 8e 38 28
       1.0861824e-14 3.1345367e-15 5.6958985e-15 1.02448804e-14
000050 3f e1 f9 26 1c e7 ec 26 9c 23 6a 27 33 8f 45 27
       1.7338899e-15 1.6438432e-15 3.2493327e-15 2.741687e-15
000060 d5 47 ec 26 b3 37 94 27 75 06 94 27 41 5a 16 27
       1.639526e-15 4.113864e-15 4.1085253e-15 2.0865608e-15
000070 ae d5 b3 26 0f 95 3d 27 0f 1a 2e 28 af b8 f2 28
       1.2478538e-15 2.6309824e-15 9.664591e-15 2.6947491e-14
000080 b3 33 47 29 ac a9 0f 29 6f 74 b1 28 44 2a 52 29
       4.4231718e-14 3.1899545e-14 1.9701443e-14 4.6666027e-14
000090 f5 57 80 29 b7 2c af 28 6d fd 28 28 97 df 21 29
       5.6996e-14 1.9448295e-14 9.380826e-15 3.5943115e-14
0000a0 b0 81 56 29 86 2e 85 29 29 bf 0f 2a ed f6 22 2a
       4.763003e-14 5.914457e-14 1.2767273e-13 1.447416e-13
0000b0 c4 90 c3 29 9e 56 0c 2a 3a 29 1b 2a 81 ab ba 29
       8.6848524e-14 1.2464549e-13 1.3781069e-13 8.2898105e-14
0000c0 14 66 55 29 19 5a db 29 b4 29 3c 26 8e 37 9c 26
       4.738404e-14 9.741183e-14 6.528212e-16 1.0839733e-15
0000d0 a8 da fe 26 b6 33 fa 26 7b 9b df 26 cf ae 77 27
       1.7684057e-15 1.7361251e-15 1.5515876e-15 3.43729e-15
0000e0 da 9f 1d 27 02 5a 74 26 b1 5d 31 26 20 49 af 26
       2.1874783e-15 8.477649e-16 6.1536187e-16 1.2162885e-15
0000f0 50 db 85 29 7f e4 db 29 3b 97 6d 2a be ff 80 2a
       5.944431e-14 9.7651914e-14 2.1102297e-13 2.2914824e-13
000100 f4 7f 17 2a 21 cc 49 2a ac 31 94 2a 30 08 29 2a
       1.3455887e-13 1.7923208e-13 2.6324548e-13 1.5013056e-13
000110 78 53 76 29 a3 93 1f 2a 5d 15 1c 24 f5 77 93 24
       5.469537e-14 1.4173259e-13 3.3845203e-17 6.39543e-17
000120 22 9c 31 25 47 89 34 25 d3 31 86 24 f4 36 cb 24
       1.5405203e-16 1.5659023e-16 5.819764e-17 8.813031e-17
000130 d0 3f 73 25 83 90 47 25 a0 dc 8d 24 18 14 c5 24
       2.1098511e-16 1.7309461e-16 6.1522756e-17 8.546917e-17
000140 95 4c bc 27 de 82 25 28 6c 2d b4 28 42 87 b8 28
       5.2263513e-15 9.187717e-15 2.0003713e-14 2.0486762e-14
000150 4b df 76 28 8f ac c3 28 78 3a 96 28 34 dd 12 28
       1.3704162e-14 2.1724184e-14 1.6678702e-14 8.152594e-15
000160 1c 91 05 28 72 7d 8c 28 48 d4 03 2c ad ff f0 2b
       7.414449e-15 1.5597526e-14 1.873406e-12 1.712399e-12
000170 3c 55 8a 2b a6 93 41 2c 7d 5c 05 2d b5 c9 6a 2c
       9.829147e-13 2.750891e-12 7.580711e-12 3.336537e-12
000180 25 3f 61 2b 25 ec 0a 2c f8 a3 0f 2c 35 68 d6 2b
       8.002369e-13 1.9742066e-12 2.0412543e-12 1.5234538e-12
000190 ed 3e a5 28 97 ba 3e 29 6e df 9a 29 b8 da 84 29
       1.834597e-14 4.2350316e-14 6.877733e-14 5.899919e-14
0001a0 fc dd 71 29 a2 9c d1 29 f0 72 86 29 39 cf b7 28
       5.370529e-14 9.308636e-14 5.970734e-14 2.040695e-14
0001b0 21 14 e9 28 b1 a7 85 29 85 ea 00 27 46 31 0e 27
       2.5876926e-14 5.935476e-14 1.7890702e-15 1.973317e-15
0001c0 e8 63 86 27 83 25 3e 27 ff f3 1b 27 48 22 a2 27
       3.730079e-15 2.6388132e-15 2.1642842e-15 4.50012e-15
0001d0 dc f9 b7 27 b7 57 a3 27 d6 8d f9 26 a9 89 6e 27
       5.10636e-15 4.533669e-15 1.731629e-15 3.310376e-15
0001e0 f8 04 78 26 81 93 8a 26 dc bc 1f 27 11 72 0b 27
       8.604902e-16 9.615655e-16 2.2168063e-15 1.935196e-15
0001f0 24 4d a8 26 90 00 2a 27 e6 12 65 27 9b fb 02 27
       1.1678251e-15 2.3592544e-15 3.179038e-15 1.817752e-15
000200 53 b0 16 26 77 69 e6 26 28 3f ed 27 11 11 a9 28
       5.228067e-16 1.5988042e-15 6.584919e-15 1.877017e-14
000210 e8 cc 16 29 92 c7 e1 28 da 67 8d 28 14 1e 35 29
       3.348442e-14 2.5066568e-14 1.5699183e-14 4.0216162e-14
000220 d1 40 1c 29 cd 86 24 28 1c 02 06 28 2b 23 f1 28
       3.4695178e-14 9.133059e-15 7.438952e-15 2.6771627e-14
000230 14 aa 40 29 20 57 84 29 0f 7f 0f 2a ac a5 17 2a
       4.2780083e-14 5.8770913e-14 1.2745034e-13 1.3468973e-13
000240 ec a0 c3 29 31 c4 0c 2a 50 bc 29 2a ca 88 cd 29
       8.687655e-14 1.2502565e-13 1.5075549e-13 9.127558e-14
000250 2f 20 3e 29 54 88 d9 29 f5 e6 a8 25 49 aa e9 25
       4.221639e-14 9.660385e-14 2.9299857e-16 4.0534447e-16
000260 36 2a 9a 26 65 b7 c0 26 d6 42 83 26 f9 36 a7 26
       1.0697338e-15 1.3372385e-15 9.108067e-16 1.1602853e-15
000270 1b 19 95 26 53 43 27 26 29 0f 8e 25 1b 83 1d 26
       1.0345757e-15 5.8031005e-16 2.4643346e-16 5.4648e-16
000280 3a 03 1e 29 f6 9e 8b 29 cb 1e 16 2a 34 4e 22 2a
       3.5085846e-14 6.2004153e-14 1.333336e-13 1.4415623e-13
000290 e7 57 bf 29 72 d3 12 2a f6 43 2d 2a 48 7d ab 29
       8.4973525e-14 1.3040765e-13 1.5389065e-13 7.615658e-14
0002a0 83 bc 21 29 38 8a da 29 15 58 cc 23 71 9c 5f 24
       3.591269e-14 9.705122e-14 2.2155029e-17 4.8487928e-17
0002b0 6a c9 23 25 6a 18 1e 25 65 a4 74 24 9d 86 1e 25
       1.4206238e-16 1.3712587e-16 5.3048314e-17 1.3749924e-16
0002c0 c4 07 56 25 be ba c6 24 3e f3 e8 23 db 64 9b 24
       1.8564172e-16 8.6185166e-17 2.5256507e-17 6.739139e-17
0002d0 8c 97 b3 27 30 8e 32 28 d3 25 ac 28 5f e7 91 28
       4.9846788e-15 9.911817e-15 1.911224e-14 1.6198575e-14
0002e0 de 57 56 28 1c b5 a8 28 95 19 ac 28 78 84 3a 28
       1.18984395e-14 1.873029e-14 1.910693e-14 1.0353799e-14
0002f0 80 64 d7 27 78 0f 88 28 f4 15 f8 2a 12 8f 07 2b
       5.978345e-15 1.5105742e-14 4.4068883e-13 4.8160185e-13
000300 36 6e ed 2a 40 56 3f 2b 8e d6 52 2b a8 1d 1c 2b
       4.217613e-13 6.7976527e-13 7.490474e-13 5.546349e-13
000310 a4 88 c9 2a 9f f2 9f 2a 28 21 20 2b a0 ab 05 2b
       3.5799586e-13 2.8412426e-13 5.688943e-13 4.748927e-13
000320 d3 6d b3 2b 74 10 46 2c 57 a5 a2 2c bf d5 8d 2c
       1.2749197e-12 2.8146626e-12 4.6226733e-12 4.0311916e-12
000330 f1 83 6b 2c ac af d2 2c 34 fd b1 2c a8 b6 0b 2c
       3.346875e-12 5.9880625e-12 5.0587538e-12 1.9854483e-12
000340 d0 a0 ef 2b e7 44 87 2c 62 f0 12 2c 07 e6 8c 2c
       1.7026606e-12 3.8445805e-12 2.0881287e-12 4.0045775e-12
000350 66 7d 00 2d 06 eb 00 2d 4f 94 be 2c b2 dc 1e 2d
       7.303802e-12 7.328143e-12 5.4165904e-12 9.030264e-12
000360 63 46 14 2d fc 66 86 2c 3c 99 40 2c 35 00 cd 2c
       8.428455e-12 3.8199426e-12 2.7369903e-12 5.8264734e-12
000370 3c 6f 61 2a ce b7 b8 2a f3 a9 40 2b 38 dc 55 2b
       2.0022607e-13 3.2812506e-13 6.8447955e-13 7.5978416e-13
000380 39 9f 05 2b 55 26 58 2b 28 a5 60 2b 95 f9 cd 2a
       4.747206e-13 7.679181e-13 7.9809987e-13 3.6588498e-13
000390 ce 88 6b 2a 64 ce 09 2b bc ad 8e 2b f5 4b 14 2c
       2.0919657e-13 4.89586e-13 1.0137928e-12 2.107423e-12
0003a0 3d 0e 97 2c e5 f9 98 2c c8 10 3d 2c 57 e6 9d 2c
       4.293259e-12 4.3478437e-12 2.686783e-12 4.4877812e-12
0003b0 6d 85 a3 2c 29 56 11 2c 6b 4e a7 2b c5 42 5b 2c
       4.647552e-12 2.0653568e-12 1.1887829e-12 3.1158836e-12
0003c0 3a 3e de 2b aa 3f 31 2c a8 9e b7 2c 36 d5 ce 2c
       1.579132e-12 2.5188553e-12 5.218787e-12 5.8785433e-12
0003d0 7d d2 85 2c 90 33 c5 2c a0 d1 d6 2c 5c 79 5c 2c
       3.8034562e-12 5.6048013e-12 6.105519e-12 3.1331248e-12
0003e0 47 87 f6 2b 0f 0a 8b 2c 9e f6 83 2a 9c 8a 8b 2a
       1.7516898e-12 3.9517343e-12 2.34414e-13 2.478754e-13
0003f0 34 eb 2b 2b 1b 12 54 2b bc 96 d1 2a 95 20 37 2b
       6.1077814e-13 7.5342656e-13 3.723045e-13 6.5059877e-13

exp_avg f4 [40, 10]
000000 8d f5 91 34 1a 36 a8 33 b6 54 b3 33 3d 86 e9 b3
       2.7187016e-07 7.8329506e-08 8.350746e-08 -1.0874326e-07
000010 45 63 08 b5 a7 cc a3 b3 5f a6 8e 34 c6 e6 9e b3
       -5.0808404e-07 -7.627505e-08 2.6570612e-07 -7.399426e-08
000020 d3 a7 62 34 42 f5 20 32 72 e2 fe b3 22 94 25 b3
       2.1108944e-07 9.368991e-09 -1.1868987e-07 -3.8551782e-08
000030 a6 89 50 b3 5f c4 92 33 c0 44 8c 34 e1 e0 c0 32
       -4.8553964e-08 6.8343745e-08 2.6127054e-07 2.2454005e-08
000040 dc db 1a b4 6b 33 54 33 bf 74 e3 b3 de 87 e6 b2
       -1.4422352e-07 4.940686e-08 -1.0591747e-07 -2.683731e-08
000050 6d 15 9e b3 c2 59 8f b2 95 19 d3 b2 af b5 2a 33
       -7.361346e-08 -1.6688208e-08 -2.4575266e-08 3.974645e-08
000060 ab 79 16 34 64 e0 8a 32 86 f1 ad b3 0f 7a e4 32
       1.4014101e-07 1.6167355e-08 -8.099873e-08 2.65982e-08
000070 90 76 6f b3 f4 95 60 b2 05 9a f2 33 b5 8d a9 32
       -5.5754356e-08 -1.3072611e-08 1.1297019e-07 1.973863e-08
000080 eb f8 d7 32 f1 1d 27 b3 06 4a 40 b4 53 aa 28 b3
       2.5142489e-08 -3.890995e-08 -1.7908323e-07 -3.9270457e-08
000090 a0 9f cd 33 48 69 ed b2 c7 49 a1 33 a9 6c 34 b2
       9.575092e-08 -2.7638308e-08 7.510567e-08 -1.0502085e-08
0000a0 b0 8b 2b b5 1f bf 33 b4 44 ef 61 b4 66 05 a7 34
       -6.3905736e-07 -1.6740204e-07 -2.1041802e-07 3.1110102e-07
0000b0 5d 8a a4 35 4d d9 28 34 cb 2c 36 b5 ac ab 61 34
       1.2259221e-06 1.5725273e-07 -6.7865466e-07 2.1017212e-07
0000c0 9e 88 05 b5 87 60 96 b3 ae 77 4e 31 43 19 37 31
       -4.9745165e-07 -7.0024775e-08 3.0044975e-09 2.6644364e-09
0000d0 05 32 32 2f 99 d1 09 31 08 2f a6 b1 ef 6e f4 b0
       1.6206776e-10 2.0055266e-09 -4.8365827e-09 -1.7784866e-09
0000e0 f2 43 6b 2f 58 92 2b 31 ad ec 2f 31 72 71 43 b1
       2.1397265e-10 2.4966962e-09 2.5600386e-09 -2.844072e-09
0000f0 fa 25 12 35 ca dd f1 33 fb a0 24 34 be 82 81 b4
       5.44445e-07 1.126278e-07 1.5332255e-07 -2.412325e-07
000100 f2 f8 80 b5 c5 2c 23 b4 b3 47 0f 35 04 65 2e b4
       -9.609196e-07 -1.5196845e-07 5.337599e-07 -1.6241762e-07
000110 f1 11 d2 34 34 22 de 32 e3 0d ae b2 59 22 e9 b1
       3.9128602e-07 2.5859755e-08 -2.0262581e-08 -6.7850974e-09
000120 0e 11 03 b2 81 43 16 32 af 16 34 33 04 4f b1 31
       -7.629081e-09 8.746498e-09 4.1930146e-08 5.160361e-09
000130 b2 36 b6 b2 26 46 fb 31 84 2a 98 b2 50 39 f8 b0
       -2.1212461e-08 7.3130364e-09 -1.7714463e-08 -1.8060664e-09
000140 a2 62 4c b4 fd 9c 60 b3 01 14 8d b3 f3 9a d0 33
       -1.9034863e-07 -5.2296844e-08 -6.569463e-08 9.71394e-08
000150 67 f9 c8 34 fe 39 3b 33 c9 42 60 b4 dd fa 8c 33
       3.7434367e-07 4.3592074e-08 -2.0885922e-07 6.56489e-08
000160 96 c6 22 b4 43 8e ef b2 53 f9 9e b5 b6 b5 86 33
       -1.5159671e-07 -2.7887955e-08 -1.184448e-06 6.272914e-08
000170 e0 61 4e b4 7a 1b 74 35 1e b0 ae 35 5b 45 a8 34
       -1.9220852e-07 9.0937067e-07 1.3015267e-06 3.13429e-07
000180 01 6d b1 b5 65 7f c9 34 5e 58 c2 b4 ca 1f c7 b4
       -1.3219252e-06 3.753186e-07 -3.6199611e-07 -3.7089768e-07
000190 b3 ee 5b 34 a9 d2 85 33 e3 6a 95 33 b1 99 c9 b3
       2.0482803e-07 6.231614e-08 6.957796e-08 -9.387748e-08
0001a0 72 21 da b4 86 a7 59 b3 b7 0a 69 34 b2 8f 89 b3
       -4.063e-07 -5.067661e-08 2.1703714e-07 -6.405698e-08
0001b0 0e 80 33 34 86 18 c8 32 8d 99 96 b3 e3 81 33 b2
       1.671726e-07 2.3294216e-08 -7.01285e-08 -1.0448704e-08
0001c0 4c c1 9a b2 a0 3e 06 33 52 ff fe 33 06 4c cb 32
       -1.801586e-08 3.1256263e-08 1.1874239e-07 2.3666882e-08
0001d0 15 7c 90 b3 35 a6 d9 32 b4 f0 52 b3 c5 8d a8 30
       -6.728093e-08 2.5337707e-08 -4.9113353e-08 1.2263902e-09
0001e0 d1 44 80 b3 10 1f 36 b2 6d 53 84 b2 5b b1 e4 32
       -5.972982e-08 -1.0600857e-08 -1.540476e-08 2.6623345e-08
0001f0 53 2e d8 33 65 23 9c 32 f1 f9 76 b3 29 26 99 32
       1.006671e-07 1.8176886e-08 -5.750366e-08 1.7828897e-08
000200 83 02 2f b3 30 c1 db af a0 85 c7 33 78 0f e1 32
       -4.0747647e-08 -3.9973136e-10 9.290966e-08 2.6200482e-08
000210 33 c4 f3 32 50 1d 23 b3 fd 28 3b b4 5a e6 dd b2
       2.8378144e-08 -3.7978054e-08 -1.7430644e-07 -2.5832538e-08
000220 c2 33 c5 33 de 1c da b2 93 2f 9b 33 9f 7a 9a 31
       9.182942e-08 -2.5391667e-08 7.226404e-08 4.4959303e-09
000230 84 a4 24 b5 31 94 1e b4 df ac 49 b4 55 0e 9c 34
       -6.133416e-07 -1.4768808e-07 -1.8782474e-07 2.9067692e-07
000240 2c e6 98 35 97 3f 32 34 74 71 2a b5 6d d7 52 34
       1.1391871e-06 1.6600676e-07 -6.349503e-07 1.9636146e-07
000250 dd 4c f8 b4 d0 d8 4f b3 a6 53 cc 31 4d 4b 40 31
       -4.6249525e-07 -4.8393133e-08 5.946691e-09 2.798248e-09
000260 e7 60 23 31 9b 60 5c b1 8c 3f 68 b2 d6 1c 5b b0
       2.3774704e-09 -3.2069127e-09 -1.3518626e-08 -7.9712714e-10
000270 4d fd fd 31 50 82 af b0 32 ba bb 31 f7 e3 ec 30
       7.392066e-09 -1.2769963e-09 5.4635843e-09 1.7236051e-09
000280 09 e9 dd 34 fd 82 ce 33 b7 9b 04 34 20 d4 4a b4
       4.1334013e-07 9.616449e-08 1.2350107e-07 -1.8889887e-07
000290 3d f3 4b b5 30 82 ef b3 47 0b e1 34 87 56 08 b4
       -7.597735e-07 -1.1152986e-07 4.191772e-07 -1.2697465e-07
0002a0 72 03 a6 34 f0 1c 15 33 df bb 9e b2 5b fb d8 b1
       3.0922416e-07 3.4718084e-08 -1.8479055e-08 -6.315003e-09
0002b0 91 2d e7 b1 d1 0a 12 32 f2 b8 22 33 86 72 a1 31
       -6.728165e-09 8.500778e-09 3.788677e-08 4.6987365e-09
0002c0 e1 0f ab b2 79 41 d0 31 74 65 86 b2 f6 32 f6 b0
       -1.9914241e-08 6.06104e-09 -1.5645789e-08 -1.791334e-09
0002d0 5c 04 4c b4 19 ae 4a b3 ac 61 7c b3 f4 ad be 33
       -1.9000566e-07 -4.719013e-08 -5.8762154e-08 8.879206e-08
0002e0 1b e1 be 34 3d d8 5e 33 bf b9 52 b4 b7 7e 83 33
       3.5554044e-07 5.188507e-08 -1.9625348e-07 6.123212e-08
0002f0 b2 c4 1b b4 e6 2c 74 b2 56 af 87 b4 ba e2 88 b4
       -1.4507057e-07 -1.4212878e-08 -2.5273283e-07 -2.549694e-07
000300 2e fc 1f b4 1e d0 a9 b3 83 73 4f 35 f4 d7 0d 34
       -1.4899771e-07 -7.907532e-08 7.72816e-07 1.3210212e-07
000310 13 db 21 b4 e8 a5 3b 33 db f8 cf b4 d3 72 09 34
       -1.5073992e-07 4.369022e-08 -3.873782e-07 1.2800892e-07
000320 7b 37 0d b6 98 56 14 b5 8a 52 30 b5 53 ff 74 35
       -2.1042931e-06 -5.5260307e-07 -6.568522e-07 9.126863e-07
000330 cf be 84 36 23 33 1c 35 9f 37 0e b6 53 ed 30 35
       3.9561196e-06 5.818894e-07 -2.1192025e-06 6.591046e-07
000340 1f b7 db b5 8e 37 f9 b3 dc e3 5a 36 30 e3 73 35
       -1.6370067e-06 -1.16050714e-07 3.2617163e-06 9.0855156e-07
000350 29 d1 8e 35 c2 7e c7 b5 a6 56 d2 b6 a1 ca 64 b5
       1.0640698e-06 -1.4863547e-06 -6.268575e-06 -8.523148e-07
000360 40 43 63 36 56 15 8b b5 6a 0e 2d 36 31 b9 8a 34
       3.386478e-06 -1.0362517e-06 2.57874e-06 2.5839248e-07
000370 44 80 a8 35 5a a2 a9 34 9b 52 d0 34 ee f0 1c b5
       1.2554306e-06 3.159683e-07 3.8803122e-07 -5.846513e-07
000380 4e 87 1c b6 23 c6 ac b4 92 a2 ad 35 4a be c9 b4
       -2.332457e-06 -3.218166e-07 1.2936819e-06 -3.757762e-07
000390 b7 3f 7d 35 c3 ea eb 33 d7 03 1d 36 62 5d 1d 35
       9.434256e-07 1.0985743e-07 2.3397058e-06 5.862295e-07
0003a0 c4 32 41 35 1f 5b 8e b5 1b bf 91 b6 f4 c3 25 b5
       7.1971976e-07 -1.0606344e-06 -4.3435844e-06 -6.175244e-07
0003b0 28 bd 1f 36 29 9e 3e b5 82 10 ee 35 8c ba 36 34
       2.380295e-06 -7.101067e-07 1.7737186e-06 1.7017936e-07
0003c0 73 85 7a b6 88 f9 81 b5 e8 05 a0 b5 1d 88 eb 35
       -3.733058e-06 -9.683872e-07 -1.1922648e-06 1.7548479e-06
0003d0 d6 e5 ec 36 20 da 7f 35 c5 75 82 b6 61 10 9e 35
       7.0601045e-06 9.5312316e-07 -3.888012e-06 1.1776684e-06
0003e0 cb d9 40 b6 e5 46 b1 b4 3d 49 3e 34 1d c3 47 33
       -2.8737002e-06 -3.3020402e-07 1.7721773e-07 4.6510753e-08
0003f0 7b 52 0e 33 75 6e ec b2 c3 cb 94 b4 e6 d4 98 b3
       3.3136967e-08 -2.7524246e-08 -2.7715404e-07 -7.1167776e-08

exp_avg_sq f4 [40, 10]
000000 d1 2b 69 2c 3c 0b c3 2a 1d ae 14 2b 9a c4 72 2c
       3.3135614e-12 3.4646754e-13 5.2821793e-13 3.4499404e-12
000010 9d 74 04 2d 9c 55 fe 2a 41 77 9b 2c 36 c7 38 2b
       7.529225e-12 4.5178867e-13 4.418605e-12 6.564639e-13
000020 e3 da be 2b ba 7e 82 2a 1d 01 40 2b 42 d7 c6 2a
       1.3561065e-12 2.3180573e-13 6.821365e-13 3.532123e-13
000030 8f e5 11 2b 49 fb 78 2b 39 3c 91 2c 7e db 07 29
       5.1832925e-13 8.845603e-13 4.127834e-12 3.01664e-14
000040 cb f8 97 2b 42 60 9c 2a 49 13 93 2b d2 f6 6e 2a
       1.0798249e-12 2.777796e-13 1.0450331e-12 2.122428e-13
000050 42 4d 0c 2b 67 71 91 2a ff fa d5 2a 1b 55 36 2b
       4.984521e-13 2.5835863e-13 3.8010564e-13 6.4777497e-13
000060 a4 f9 54 2c 6c 1f b1 28 2b 15 5e 2b a6 af 65 2a
       3.026559e-12 1.9664575e-14 7.889962e-13 2.0400226e-13
000070 09 e0 58 2b 58 a2 2e 2a 9b 55 92 2c 84 12 ae 2a
       7.7049527e-13 1.5510629e-13 4.1590737e-12 3.0921457e-13
000080 92 65 07 2b 65 fb a8 2c 94 2b 03 2d 23 1a 3b 2b
       4.810259e-13 4.8027576e-12 7.456164e-12 6.647202e-13
000090 4c ca bd 2c 1a a7 6b 2b 38 0f b1 2b 5d e5 50 2a
       5.3941625e-12 8.372067e-13 1.258083e-12 1.8553688e-13
0000a0 79 17 15 2d 2a 7b 46 2c 82 80 90 2c f7 b6 29 2d
       8.474881e-12 2.8205862e-12 4.1069934e-12 9.647164e-12
0000b0 51 dd 24 2e 61 a5 45 2b 0c 10 59 2d 91 b3 34 2c
       3.748585e-11 7.021797e-13 1.2338585e-11 2.5679218e-12
0000c0 bd 32 1a 2d e4 6a e3 2b a4 8f 35 2a c1 e8 cf 27
       8.765153e-12 1.6158988e-12 1.6125865e-13 5.7706394e-15
0000d0 05 47 3b 28 1a 47 4d 2a 28 1c 7b 2a 1f f6 05 29
       1.0395985e-14 1.8232326e-13 2.2303047e-13 2.974541e-14
0000e0 d0 77 62 2a 6b 6d 11 29 3f 6d 10 29 8f bc 9e 27
       2.01144e-13 3.2291373e-14 3.206918e-14 4.4058245e-15
0000f0 e5 66 87 2d b8 5d 06 2c 46 ab 45 2c a5 36 90 2d
       1.5393417e-11 1.909457e-12 2.809046e-12 1.6395172e-11
000100 df f2 24 2e 82 69 12 2c 90 10 b4 2d 2d 68 61 2c
       3.7504996e-11 2.0806416e-12 2.0470986e-11 3.2032252e-12
000110 b9 a3 f8 2c 68 96 91 2b bb 8e 97 29 e0 24 3c 27
       7.066761e-12 1.0344616e-12 6.730507e-14 2.611023e-15
000120 ac 73 a8 27 62 69 b4 29 e5 42 d2 29 02 cf 5d 28
       4.675478e-15 8.011887e-14 9.337478e-14 1.2312852e-14
000130 1a ee bd 29 53 bc 72 28 92 bf 74 28 b9 e7 f6 26
       8.43459e-14 1.3474535e-14 1.3586261e-14 1.7132488e-15
000140 ab 9a 86 2b 35 e4 d4 2a 1e 97 1c 2b 14 94 9f 2b
       9.564202e-13 3.7817115e-13 5.563205e-13 1.1338729e-12
000150 59 0b a7 2c c6 f4 96 29 bf f1 c7 2b aa 4a b4 2a
       4.7476853e-12 6.7037996e-14 1.4206898e-12 3.2026232e-13
000160 88 75 a2 2b f3 d0 80 2a 5a 6e c5 2e f1 f3 de 2d
       1.1543414e-12 2.2882355e-13 8.978125e-11 2.534681e-11
000170 06 72 28 2e eb 36 c2 2e 9a 14 b5 2f c3 f6 2d 2d
       3.830005e-11 8.831854e-11 3.2938346e-10 9.888704e-12
000180 08 0c 01 2f 75 86 cc 2d 5c 84 af 2e 69 5f 9b 2d
       1.1736756e-10 2.3251826e-11 7.9815904e-11 1.766383e-11
000190 c8 dd 2c 2c d2 ee 85 2a cd 00 cc 2a 80 c3 3a 2c
       2.4565783e-12 2.379126e-13 3.6238235e-13 2.6540714e-12
0001a0 67 c7 b2 2c f9 dc cc 2a f0 fd 5f 2c 36 4b 08 2b
       5.0812024e-12 3.639101e-13 3.183117e-12 4.842128e-13
0001b0 ee 72 81 2b e2 58 2f 2a d2 bd be 2a 18 fe 56 2a
       9.197901e-13 1.557396e-13 3.3882494e-13 1.9095175e-13
0001c0 54 6f 9b 2a c7 a9 00 2b d8 eb 1b 2c db f6 48 28
       2.761078e-13 4.571035e-13 2.2157744e-12 1.11557585e-14
0001d0 f7 82 1e 2b 08 2c 25 2a 45 b2 1c 2b 2b 1f ff 29
       5.6314626e-13 1.467022e-13 5.566973e-13 1.13296816e-13
0001e0 ca 1a d4 2a 46 e9 5e 2a b0 70 a4 2a 16 53 0b 2b
       3.7677354e-13 1.9798494e-13 2.9210445e-13 4.9498025e-13
0001f0 8d 33 24 2c 89 25 77 28 ac bd 2a 2b b5 d6 31 2a
       2.3334418e-12 1.37193935e-14 6.0659355e-13 1.579525e-13
000200 14 99 27 2b 45 90 08 2a 28 24 85 2c bb 83 93 2a
       5.9542757e-13 1.212928e-13 3.7841015e-12 2.6203852e-13
000210 8b 2b e9 2a 9a 7c 9d 2c 65 e4 e2 2c c9 46 2e 2b
       4.1419328e-13 4.476042e-12 6.4486632e-12 6.191545e-13
000220 a1 74 ac 2c 41 aa 54 2b 3b 97 96 2b f3 00 38 2a
       4.9014824e-12 7.5553805e-13 1.0700116e-12 1.6342812e-13
000230 77 d2 1d 2d fb 72 62 2c 6a db a4 2c bb 26 38 2d
       8.971149e-12 3.2180359e-12 4.68552e-12 1.0467789e-11
000240 ad 6d 3a 2e e6 d0 3d 2b d5 10 6d 2d 7b 54 4a 2c
       4.2388915e-11 6.7436193e-13 1.3475628e-11 2.8752823e-12
000250 ed bb 2f 2d c0 e9 03 2c 7f 89 63 2a 48 fb 0a 28
       9.989326e-12 1.8745977e-12 2.0209354e-13 7.715027e-15
000260 7a 25 6f 28 fc eb 87 2a 0a dd 9a 2a de 0e 2f 29
       1.3275292e-14 2.4144564e-13 2.7509272e-13 3.88707e-14
000270 4f 44 8f 2a b3 17 3a 29 b4 72 30 29 5b d2 c1 27
       2.5449301e-13 4.1320852e-14 3.917934e-14 5.379633e-15
000280 3e d4 47 2d 0a 40 b9 2b d2 86 0a 2c f1 1b 5b 2d
       1.1358968e-11 1.3162815e-12 1.968582e-12 1.2454913e-11
000290 86 dc e6 2d 46 ef df 2b d0 a6 84 2d 38 80 24 2c
       2.6245905e-11 1.5911515e-12 1.5080742e-11 2.3376977e-12
0002a0 78 22 ac 2c bd a6 50 2b f8 38 87 29 bb 71 2b 27
       4.892361e-12 7.412784e-13 6.005087e-14 2.379267e-15
0002b0 1d 19 94 27 03 97 a3 29 44 ac ba 29 9d 1a 4a 28
       4.110548e-15 7.2648505e-14 8.2899426e-14 1.1219023e-14
0002c0 e1 ff aa 29 d6 37 5e 28 2b 1d 58 28 9d 49 e4 26
       7.5939045e-14 1.2335583e-14 1.19967335e-14 1.5840631e-15
0002d0 b2 57 94 2b f8 a0 f4 2a 67 8e 33 2b 44 9a b2 2b
       1.0540373e-12 4.3454801e-13 6.37912e-13 1.2690478e-12
0002e0 6d 69 c1 2c dd ff 94 29 cf 7c e3 2b 9e 93 d2 2a
       5.4970945e-12 6.6169055e-14 1.6163961e-12 3.7405924e-13
0002f0 d3 c0 bc 2b 2b b8 94 2a 80 d1 28 2e 8b 86 87 2d
       1.3411723e-12 2.6417873e-13 3.838485e-11 1.5407472e-11
000300 fe 13 d0 2d dd c9 4b 2e e7 0b 56 2f df 2d 54 2c
       2.365574e-11 4.6336147e-11 1.9467415e-10 3.0152476e-12
000310 8b 9b 7c 2e e2 73 76 2d 04 87 5a 2e 44 1f 43 2d
       5.7436316e-11 1.4009212e-11 4.968738e-11 1.1091409e-11
000320 c9 91 11 2f b1 6d d3 2d ae e3 1a 2e a7 35 1d 2f
       1.3239466e-10 2.4036636e-11 3.5217766e-11 1.4298128e-10
000330 ed e9 db 2f 4d d7 8b 2d 28 cb 49 2f 1c de 06 2e
       4.0002082e-10 1.5898083e-11 1.8353019e-10 3.0665345e-11
000340 ed 08 b3 2e c4 6c 80 2d 18 5c 80 2f e2 77 ab 2e
       8.141563e-11 1.4600217e-11 2.33485e-10 7.797475e-11
000350 3a a9 f9 2e 9c db 8f 2f f3 22 90 30 01 9a aa 2d
       1.135327e-10 2.616759e-10 1.0487312e-09 1.9395154e-11
000360 cb 03 be 2f bc 65 9c 2e b3 5b 85 2f 6d c9 4e 2e
       3.4563494e-10 7.11213e-11 2.4257715e-10 4.701788e-11
000370 5a 67 46 2e 8e 17 7c 2d ba 91 b9 2d fd f3 5e 2e
       4.5111782e-11 1.4329772e-11 2.109678e-11 5.069366e-11
000380 01 92 56 2f b3 85 83 2c 63 d7 90 2e 03 7c 6d 2d
       1.9515058e-10 3.7380875e-12 6.586622e-11 1.3499426e-11
000390 16 a3 47 2e ef e7 13 2d ed 70 86 2f 86 b2 dd 2d
       4.539221e-11 8.407482e-12 2.4454697e-10 2.5204071e-11
0003a0 73 3e 27 2e 3b 1b 90 2f ca c4 13 30 22 30 18 2e
       3.802687e-11 2.6212796e-10 5.375794e-10 3.460355e-11
0003b0 8d 2d b0 2f d3 a7 55 2e b1 39 d6 2e 76 e3 7e 2d
       3.204658e-10 4.857965e-11 9.7418414e-11 1.4488735e-11
0003c0 0d 29 9b 2f 1d 3a a8 2e 8c 2e f6 2e 2b 27 a8 2f
       2.8223504e-10 7.6500785e-11 1.1195053e-10 3.0586852e-10
0003d0 26 73 97 30 d1 d4 ea 2d 76 52 dd 2f d2 08 a8 2e
       1.1019423e-09 2.669723e-11 4.0258258e-10 7.641322e-11
0003e0 57 a0 87 2f ea 28 42 2e c7 18 c2 2e 0e 2a eb 2c
       2.4670285e-10 4.4146832e-11 8.8265e-11 6.6837707e-12
0003f0 f5 f6 3d 2d fa 7a e2 2e 69 8a 2d 2f 34 e8 7a 2d
       1.0798242e-11 1.0299135e-10 1.5783432e-10 1.4262414e-11

exp_avg f4 [40]
000000 52 89 7b b6 b8 73 ee 35 38 7c 92 35 27 1c bb b5
       -3.7481846e-06 1.776606e-06 1.0914e-06 -1.3940779e-06
000010 c0 cd 15 37 3a 0d 12 b3 a6 14 f6 b6 02 4b 96 34
       8.928997e-06 -3.4005303e-08 -7.333775e-06 2.7994253e-07
000020 ca 34 36 36 d0 b8 22 37 07 dc 34 b6 43 e5 5e 35
       2.715084e-06 9.6989825e-06 -2.6950163e-06 8.3035064e-07
000030 83 a1 40 35 c8 5a 9c b5 cb 1d 03 37 13 88 b7 b3
       7.1760604e-07 -1.1649327e-06 7.815145e-06 -8.546353e-08
000040 6c db af b6 6e 0c 84 34 5c 75 22 36 65 6c 65 36
       -5.2409505e-06 2.459596e-07 2.4208193e-06 3.4186753e-06
000050 e6 e7 ef 37 56 a4 3b b8 a2 25 91 b7 27 ae 06 b8
       2.8599006e-05 -4.4737324e-05 -1.7302871e-05 -3.211028e-05
000060 99 1a 58 38 e8 a5 12 b6 ed 36 29 38 2d 7c e0 36
       5.1523184e-05 -2.1852265e-06 4.0343893e-05 6.690176e-06
000070 78 42 14 b8 7a 04 11 ba bd b5 68 b6 2a 6f c8 35
       -3.5347854e-05 -0.0005531978 -3.467648e-06 1.4933514e-06
000080 b1 2b 92 35 02 26 a0 b5 2e 09 31 37 c4 8f 40 b3
       1.0890564e-06 -1.1931991e-06 1.0552159e-05 -4.4834238e-08
000090 1c 14 e9 b6 31 43 a3 34 f8 42 6d 36 17 e5 0e 37
       -6.946282e-06 3.0410004e-07 3.5354733e-06 8.517199e-06

exp_avg_sq f4 [40]
000000 23 93 b2 2f 82 eb 05 2f 70 14 ca 2e ea 7f b1 2f
       3.2482558e-10 1.2179949e-10 9.189527e-11 3.2287e-10
000010 6b 1d ab 30 16 ff 41 2d 2d a7 d2 30 f4 a6 9e 2c
       1.2450249e-09 1.102742e-11 1.5327025e-09 4.5091656e-12
000020 4b b6 24 2f d8 7f 3f 32 0b 05 62 2f c6 b8 86 2e
       1.4980477e-10 1.11467315e-08 2.0556372e-10 6.126437e-11
000030 29 ff 8e 2e da ba 95 2f 3f 72 b2 30 17 ac 62 2d
       6.502738e-11 2.7235708e-10 1.2983675e-09 1.2884824e-11
000040 2e e9 8c 30 96 b0 86 2c 1e 39 32 2f 21 df c2 31
       1.0252614e-09 3.828114e-12 1.6209298e-10 5.67151e-09
000050 a5 c9 81 32 45 76 15 33 e7 e3 e2 31 66 ff c2 32
       1.5109274e-08 3.479933e-08 6.603375e-09 2.2700714e-08
000060 37 61 25 33 a3 12 ee 31 fb 41 07 33 21 4d 7f 30
       3.8505473e-08 6.9288304e-09 3.1492146e-08 9.2878066e-10
000070 ff bc 9b 32 20 fe 68 36 06 08 a7 2f cc a2 c3 2e
       1.813032e-08 3.4718614e-06 3.0382824e-10 8.896492e-11
000080 79 79 c7 2e b2 7c 82 2f b5 96 ec 30 ae 5c b4 2d
       9.07105e-11 2.3735464e-10 1.7214093e-09 2.0504789e-11
000090 ad 3b c5 30 e1 25 c9 2c de 72 8d 2f 17 b1 0a 32
       1.4350597e-09 5.716969e-12 2.572937e-10 8.072923e-09

exp_avg f4 [40]
000000 55 89 7b b6 b7 73 ee 35 38 7c 92 35 2b 1c bb b5
       -3.7481852e-06 1.7766059e-06 1.0914e-06 -1.3940784e-06
000010 c2 cd 15 37 30 0d 12 b3 a2 14 f6 b6 02 4b 96 34
       8.928999e-06 -3.4005268e-08 -7.3337733e-06 2.7994253e-07
000020 c8 34 36 36 d1 b8 22 37 04 dc 34 b6 49 e5 5e 35
       2.7150836e-06 9.698983e-06 -2.6950156e-06 8.30351e-07
000030 81 a1 40 35 c9 5a 9c b5 cb 1d 03 37 10 88 b7 b3
       7.1760593e-07 -1.1649328e-06 7.815145e-06 -8.546351e-08
000040 6d db af b6 6c 0c 84 34 5d 75 22 36 64 6c 65 36
       -5.240951e-06 2.4595954e-07 2.4208196e-06 3.418675e-06
000050 e5 e7 ef 37 56 a4 3b b8 a1 25 91 b7 27 ae 06 b8
       2.8599005e-05 -4.4737324e-05 -1.730287e-05 -3.211028e-05
000060 94 1a 58 38 e2 a5 12 b6 ed 36 29 38 2c 7c e0 36
       5.1523166e-05 -2.1852252e-06 4.0343893e-05 6.6901757e-06
000070 77 42 14 b8 7b 04 11 ba b9 b5 68 b6 2a 6f c8 35
       -3.534785e-05 -0.00055319787 -3.467647e-06 1.4933514e-06
000080 af 2b 92 35 03 26 a0 b5 2f 09 31 37 c3 8f 40 b3
       1.0890561e-06 -1.1931992e-06 1.055216e-05 -4.4834234e-08
000090 19 14 e9 b6 32 43 a3 34 f9 42 6d 36 18 e5 0e 37
       -6.946281e-06 3.0410007e-07 3.5354735e-06 8.5172e-06
